saved_models/mergedNN.pth (torch, 100368 bytes, 31 tensors)

model.0.weight f4 [256, 5]
0.027225276 -0.10753901 0.14402114 0.07887203 -0.0991302 0.09389558 -0.14883436 0.10153471
-0.17105566 0.072779976 0.09606484 0.052967306 -0.068194404 -0.13557966 -0.08464144 0.124137916
-0.12221058 -0.14090529 -0.027440676 0.01923086 0.09284661 -0.09932447 0.13364843 0.064711235
-0.0641945 0.052006595 -0.16004081 -0.12400868 0.063522644 -0.0986433 0.21666323 -0.053988915
-0.009440688 -0.009423568 -0.13118297 0.018641226 -0.19095558 0.052906148 -0.022039521 0.00975288
-0.205689 -0.04004904 0.10438201 -0.0012441787 -0.17883596 0.00792749 0.06735525 -0.09870862
0.09190636 0.18468843 -0.06891643 -0.00794766 -0.16227776 0.0046503497 0.18391524 -0.002211788
-0.07846811 0.07843481 -0.11208861 -0.089906946 -0.118663654 -0.1868433 0.117222294 0.050060116
0.07559324 -0.08922589 0.015667459 0.10467151 -0.033681925 0.17572266 -0.14647749 -0.085953206
-0.107163586 -0.055654068 -0.15365364 -0.0532622 -0.016871158 0.08201582 0.047417443 0.11768868
0.15522183 0.116225906 0.12960108 0.09075644 0.088996686 0.02645094 0.08003366 0.051190667
-0.08985719 -0.124542646 -0.037153203 0.16414402 0.09705636 0.013567496 -0.002095112 -0.097783305
-0.13548955 -0.09999552 0.122378275 0.087571345 -0.13813473 0.090106815 -0.08613086 0.11469466
-0.056765586 -0.05217844 -0.053092275 0.10384683 0.090957254 0.08497896 0.19280675 0.04811475
-0.07823549 -0.19368106 -0.052469876 0.069952436 0.090750284 0.15853173 -0.041052617 0.05895129
-0.12700908 0.014158205 0.10280925 -0.11958429 -0.17887825 0.07027638 -0.21453921 0.047046747
-0.083979286 -0.06820036 0.0686688 0.016717192 0.12675421 0.08362201 -0.24535324 -0.01367876
-0.10862182 -0.13961418 0.04572436 0.12413168 -0.114702985 0.13850476 -0.07129758 0.1936334
-0.07177009 0.20694098 -0.027509116 0.100131705 0.024097532 -0.15418167 0.011918735 -0.100231566
-0.055616837 0.0013081646 -0.164205 0.047126137 -0.28120992 0.020445252 -0.0771176 0.035707865
0.21731974 0.015768876 -0.063837774 0.030467905 -0.2196219 -0.03176873 0.092546605 -0.064604975
0.19181317 -0.017411795 -0.032226983 0.15407094 -0.09685454 0.03245539 0.16050299 -0.11270053
0.042733047 0.106477335 0.12538962 -0.14134327 -0.004802218 0.015331548 -0.11774293 0.13784142
-0.14850026 -0.15733327 0.11797735 -0.007585221 0.16808194 -0.070673734 0.09815403 -0.101100765
-0.12995361 0.124615945 0.06421043 -0.06658182 0.012986291 -0.02537021 0.22457704 -0.22044027
-0.13944145 -0.051577006 -0.027878182 -0.13218363 -0.08425233 -0.16725959 0.03170026 0.06501801
-0.06422765 0.19227603 -0.005585094 0.10738616 -0.07341451 -0.030565057 -0.10875026 -0.11844709
0.13416809 0.040202327 -0.00080256624 -0.06057455 0.009859635 0.106268324 -0.07376107 0.042558067
0.10423398 0.02652778 -0.19791876 -0.002328281 0.03144491 0.03739771 0.0071403384 -0.21937428
-0.00044979388 -0.0986773 -0.09077131 0.056171406 -0.118860304 -0.06066879 0.10755923 -0.13452105
-0.16493072 -0.031387366 0.093946815 0.12138674 -0.012858604 0.21839063 -0.08373582 0.010809905
0.10586891 -0.095797986 0.009184477 0.0488651 -0.14249857 0.11698757 -0.022669341 -0.04493771
00000000: 8b07 df3c 6a3d dcbd 477a 133e a987 a13d
00000010: c604 cbbd 534c c03d 0968 18be 6ef1 cf3d
00000020: 3729 2fbe ab0d 953d a5bd c43d 3ff4 583d
00000030: 82a9 8bbd 65d5 0abe 7e58 adbd 053c fe3d
00000040: 8a49 fabd 7a49 10be 45cb e0bc 098a 9d3c
00000050: 5d26 be3d a16a cbbd 22db 083e 5387 843d
00000060: 6878 83bd de04 553d bde1 23be 43f8 fdbd
00000070: 2918 823d 8005 cabd f7dc 5d3e 7b23 5dbd
00000080: 1ead 1abc 4f65 1abc d454 06be 7cb5 983c
00000090: dc89 43be 1eb4 583d 3a8c b4bc 8bca 1f3c
000000a0: 23a0 52be 760a 24bd 3cc6 d53d b613 a3ba
000000b0: c620 37be 4ee2 013c 8df1 893d bf27 cabd
000000c0: 6739 bc3d f71e 3d3e 0f24 8dbd e736 02bc
000000d0: 242c 26be f661 983b 4754 3c3e a5f3 10bb
000000e0: e3b3 a0bd 6ea2 a03d b78e e5bd 2221 b8bd
000000f0: ee05 f3bd da53 3fbe 3e12 f03d d60b 4d3d
00000100: a1d0 9a3d 10bc b6bd 0b59 803c 045e d63d
00000110: 0ff6 09bd a4f0 333e 32fe 15be 3c08 b0bd
00000120: 9578 dbbd 85f5 63bd 6157 1dbe 7729 5abd
00000130: 6235 8abc e9f7 a73d cb38 423d c306 f13d
00000140: 79f2 1e3e d907 ee3d 25b6 043e 83de b93d
00000150: e543 b63d a4af d83c b0e8 a33d 4ead 513d
00000160: 0c07 b8bd 3710 ffbd f52d 18bd 5f15 283e
00000170: 7cc5 c63d 344a 5e3c 264e 09bb 9d42 c8bd
00000180: c6bd 0abe 74ca ccbd 76a1 fa3d 9b58 b33d
00000190: 3173 0dbe ec89 b83d 6065 b0bd 09e5 ea3d
000001a0: 0883 68bd 0fb9 55bd 4977 59bd a6ad d43d
000001b0: cc47 ba3d 7309 ae3d 226f 453e f913 453d
000001c0: ee39 a0bd 5454 46be a7ea 56bd 3943 8f3d
000001d0: 49db b93d 2456 223e ca26 28bd e876 713d
000001e0: ab0e 02be d1f7 673c a88d d23d 9ce8 f4bd
000001f0: dc2b 37be 10ed 8f3d 2bb0 5bbe 17b4 403d
00000200: 55fd abbd a1ac 8bbd 3aa2 8c3d 7ef2 883c
00000210: dbcb 013e 0442 ab3d e13d 7bbe e11c 60bc
00000220: 1e75 debd 05f7 0ebe 7749 3b3d c038 fe3d
00000230: 66e9 eabd 31d4 0d3e 7704 92bd d647 463e
00000240: 32fc 92bd 56e8 533e cc5a e1bc da11 cd3d
00000250: 3068 c53c cde1 1dbe cc46 433c 3546 cdbd
00000260: 7bce 63bd b876 ab3a 5b25 28be 5607 413d
00000270: bffa 8fbe cd7c a73c d5ef 9dbd 6942 123d
00000280: 1189 5e3e bb2d 813c 61bd 82bd d497 f93c
00000290: 90e4 60be ee1f 02bd 1389 bd3d 9d4f 84bd
000002a0: ac6a 443e 2ea3 8ebc 7100 04bd c6c4 1d3e
000002b0: ac5b c6bd f1ef 043d e55a 243e 89cf e6bd
000002c0: d908 2f3d ca10 da3d 2366 003e 4abc 10be
000002d0: ed5b 9dbb 2c31 7b3c 3523 f1bd 4d26 0d3e
000002e0: 7410 18be f91b 21be 1c9e f13d 728d f8bb
000002f0: ac1d 2c3e 64bd 90bd fb04 c93d eb0d cfbd
00000300: 8f12 05be a536 ff3d c280 833d 0d5c 88bd
00000310: 74c4 543c 30d5 cfbc 86f7 653e 18bb 61be
00000320: bdc9 0ebe 6942 53bd c960 e4bc 255b 07be
00000330: 7c8c acbd 1946 2bbe 22d8 013d 2a28 853d
00000340: c989 83bd 02e4 443e 2a03 b7bb 46ed db3d
00000350: 595a 96bd 9263 fabc 75b8 debd 6394 f2bd
00000360: 5c63 093e 32ab 243d 4f63 52ba 051d 78bd
00000370: 4e8a 213c 35a3 d93d 0b10 97bd 5e51 2e3d
00000380: a078 d53d c950 d93c 37ab 4abe 1396 18bb
00000390: 61cc 003d 572e 193d 80f9 e93b a7a3 60be
000003a0: 50d2 ebb9 5317 cabd 4fe6 b9bd fd13 663d
000003b0: 086d f3bd d67f 78bd 0348 dc3d e3bf 09be
000003c0: 99e3 28be 0a90 00bd 3067 c03d 9c99 f83d
000003d0: e5ac 52bc cba1 5f3e b07d abbd 071c 313c
000003e0: cdd1 d83d bc31 c4bd 7d7a 163c c526 483d
000003f0: 25eb 11be 2e97 ef3d 0eb5 b9bc 9b10 38bd

model.0.bias f4 [256]
0.00043868186 0.00043471792 -0.0018339725 -0.0019902985 -0.0008986523 0.00065699616 0.00051005784 0.0031384458
0.00011307342 0.0011698023 0.00032383626 0.00054652774 -0.0045667985 0.00036086302 -0.00026537565 9.283492e-05
0.0016958227 0.0039278357 -8.6972774e-05 -0.00071469566 0.00031470606 -0.0009123811 0.0018528319 0.0016058263
-0.0017283856 -2.0231311e-05 -5.6279634e-05 0.0009480317 0.00031288218 -0.000792883 0.0021107888 -0.00011701465
0.0009608783 0.0021162182 0.0011887974 0.001088604 0.0011663449 0.0017005947 0.0021475907 -0.0011315888
-0.0010884944 0.00030706608 0.004826537 0.0011394542 -0.0002977697 -0.0008523335 -0.0009298408 -0.000743911
-0.0010080567 0.00084782264 -0.001150871 0.00085433683 -0.0027160724 0.002275835 -0.0014551731 0.0012939863
-0.0003015961 -0.002992551 0.001209637 -0.00045073536 0.0011688317 -0.0042971596 -9.867225e-05 -0.00038731142
0.0036265699 0.00042561707 0.00083490496 0.002027084 0.0017195775 -0.0012344071 0.0015953556 -0.00092024275
-0.0005390386 0.00013951422 -0.0010426033 0.00035499985 6.0790346e-05 -0.00082237425 0.00020824125 0.00061113294
0.00013585109 0.0010881212 0.0013166519 -0.0029387376 -9.389836e-06 0.0036401977 -0.0001017665 0.0017896775
-0.00083306414 0.0035776051 -0.0031139338 -0.00031289467 -0.0020878613 -0.00012912904 -0.0007048591 -0.0015499718
0.00015107024 -0.0016915976 0.00051716453 -0.00040086603 -0.0010365549 -0.0039915796 -0.0031875093 -0.00093995227
-0.0005351141 -0.0013521322 -0.0012488689 -0.001010595 0.001222922 0.0006093085 -0.0026134835 8.358015e-05
0.0019338356 -0.00024451758 0.0025418252 0.0008615395 -0.0005404624 -0.0011923125 0.0006166527 0.0011598769
0.0001887437 0.00070461805 0.0020140382 0.001135692 -0.00028353804 -0.0021464075 -0.0015642196 0.0016531582
-0.0007148833 0.0018628355 0.0016407658 -0.0024343051 -4.859358e-05 0.0026537327 -0.0013772551 0.0018242593
-0.0017004707 1.963399e-05 0.00037341868 0.0009746724 -0.0004628901 -3.1667857e-06 0.0014980175 0.00035676442
-0.004441876 0.0012084026 -0.0017310411 -0.00529193 -0.0022129582 -0.0016781304 0.0029409847 -0.00025074786
0.0012832698 -0.0005774591 0.0019985551 0.0034405785 -0.0006852126 0.00092961505 -0.0014376868 -0.000262751
0.0007716791 -0.0009096373 -0.0010119904 -0.0006150925 0.0007314041 -0.0058137956 0.00072167034 0.0008341746
-0.00051933376 -0.0009245576 -0.0006829132 0.0068135117 -0.0026362801 -0.003373047 -0.0013003085 -0.0014217115
0.0012237936 0.0007327755 9.764133e-05 0.00045699935 0.0029987083 -0.0015361235 -0.0011900844 0.00019559359
0.0016989496 -0.0016227827 -0.0003378753 0.0004761566 -0.0016590958 0.00080238504 0.0028395136 -0.0015328431
0.0008722863 0.00022651868 -0.0013546612 0.0013584666 0.0007065006 -0.00091484794 -0.00031378167 0.0012977835
0.0008254189 0.0012924409 0.00054345705 -0.0036941748 0.0009562246 -4.070659e-05 -0.0023141045 -0.0009365546
-0.0010615515 0.0018322032 0.00022759289 -0.0019125333 -0.00022202381 -0.00041044306 -0.00015555124 -6.469224e-05
0.0011977765 1.2034045e-05 -0.0006403243 0.0024222268 -0.0019293285 -0.0029099782 0.001568249 0.002238969
-7.4909294e-05 -0.00024429333 0.002926012 0.0008725214 0.002942955 0.0012973987 -0.00019502793 -0.00032517195
0.00213485 -0.0012599246 0.0011958993 -0.0031237772 0.00014872625 0.0018642027 -0.00020148662 -0.0008493674
-0.00077470747 -2.2259026e-05 0.004192426 0.00116131 -0.00031101852 -0.0006457578 0.0014323336 -0.00025192613
-0.00036707148 -0.0002941446 0.0013289241 0.00023708743 0.00030775953 -0.0036697525 -0.0010255051 -0.00093717774
00000000: e2fe e539 daea e339 e861 f0ba ab6f 02bb
00000010: 8993 6bba 443a 2c3a 67b5 053a 62ae 4d3b
00000020: d521 ed38 0d54 993a 91c8 a939 db44 0f3a
00000030: 15a5 95bb 3732 bd39 1e22 8bb9 5eb0 c238
00000040: 5e46 de3a 13b5 803b 2765 b6b8 6a5a 3bba
00000050: 22ff a439 dc2c 6fba b9da f23a 977a d23a
00000060: ff8a e2ba 69b6 a9b7 cc0d 6cb8 5585 783a
00000070: 560a a439 7ad9 4fba 2955 0a3b c365 f5b8
00000080: 73e3 7b3a 40b0 0a3b 6cd1 9b3a 7daf 8e3a
00000090: 0ae0 983a 7de6 de3a 98be 0c3b d251 94ba
000000a0: d0ab 8eba b6fd a039 ed27 9e3b bd59 953a
000000b0: f91d 9cb9 226f 5fba 8fc0 73ba 0603 43ba
000000c0: c520 84ba 6a40 5e3a d3d8 96ba 93f5 5f3a
000000d0: 2200 32bb 2d26 153b 82bb beba fa9a a93a
000000e0: 8b1f 9eb9 ad1e 44bb af8c 9e3a ad50 ecb9
000000f0: 7c33 993a 30cf 8cbb 43ee ceb8 0f10 cbb9
00000100: bfab 6d3b 5b25 df39 86dd 5a3a d3d8 043b
00000110: 7263 e13a d4cb a1ba 401b d13a 723c 71ba
00000120: 454e 0dba 904a 1239 f6a7 88ba 461f ba39
00000130: 23f9 7e38 9a94 57ba 565b 5a39 7034 203a
00000140: 4073 0e39 4a9f 8e3a 8293 ac3a d697 40bb
00000150: 0a89 1db7 6290 6e3b 796b d5b8 9d93 ea3a
00000160: fd61 5aba 4176 6a3b 2413 4cbb 030c a4b9
00000170: 80d4 08bb d066 07b9 4bc6 38ba 6c28 cbba
00000180: 9c68 1e39 99b8 ddba 5392 073a 542b d2b9
00000190: 03dd 87ba cccb 82bb 88e5 50bb 2167 76ba
000001a0: e646 0cba 073a b1ba 16b1 a3ba f175 84ba
000001b0: 744a a03a 00ba 1f3a fa46 2bbb c047 af38
000001c0: c178 fd3a 9832 80b9 c094 263b f0d8 613a
000001d0: d1ad 0dba 5e47 9cba dda6 213a 0307 983a
000001e0: 80e9 4539 1eb6 383a f4fd 033b 80db 943a
000001f0: d5a7 94b9 beaa 0cbb 8006 cdba c9ae d83a
00000200: 0267 3bba 632a f43a f70e d73a dd88 1fbb
00000210: f6d0 4bb8 3fea 2d3b 0385 b4ba fc1b ef3a
00000220: 54e2 deba acb3 a437 68c7 c339 2881 7f3a
00000230: 0fb0 f2b9 f784 54b6 2059 c43a 1c0c bb39
00000240: 288d 91bb 4363 9e3a 1ae4 e2ba ed67 adbb
00000250: 4707 11bb b6f4 dbba 89bd 403b cf76 83b9
00000260: 6433 a83a a060 17ba 31fa 023b 547b 613b
00000270: d79f 33ba 69b1 733a c470 bcba d8c1 89b9
00000280: 824a 4a3a ba74 6eba c3a4 84ba 293e 21ba
00000290: b3bb 3f3a a781 bebb 7a2e 3d3a 83ac 5a3a
000002a0: e623 08ba 035e 72ba 8705 33ba e143 df3b
000002b0: 71c5 2cbb 570e 5dbb 1d6f aaba b958 baba
000002c0: b367 a03a bb17 403a cac4 cc38 6a99 ef39
000002d0: fa85 443b c057 c9ba 9bfc 9bba 4118 4d39
000002e0: 4aaf de3a 8db3 d4ba db24 b1b9 a8a4 f939
000002f0: 0476 d9ba 2657 523a 2217 3a3b aee9 c8ba
00000300: 25aa 643a a585 6d39 e38e b1ba 930e b23a
00000310: 7434 393a 68d2 6fba 1083 a4b9 631a aa3a
00000320: ed60 583a 1f67 a93a c976 0e3a f819 72bb
00000330: 26ab 7a3a 5ebc 2ab8 3ba8 17bb 1e83 75ba
00000340: c223 8bba 8a26 f03a 00a6 6e39 f8ad faba
00000350: 10cf 68b9 bc30 d7b9 781b 23b9 62ab 87b8
00000360: b6fe 9c3a d4e5 4937 70db 27ba 39be 1e3b
00000370: 86e1 fcba 55b5 3ebb b48d cd3a abbb 123b
00000380: 9f18 9db8 7f14 80b9 56c2 3f3b ecb9 643a
00000390: 97de 403b 7a0d aa3a 6980 4cb9 d77b aab9
000003a0: d7e8 0b3b 0e24 a5ba b9bf 9c3a 49b8 4cbb
000003b0: 66f3 1b39 4358 f43a 2746 53b9 15a8 5eba
000003c0: bd15 4bba e5b8 bab7 9e60 893b 1937 983a
000003d0: 3310 a3b9 1348 29ba 24bd bb3a f414 84b9
000003e0: 8073 c0b9 6b37 9ab9 4b2f ae3a ac9a 7839
000003f0: c95a a139 3b80 70bb 3e6a 86ba efac 75ba

model.1.weight f4 [256]
1.0328753 0.97491854 0.9859778 0.937313 1.0663911 0.9118178 1.0661471 0.9101782
0.92364055 1.0202546 1.0073067 0.97888106 1.0506244 1.0199775 1.1664937 1.0769683
0.95056564 1.0519214 1.007933 0.93817234 1.016023 1.0243263 0.9568583 0.9849018
0.92540485 1.0891334 1.0731499 0.9119723 1.098132 1.0614724 1.0713788 0.97717184
0.9146831 1.0866835 0.94237584 1.0241219 0.9390905 1.0212772 1.025126 1.0507009
0.90195096 0.96785414 0.88199496 0.9131366 1.0555836 1.0147351 1.0447941 0.9762029
1.0362183 0.9295777 0.9648588 0.993648 1.0300212 0.9177857 1.0906689 0.98124284
0.9123271 1.0787885 0.9278056 1.0581019 1.0336084 1.0150312 0.9974876 1.0095732
1.0817347 0.9895787 1.0206895 0.98637825 1.089126 0.87449217 0.9257324 0.905652
1.0673833 1.0555086 0.9697704 1.0204362 0.9205655 1.0848595 1.027541 1.0236927
1.0032036 1.0384216 1.043058 0.91366 1.126073 1.0682179 1.1549689 0.8933195
1.0285616 1.0159265 1.0587581 1.0988053 0.876819 1.059617 1.0970616 0.9779147
1.0856394 0.94985324 1.0260566 1.035828 0.9354162 0.9607794 0.9129972 1.091663
1.0357814 1.1199328 0.9565206 0.9316269 1.0159339 0.9322816 1.0335776 1.0812911
0.897522 0.9732594 0.9147016 1.051386 0.9630575 0.99605674 1.1241015 1.0518256
0.9909989 0.9974515 0.91652393 0.94913834 1.1481848 1.0270925 0.90171796 0.95960397
0.9556841 1.0777427 1.1176755 1.0799707 1.0747218 1.0332673 1.0178118 0.98963714
1.0689212 0.9081047 1.0082581 1.0372813 1.0417944 1.0366217 1.0353684 1.0629846
1.0066707 0.9204303 0.9712836 1.0814391 0.9980639 1.0205767 1.1040844 1.0183679
1.066074 0.90658736 1.0694027 1.1053314 0.95602626 1.0305377 1.1616344 1.0842005
1.020122 0.92039126 0.90332913 0.94914126 1.0465566 1.0144154 0.9308093 1.0486399
1.0482632 0.8386463 0.979464 1.0496593 1.1125903 1.0394754 1.0336865 0.9481055
1.0430255 1.053055 1.0240191 0.9754364 1.028506 0.8863745 1.0796977 1.0237743
1.0579995 0.92159075 0.979822 1.037063 1.0071183 0.89330536 0.92062503 0.9442476
1.0723509 0.9616544 1.0854948 0.9853778 0.9355996 1.0907173 0.88017625 1.0495775
1.0148399 1.008004 1.0061227 0.92466974 1.0348796 1.0770304 0.9454244 0.9065043
1.0802399 1.005358 0.9703003 1.0108242 0.9017758 1.0605806 0.9968972 1.0397702
1.0951904 1.0215117 0.9593199 0.9979158 0.9270403 0.9772292 1.041538 1.0386072
0.8836021 0.9339305 1.0793074 1.0585818 0.9516757 0.95960224 1.0251689 1.1497656
0.8833522 1.0388621 1.0687739 1.1614329 1.0504265 0.9387191 0.94681597 0.98114735
1.0634425 0.905553 1.0779686 0.99969393 1.0197005 1.0876977 1.0264677 1.0421329
1.071798 0.93448323 0.94288415 0.9467692 0.9650805 0.9609445 0.89638865 1.022011
00000000: 4235 843f 4394 793f 0b69 7c3f bff3 6f3f
00000010: 817f 883f e46c 693f 8277 883f 7001 693f
00000020: b573 6c3f b497 823f 6def 803f f397 7a3f
00000030: dc7a 863f 9f8e 823f aa4f 953f 19da 893f
00000040: 4558 733f 5ca5 863f f303 813f 102c 703f
00000050: 0b0d 823f 201d 833f aaf4 743f 8622 7c3f
00000060: 55e7 6c3f b968 8b3f fa5c 893f 0477 693f
00000070: 978f 8c3f 54de 873f f122 893f ef27 7a3f
00000080: ac28 6a3f 7218 8b3f 8b3f 713f 6d16 833f
00000090: 3c68 703f 36b9 823f 5437 833f 5e7d 863f
000000a0: 42e6 663f 4ac5 773f 6cca 613f 52c3 693f
000000b0: 5d1d 873f d7e2 813f d0bb 853f 6fe8 793f
000000c0: cda2 843f cef8 6d3f fc00 773f b75f 7e3f
000000d0: bcd7 833f 01f4 6a3f 0a9b 8b3f bb32 7b3f
000000e0: 458e 693f be15 8a3f ab84 6d3f e26f 873f
000000f0: 484d 843f 8bec 813f 595b 7f3f b239 813f
00000100: 4876 8a3f 0855 7d3f f4a5 823f 4983 7c3f
00000110: 7b68 8b3f b8de 5f3f ccfc 6c3f cfd8 673f
00000120: 04a0 883f e81a 873f df42 783f a79d 823f
00000130: 2eaa 6b3f addc 8a3f 7786 833f 5d08 833f
00000140: fa68 803f 00eb 843f ed82 853f 9fe5 693f
00000150: 2923 903f 5dbb 883f 05d6 933f 96b0 643f
00000160: e8a7 833f e109 823f 6385 873f a7a5 8c3f
00000170: 3677 603f 88a1 873f 846c 8c3f 9e58 7a3f
00000180: 3bf6 8a3f 9529 733f d355 833f 0396 843f
00000190: 7077 6f3f a4f5 753f 2fba 693f 9dbb 8b3f
000001a0: 7c94 843f f559 8f3f 89de 743f 1a7f 6e3f
000001b0: 1f0a 823f 02aa 6e3f 454c 843f bf67 8a3f
000001c0: 00c4 653f 8727 793f e229 6a3f d193 863f
000001d0: f08a 763f 93fd 7e3f 8fe2 8f3f 39a2 863f
000001e0: 1bb2 7d3f fb58 7f3f 50a1 6a3f bbfa 723f
000001f0: b8f7 923f c477 833f fdd6 663f 9ba8 753f
00000200: b7a7 743f 79f3 893f fe0f 8f3f 7b3c 8a3f
00000210: 7c90 893f 1a42 843f a847 823f dc58 7d3f
00000220: 69d2 883f 8d79 683f 9a0e 813f a2c5 843f
00000230: 8559 853f 05b0 843f f486 843f e10f 883f
00000240: 96da 803f 52a1 6b3f 0ba6 783f 996c 8a3f
00000250: 1e81 7f3f 42a2 823f a352 8d3f e159 823f
00000260: 1d75 883f 1c16 683f 30e2 883f 807b 8d3f
00000270: 23be 743f a9e8 833f 70b0 943f 15c7 8a3f
00000280: 5c93 823f c39e 6b3f 9440 673f ecfa 723f
00000290: 91f5 853f 5dd8 813f 8549 6e3f d539 863f
000002a0: 7d2d 863f 86b1 563f 27be 7a3f 3c5b 863f
000002b0: 5c69 8e3f 880d 853f d74f 843f 0bb7 723f
000002c0: dc81 853f 82ca 863f 0f13 833f 33b6 793f
000002d0: 16a6 833f 70e9 623f 8933 8a3f 090b 833f
000002e0: 876c 873f 5fed 6b3f 9dd5 7a3f 7bbe 843f
000002f0: 41e9 803f a9af 643f 15ae 6b3f 36ba 713f
00000300: cb42 893f fc2e 763f 7ef1 8a3f b841 7c3f
00000310: 7583 6f3f a09c 8b3f 3b53 613f 8e58 863f
00000320: 46e6 813f 4606 813f a1c8 803f 28b7 6c3f
00000330: ef76 843f 22dc 893f 5507 723f aa10 683f
00000340: 4d45 8a3f 92af 803f 9a65 783f b062 813f
00000350: c7da 663f 1bc1 873f a834 7f3f 3117 853f
00000360: 332f 8c3f e5c0 823f fd95 753f 6977 7f3f
00000370: 8352 6d3f b12b 7a3f 1e51 853f 15f1 843f
00000380: bf33 623f 1216 6f3f bf26 8a3f 9c7f 873f
00000390: 05a1 733f 7ea8 753f bc38 833f 852b 933f
000003a0: 5f23 623f 6ff9 843f 95cd 883f d5a9 943f
000003b0: 6074 863f e54f 703f 8862 723f 792c 7b3f
000003c0: e21e 883f 52d2 673f e0fa 893f f1eb 7f3f
000003d0: 8c85 823f ae39 8b3f 4b63 833f 9c64 853f
000003e0: ad30 893f 4b3a 6f3f db60 713f 775f 723f
000003f0: 840f 773f 7500 763f ba79 653f 42d1 823f

model.1.bias f4 [256]
-0.028023908 -0.05144536 0.0048346026 -0.025516434 0.049054284 -0.12948221 0.04385565 -0.093214266
0.026704237 -0.06159385 0.0006690279 -0.072050236 -0.09536373 -0.13576734 0.03945922 0.001875965
-0.067741394 -0.04830221 -0.07121617 -0.12219506 0.005407717 -0.10619804 -0.079342805 -0.0009258479
-0.04476088 0.03400878 0.049972814 -0.18430038 0.07125669 0.028074564 0.019994084 0.031643257
-0.08254347 0.0684809 -0.06753768 -0.07410234 -0.07174792 -0.041995738 0.04091194 -0.09071924
-0.12629199 -0.23767935 -0.08086334 -0.09170735 0.039281644 -0.044532925 0.11098688 -0.10102338
-0.13049923 -0.10627869 0.016505366 -0.09301253 -0.028010692 -0.067012295 0.042842694 -0.058095332
-0.07378011 0.06503403 -0.13769333 0.022957826 -0.12538816 0.09115523 -0.040645156 -0.14592217
-0.014801719 -0.1026651 0.021103123 0.0058099353 0.09762539 -0.15661317 -0.05052902 0.006933204
-0.0128460685 0.024921676 -0.056377545 0.031427514 0.033190463 0.060749054 -0.08156914 -0.0031693298
0.024170894 -0.03594491 0.048803933 -0.112962894 0.0064308685 0.03801753 0.28054953 -0.05881878
-0.14491905 -0.11055998 0.14094 -0.0914137 -0.15775007 0.022423374 -0.0078030103 -0.06381474
0.022518458 -0.08460645 0.044109087 0.019377554 -0.21332084 -0.26089358 -0.11650777 -0.15569793
-0.10039755 -0.027052062 -0.07113426 -0.07417319 0.03809342 -0.07990612 -0.07902165 -0.013626736
-0.100703396 -0.051665634 -0.11637366 0.018910075 -0.057397947 -0.24516857 0.06654204 0.040791143
-0.14889766 -0.038247947 -0.19501358 -0.12284442 -0.03575891 0.041188486 -0.018530142 -0.0728238
-0.14816919 0.05554729 -0.07615028 0.07666864 0.0010013401 0.024915317 -0.036088623 -0.029400079
-0.01800332 -0.10245081 -0.077084 -0.01628577 -0.033563767 0.03922693 -0.19168963 -0.061799176
-0.039426517 -0.10324284 -0.11154825 -0.14328015 -0.070805065 0.0118606035 0.018215086 -0.030526062
0.009885012 -0.07602322 0.011599623 0.060755692 -0.016867714 -0.07870997 0.109203115 -0.055274867
-0.04549038 -0.02639146 -0.06339585 -0.009413817 -0.03176341 -0.10321554 -0.117623344 -0.10035677
0.09678739 -0.11136013 -0.068799555 -0.0026211056 0.029620912 -0.07127538 -0.037195586 -0.0020511427
0.044466134 -0.014537057 -0.04558855 -0.044182487 0.029863728 -0.056952666 -0.019443061 0.008945092
0.030420566 -0.11986282 0.042258915 -0.04735848 -0.12532951 -0.08075273 -0.05442947 -0.025545081
0.0856921 -0.07073101 -0.081204444 0.062149476 -0.2524669 0.007493116 -0.09655176 0.027389238
-0.059855483 -0.028764514 -0.023429155 -0.11021513 -0.067503855 -0.022200627 -0.10648163 -0.057459053
0.118114516 -0.05068229 0.07963284 -0.098776795 -0.13986365 0.021480216 -0.087016344 -0.12351606
-0.00803214 0.0031945282 0.13701147 -0.011212736 0.03468476 -0.14127696 0.05980463 -0.04981782
-0.26113397 -0.076672606 -0.06597484 0.05245127 -0.095211215 -0.111649 -0.04960932 0.011527893
-0.10873416 -0.10642841 0.038674533 0.10301416 0.082325935 -0.11177793 0.0043021464 -0.02078383
-0.052140374 -0.12383035 0.051624294 0.04383711 0.016068537 0.082034364 -0.20782962 0.06618155
-0.023505928 -0.039916053 -0.041231833 -0.04864534 -0.07481338 -0.047017373 -0.22061995 0.0230436
00000000: 6592 e5bc 5fb8 52bd 966b 9e3b d707 d1bc
00000010: 25ed 483d fc96 04be fba1 333d 1fe7 bebd
00000020: d8c2 da3c d549 7cbd b461 2f3a 138f 93bd
00000030: 0f4e c3bd 9806 0bbe fe9f 213d f1e2 f53a
00000040: 00bc 8abd 8ad8 45bd c9d9 91bd 6741 fabd
00000050: 3833 b13b 5c7e d9bd 7b7e a2bd 9ab4 72ba
00000060: 2f57 37bd ca4c 0b3d 4bb0 4c3d 3db9 3cbe
00000070: 07ef 913d a1fc e53c a2ca a33c 5c9c 013d
00000080: 8d0c a9bd b73f 8c3d 3251 8abd f8c2 97bd
00000090: 93f0 92bd b903 2cbd 4793 273d 02cb b9bd
000000a0: b052 01be 3762 73be ae9b a5bd 10d1 bbbd
000000b0: cae5 203d 2868 36bd 174d e33d 59e5 cebd
000000c0: 97a1 05be a4a8 d9bd 4336 873c 5a7d bebd
000000d0: ae76 e5bc be3d 89bd d27b 2f3d 5ff5 6dbd
000000e0: 071a 97bd 9030 853d 7bff 0cbe 0d12 bc3c
000000f0: c165 00be 98af ba3d 897b 26bd 9f6c 15be
00000100: e982 72bc 1442 d2bd 75e0 ac3c 4561 be3b
00000110: d2ef c73d 345f 20be 85f7 4ebd ee2f e33b
00000120: 5178 52bc 8b28 cc3c 24ec 66bd 23ba 003d
00000130: b9f2 073d 00d4 783d b90d a7bd 88b4 4fbb
00000140: 0a02 c63c f83a 13bd a2e6 473d 1759 e7bd
00000150: 09ba d23b 45b8 1b3d 30a4 8f3e f6eb 70bd
00000160: a965 14be 456d e2bd 9352 103e 1b37 bbbd
00000170: 3c89 21be 39b1 b73c 65b0 ffbb 4db1 82bd
00000180: a178 b83c 2546 adbd bbab 343d adbd 9e3c
00000190: c770 5abe d893 85be a09b eebd 476f 1fbe
000001a0: 3b9d cdbd 499c ddbc d7ae 91bd 1de8 97bd
000001b0: d907 1c3d d2a5 a3bd 1ad6 a1bd ac42 5fbc
000001c0: 953d cebd 589f 53bd 5055 eebd 4de9 9a3c
000001d0: 1c1a 6bbd 780d 7bbe 3147 883d 9d14 273d
000001e0: a178 18be e1a9 1cbd a4b1 47be db95 fbbd
000001f0: ef77 12bd 42b5 283d 86cc 97bc a524 95bd
00000200: aab9 17be 8e85 633d aef4 9bbd 7304 9d3d
00000210: 663f 833a 351b cc3c aad1 13bd 6fd8 f0bc
00000220: b37b 93bc bbd1 d1bd 37de 9dbd bc69 85bc
00000230: 297a 09bd 6bac 203d 494a 44be 2221 7dbd
00000240: b37d 21bd fb70 d3bd 6973 e4bd 08b8 12be
00000250: 3f02 91bd fa52 423c ce37 953c cb11 fabc
00000260: bff4 213c 10b2 9bbd 580c 3e3c f6da 783d
00000270: 292e 8abc b132 a1bd e2a5 df3d e667 62bd
00000280: 1f54 3abd e732 d8bc afd5 81bd 693c 1abc
00000290: 591a 02bd ab62 d3bd 82e4 f0bd da87 cdbd
000002a0: 7838 c63d c810 e4bd c8e6 8cbd dbc6 2bbb
000002b0: 8ea7 f23c d4f8 91bd 665a 18bd 776c 06bb
000002c0: 1f22 363d d62c 6ebc 0fbb 3abd b2f8 34bd
000002d0: c7a4 f43c 3347 69bd 0e47 9fbc 6f8e 123c
000002e0: 8d34 f93c a37a f5bd af17 2d3d f7fa 41bd
000002f0: 6156 00be b061 a5bd 70f1 5ebd eb43 d1bc
00000300: 577f af3d 6bdb 90bd 844e a6bd 7390 7e3d
00000310: 5743 81be d088 f53b eebc c5bd 655f e03c
00000320: 062b 75bd 8fa3 ebbc 80ee bfbc 78b8 e1bd
00000330: 763f 8abd 17de b5bc 0a13 dabd 2f5a 6bbd
00000340: 06e6 f13d 3c98 4fbd 8b16 a33d 7d4b cabd
00000350: 6b38 0fbe 47f7 af3c a035 b2bd fdf5 fcbd
00000360: 3d99 03bc 4a5b 513b bc4c 0c3e a0b5 37bc
00000370: 9b11 0e3d e8aa 10be b3f5 743d c50d 4cbd
00000380: 5ab3 85be 8706 9dbd d11d 87bd 25d7 563d
00000390: 19fe c2bd 3ba8 e4bd 2433 4bbd 7ddf 3c3c
000003a0: 04b0 debd 23f7 d9bd 3069 1e3d 17f9 d23d
000003b0: 809a a83d d4eb e4bd 05f9 8c3b da42 aabc
000003c0: 2591 55bd c49a fdbd ff73 533d 8b8e 333d
000003d0: 2aa2 833c a201 a83d 4ad1 54be 318a 873d
000003e0: 818f c0bc 047f 23bd b6e2 28bd 5640 47bd
000003f0: c237 99bd 4a95 40bd 32ea 61be efc5 bc3c

model.1.running_mean f4 [256]
0.00041514944 0.00043124513 -0.0018425368 -0.0019765825 -0.0008743134 0.0006501197 0.0005129727 0.0031814664
9.039194e-05 0.0011576584 0.00031856273 0.0005441563 -0.0045663016 0.00039055556 -0.00025207578 1.916265e-05
0.001706967 0.0039422554 -7.8319754e-05 -0.0007045028 0.000342925 -0.0008687046 0.0018520255 0.0016173924
-0.0016914823 -1.3785816e-05 -0.00010958801 0.0009372326 0.0003150454 -0.0007945004 0.0020568979 -0.0001537943
0.00094778254 0.0020948541 0.0010841411 0.0011279953 0.001169414 0.0017058273 0.0021678053 -0.0010816366
-0.0010249467 0.00030423724 0.00481484 0.0011452655 -0.0002493412 -0.00082999596 -0.000908427 -0.0006684056
-0.001020099 0.0008505208 -0.0011600718 0.0008070248 -0.00279546 0.0022713877 -0.001446011 0.0013020443
-0.0003113827 -0.0030502398 0.0012260097 -0.0003871084 0.0011534991 -0.004315407 -0.00013110653 -0.00044348027
0.0035960895 0.0003483494 0.0008408447 0.0020061617 0.0016917964 -0.0012491734 0.0015886723 -0.00091518654
-0.0005602686 7.578389e-05 -0.0010272079 0.00036947744 3.1200885e-05 -0.0008129764 0.00021598992 0.00064582593
0.00015499826 0.0011083788 0.0013184447 -0.002944653 -9.977805e-06 0.0036455155 -2.6741058e-05 0.0017794194
-0.0007853509 0.0035367373 -0.0030883446 -0.00030587852 -0.0020665438 -0.000115588235 -0.00070725457 -0.0015377622
0.00012204078 -0.0016938515 0.0005560965 -0.0003513948 -0.0010310486 -0.003946608 -0.0031961915 -0.0009334874
-0.0005107771 -0.0013858364 -0.0012402396 -0.0009872317 0.0012287006 0.0006062252 -0.0026310263 0.0001527717
0.001926618 -0.00027793058 0.0025358181 0.00089623727 -0.0005364445 -0.0012141055 0.0004251484 0.001217161
0.00020014163 0.00070108304 0.0020343433 0.0011385254 -0.00021922756 -0.002119829 -0.0015098547 0.0016520632
-0.0007102463 0.0018830486 0.0015592033 -0.0023115093 -9.471036e-05 0.0026406439 -0.0013904409 0.0018317036
-0.0017137281 1.9084695e-05 0.0004109543 0.00089211785 -0.00046069067 -2.2203672e-05 0.0015553887 0.00033680358
-0.0044292575 0.0012149184 -0.0017418581 -0.005315622 -0.002206069 -0.0016501292 0.003055613 -0.00026018912
0.0012997454 -0.00059828965 0.0019815983 0.0034019474 -0.00067903515 0.00090055243 -0.0014308252 -0.0003301805
0.0007779604 -0.0009110474 -0.0009984049 -0.00061371893 0.0007680993 -0.0057956926 0.00069534796 0.0008300413
-0.00046829524 -0.00093564123 -0.0006706213 0.0068700174 -0.0026174888 -0.0033812132 -0.0013103564 -0.001429737
0.0011545619 0.0007765188 6.545994e-05 0.0004362315 0.0029882544 -0.0015110372 -0.0011813228 0.00018959015
0.0016625833 -0.0016022512 -0.00032540984 0.00044375236 -0.0016515737 0.0008172066 0.0028244674 -0.0015333785
0.0008640335 0.00025399632 -0.0013825132 0.0013305264 0.00070048234 -0.00095457764 -0.00031520482 0.0013864506
0.0008546947 0.001293 0.0005409349 -0.0036493202 0.00093485985 -2.7363283e-05 -0.002338386 -0.00093849236
-0.0010916241 0.0018592135 0.0002625714 -0.0018658058 -0.0002463929 -0.000387798 -0.00018358903 -0.00010232338
0.0012872942 4.2033207e-05 -0.0006526541 0.0024032851 -0.0019330923 -0.0028051434 0.0015927095 0.0022310074
-6.6935405e-05 -0.00022893016 0.0029335236 0.0009270033 0.002911822 0.0012882412 -0.00022692204 -0.0003330844
0.0021668444 -0.0012879798 0.0011580538 -0.0029687344 0.00014923296 0.001875956 -0.00021513356 -0.00083502574
-0.0007856185 -3.185472e-05 0.00412816 0.0010977881 -0.00029525382 -0.000613827 0.0013564387 -0.00028973314
-0.0003489717 -0.00031949478 0.0013187956 0.00023393761 0.00030120555 -0.0036695078 -0.0010379384 -0.00094893685
00000000: 6aa8 d939 be18 e239 4781 f1ba 8d89 01bb
00000010: 2e32 65ba cb6c 2a3a 0479 063a 2680 503b
00000020: ce90 bd38 92bc 973a c404 a739 b6a5 0e3a
00000030: eaa0 95bb 7bc3 cc39 0a29 84b9 7abf a037
00000040: 4fbc df3a 092e 813b 993f a4b8 62ae 38ba
00000050: 9dca b339 c7b9 63ba aabf f23a affe d33a
00000060: bab4 ddba a149 67b7 9dd2 e5b8 9db0 753a
00000070: ae2c a539 0546 50ba 05cd 063b d843 21b9
00000080: 9c74 783a d249 093b bd19 8e3a 3ed9 933a
00000090: 0647 993a 1196 df3a bd11 0e3b b4c5 8dba
000000a0: 8157 86ba 0882 9f39 cec5 9d3b bc1c 963a
000000b0: 02ba 82b9 1694 59ba 8123 6eba f137 2fba
000000c0: d8b4 85ba 7cf5 5e3a 8d0d 98ba 848e 533a
000000d0: 0934 37bb 90db 143b 1488 bdba 5ba9 aa3a
000000e0: 1441 a3b9 88e6 47bb 0fb2 a03a cff4 cab9
000000f0: 0231 973a 4268 8dbb a479 09b9 ea82 e8b9
00000100: 5fac 6b3b aaa2 b639 226c 5c3a cf79 033b
00000110: 44bf dd3a 4ebb a3ba ff3a d03a 21e9 6fba
00000120: fdde 12ba 2bee 9e38 61a3 86ba 6cb6 c139
00000130: b2dd 0238 ec1d 55ba 5a7b 6239 a54c 293a
00000140: 0787 2239 0547 913a aacf ac3a 14fb 40bb
00000150: 5966 27b7 9ae9 6e3b fc51 e0b7 683b e93a
00000160: 02e0 4dba 9bc8 673b d365 4abb 525e a0b9
00000170: da6e 07bb f667 f2b8 0d67 39ba bd8e c9ba
00000180: 25f0 ff38 3a04 deba 01c7 113a 693b b8b9
00000190: 4024 87ba 8c52 81bb 3277 51bb 47b5 74ba
000001a0: ace5 05ba f4a4 b5ba 898f a2ba 0066 81ba
000001b0: 5a0c a13a 16eb 1e3a 4c6d 2cbb 5731 2039
000001c0: 9386 fc3a 36b7 91b9 f82f 263b 77f1 6a3a
000001d0: 2ea0 0cba 9f22 9fba 74e6 de39 2589 9f3a
000001e0: 1cdd 5139 e3c8 373a 9e52 053b 933a 953a
000001f0: 73e0 65b9 d4ec 0abb 51e6 c5ba 0b8a d83a
00000200: d32f 3aba a0d0 f63a 2e5e cc3a b17c 17bb
00000210: 3d9f c6b8 a70e 2d3b 743f b6ba c615 f03a
00000220: 2c9f e0ba 1218 a037 5a75 d739 04dd 693a
00000230: db88 f1b9 0642 bab7 2fde cb3a 0395 b039
00000240: 4e23 91bb e63d 9f3a 0f4f e4ba ab2e aebb
00000250: b293 10bb 2649 d8ba ae40 483b fe69 88b9
00000260: 385c aa3a 8ad6 1cba b4dd 013b 35f3 5e3b
00000270: 4701 32ba 0d13 6c3a 878a bbba 141c adb9
00000280: 0af0 4b3a 5bd3 6eba e9dc 82ba fbe1 20ba
00000290: 455a 493a cbe9 bdbb 0348 363a 2197 593a
000002a0: 8685 f5b9 d245 75ba a2cc 2fba e21d e13b
000002b0: 2d8a 2bbb 5897 5dbb 44c0 abba 0366 bbba
000002c0: ab54 973a 4b8f 4b3a 8a47 8938 00b6 e439
000002d0: 97d6 433b ff0d c6ba 9ed6 9aba b8cc 4639
000002e0: 0aeb d93a a102 d2ba c59b aab9 6fa7 e839
000002f0: 9e79 d8ba ce39 563a b31a 393b a5fb c8ba
00000300: 4f80 623a cf2a 8539 7235 b5ba 0f65 ae3a
00000310: 93a0 373a 9f3c 7aba 1342 a5b9 90b9 b53a
00000320: 970d 603a e179 a93a 87cd 0d3a 6f29 6fbb
00000330: 6211 753a 348a e5b7 9b3f 19bb 2805 76ba
00000340: d414 8fba dab0 f33a bda9 8939 0e8e f4ba
00000350: 4c2e 81b9 5e51 cbb9 ce81 40b9 7296 d6b8
00000360: 6dba a83a d04c 3038 e016 2bba 6f80 1d3b
00000370: d05f fdba 7fd6 37bb 76c2 d03a 1836 123b
00000380: ac5f 8cb8 f90c 70b9 5c40 403b 2302 733a
00000390: 44d4 3e3b 34da a83a ecf1 6db9 d5a1 aeb9
000003a0: 9e01 0e3b 6ed1 a8ba d6c9 973a 198f 42bb
000003b0: 6b7b 1c39 a3e2 f53a 7a95 61b9 a1e5 5aba
000003c0: f7f1 4dba bf9b 05b8 8445 873b a8e3 8f3a
000003d0: 4ccc 9ab9 3ce9 20ba 88ca b13a 53e7 97b9
000003e0: 30f6 b6b9 dd81 a7b9 70db ac3a 264d 7539
000003f0: 20eb 9d39 207c 70bb 6f0b 88ba 13c2 78ba

model.1.running_var f4 [256]
0.022469472 0.062208824 0.08382636 0.08754218 0.026030652 0.08433697 0.137992 0.031937946
0.018744105 0.07744724 0.08089675 0.04625972 0.055042833 0.07193349 0.049204495 0.05288269
0.055719815 0.04922078 0.06308899 0.09988729 0.052632336 0.050797988 0.17488728 0.05320788
0.035615694 0.11309983 0.08252208 0.0634898 0.08587961 0.10848103 0.06687592 0.09291401
0.16141137 0.05538519 0.07723701 0.04055492 0.02189403 0.093025 0.04477636 0.033949267
0.021886982 0.10567259 0.0150594385 0.03740576 0.031688835 0.03630141 0.11085876 0.052065387
0.078375265 0.05342949 0.023117887 0.041211985 0.021342132 0.03265504 0.05971039 0.03005554
0.09262093 0.024819307 0.10611202 0.014228067 0.064259194 0.051283784 0.05158656 0.10161125
0.03279458 0.07840012 0.0454905 0.082874626 0.028140608 0.21903789 0.02077096 0.089855336
0.14392553 0.100299805 0.10538199 0.120980665 0.06492745 0.080311425 0.12916665 0.08513541
0.05670217 0.1268275 0.13858408 0.17444131 0.09770286 0.05319455 0.1359308 0.09615734
0.062853664 0.04192233 0.10553096 0.05730326 0.037699655 0.17051926 0.019535024 0.07956853
0.1128332 0.043439724 0.051517367 0.07332516 0.18776812 0.05679434 0.058833178 0.0885735
0.09450831 0.014916045 0.043143008 0.060313985 0.0386276 0.12990126 0.059635043 0.030530823
0.085706875 0.12739342 0.07784129 0.108785376 0.14820823 0.031869706 0.012238645 0.06393183
0.1063542 0.013337502 0.115989044 0.10446258 0.14663112 0.04913945 0.019168722 0.23368722
0.030497538 0.08694274 0.006807883 0.010284809 0.1369016 0.026838785 0.10746634 0.14683402
0.108542636 0.059041426 0.1252623 0.09001788 0.12301549 0.12834705 0.029521152 0.080042094
0.048882347 0.03897217 0.10517815 0.011493682 0.08759672 0.0242892 0.01610239 0.07452581
0.043379243 0.019209001 0.14003247 0.06132589 0.027534286 0.054079063 0.02253899 0.03338701
0.07354185 0.038795467 0.09980564 0.028959287 0.0956488 0.0892154 0.060737744 0.076456495
0.065975085 0.047445454 0.114510156 0.019952174 0.015740406 0.13142803 0.07876953 0.0862092
0.019265266 0.038346734 0.04672582 0.08218236 0.04663814 0.082188435 0.14997804 0.07210648
0.07028103 0.071151614 0.10295454 0.09047959 0.10182297 0.0567416 0.084771834 0.08754893
0.033230226 0.08491356 0.059359226 0.08971056 0.080114074 0.04627476 0.06655446 0.017283216
0.123955585 0.10676468 0.01968711 0.035307884 0.03155194 0.060730573 0.043976672 0.14074625
0.017112456 0.03668794 0.14175515 0.026400609 0.047168612 0.09716767 0.02754893 0.04932498
0.057634987 0.107200906 0.04616677 0.017738791 0.041369315 0.025890684 0.03620366 0.11306291
0.18055458 0.023177637 0.036300555 0.06091107 0.09243121 0.09791125 0.068090335 0.13989207
0.03772204 0.064464994 0.08261966 0.009138329 0.27151048 0.095221855 0.06455672 0.048374802
0.068094194 0.115755424 0.011934948 0.021828283 0.16923642 0.0424718 0.11265209 0.027439162
0.2524281 0.024887694 0.06555058 0.059667263 0.19273032 0.047900442 0.12688248 0.12467109
00000000: e611 b83c aece 7e3d 28ad ab3d 5149 b33d
00000010: 3c3e d53c dcb8 ac3d c64d 0d3e 5dd1 023d
00000020: 3d8d 993c a99c 9e3d 32ad a53d d57a 3d3d
00000030: 9874 613d de51 933d a78a 493d 859b 583d
00000040: 763a 643d bb9b 493d cd34 813d b591 cc3d
00000050: 0195 573d 8d11 503d a715 333e 82f0 593d
00000060: c3e1 113d e2a0 e73d 5601 a93d f106 823d
00000070: a6e1 af3d 4d2b de3d 3ef6 883d b349 be3d
00000080: 0649 253e 95db 623d 702e 9e3d ea1c 263d
00000090: 1c5b b33c e483 be3d 6b67 373d 630e 0b3d
000000a0: 544c b33c df6a d83d ddbb 763c c836 193d
000000b0: 27cc 013d cab0 143d eb09 e33d 8442 553d
000000c0: 3683 a03d e2d8 5a3d b961 bd3c e6cd 283d
000000d0: b2d5 ae3c 4bc1 053d e292 743d 0937 f63c
000000e0: 0bb0 bd3d dc51 cb3c 4251 d93d d71c 693c
000000f0: 539a 833d f20e 523d 6e4c 533d 8f19 d03d
00000100: 9c53 063d 3e90 a03d 3f54 3a3d 2cba a93d
00000110: 2287 e63c 784b 603e dc27 aa3c 1306 b83d
00000120: 3761 133e fc69 cd3d 83d2 d73d b6c4 f73d
00000130: aff8 843d 517a a43d 4344 043e 795b ae3d
00000140: 8940 683d 11df 013e fce8 0d3e bea0 323e
00000150: 7018 c83d 87e2 593d 7231 0b3e 24ee c43d
00000160: 6cb9 803d c0b6 2b3d 9e20 d83d d3b6 6a3d
00000170: f46a 1a3d 9a9c 2e3e ea07 a03c d3f4 a23d
00000180: 1815 e73d daed 313d e003 533d 802b 963d
00000190: 4946 403e 2fa1 683d 0ffb 703d 0666 b53d
000001a0: 938d c13d 6d62 743c b9b6 303d cc0b 773d
000001b0: f937 1e3d d604 053e e043 743d c71b fa3c
000001c0: 1687 af3d 6c73 023e 416b 9f3d deca de3d
000001d0: e6c3 173e cf89 023d 9984 483c b1ee 823d
000001e0: 3bd0 d93d 8a85 5a3c aa8b ed3d 7af0 d53d
000001f0: 7826 163e 7346 493d b907 9d3c b44b 6f3e
00000200: f9d5 f93c 090f b23d a914 df3b 9e81 283c
00000210: ef2f 0c3e 03dd db3c 5017 dc3d a85b 163e
00000220: 9a4b de3d 6cd5 713d c344 003e 4b5b b83d
00000230: 8cef fb3d 696d 033e 58d6 f13c 1ced a33d
00000240: db38 483d 48a1 1f3d a467 d73d ff4f 3c3c
00000250: e965 b33d 25fa c63c 29e9 833c fda0 983d
00000260: 6fae 313d 325c 9d3c ac64 0f3e db30 7b3d
00000270: 958f e13c 0282 5d3d b0a3 b83c d1c0 083d
00000280: 1c9d 963d ffe7 1e3d e666 cc3d 073c ed3c
00000290: 85e3 c33d 90b6 b63d 24c8 783d 3995 9c3d
000002a0: f21d 873d 2a56 423d 4d84 ea3d be72 a33c
000002b0: 06f2 803c 1295 063e eb51 a13d 738e b03d
000002c0: 31d2 9d3c 7711 1d3d 9363 3f3d 3a4f a83d
000002d0: a207 3f3d 6952 a83d d893 193e 90ac 933d
000002e0: 80ef 8f3d f0b7 913d d4d9 d23d 5d4d b93d
000002f0: 9088 d03d e169 683d db9c ad3d da4c b33d
00000300: 6b1c 083d 29e7 ad3d a922 733d 2cba b73d
00000310: d912 a43d 9a8a 3d3d b44d 883d 8895 8d3c
00000320: 6ddc fd3d 71a7 da3d dd46 a13c 009f 103d
00000330: 9b3c 013d 9fc0 783d e220 343d c91f 103e
00000340: 6c2f 8c3c 1846 163d 4328 113e 1746 d83c
00000350: e033 413d d8ff c63d 4bae e13c fd08 4a3d
00000360: aa12 6c3d 268c db3d 5e19 3d3d f150 913c
00000370: df72 293d b318 d43c 4a4a 143d 878d e73d
00000380: 4de3 383e 07df bd3c e4af 143d e37d 793d
00000390: 934c bd3d b285 c83d f272 8b3d de3f 0f3e
000003a0: 6d82 1a3d 3906 843d 7f34 a93d eeb8 153c
000003b0: 6c03 8b3e ad03 c33d 5036 843d a824 463d
000003c0: f874 8b3d 2e11 ed3d cd8a 433c 3ad1 b23c
000003d0: 504c 2d3e e9f6 2d3d 24b6 e63d 18c8 e03c
000003e0: 423e 813e 47e1 cb3c 623f 863d a965 743d
000003f0: 195b 453e 4133 443d 7bed 013e 8e53 ff3d

model.4.weight f4 [64, 256]
0.02603303 0.12957527 -0.17199951 -0.1403679 0.1928436 0.050758913 -0.013893721 -0.09678604
0.09613914 -0.032594997 -0.09257791 0.07167156 0.11858926 -0.0633479 -0.0642109 0.17168118
0.09849038 0.11617136 -0.026240736 -0.0966814 -0.028391864 0.16210748 0.0150812 0.17429756
0.27497938 -0.08591637 0.060901403 -0.10588919 -0.052224547 -0.08368093 0.0030934091 -0.0006080142
-0.1337341 -0.095981896 -0.11425838 -0.1210005 -0.08603791 0.12935616 -0.039094876 -0.11018493
0.04379033 0.012647306 -0.11959667 -0.04649463 -0.040613435 0.111859374 0.06125264 0.006060501
0.11328645 -0.022109356 -0.00923396 0.18298851 -0.1279326 -0.002919678 0.09274854 -0.034965474
0.074988954 0.033943843 -0.122711994 0.09196966 -0.048900247 -0.047521144 -0.14604516 -0.06658151
-0.06677438 0.116956845 0.09957832 -0.054791033 -0.04651938 -0.044399105 -0.13179563 -0.09796621
-0.09539232 0.17472804 -0.05066921 -0.16589618 9.914642e-06 0.1231593 -0.105146505 0.16108978
0.16464615 0.12716115 0.18749648 0.14287966 -0.12319213 0.014316321 -0.16397017 -0.055868812
0.15166073 -0.18920943 -0.080443084 0.02123043 -0.04888311 -0.08289536 0.08757956 0.03684528
0.004958393 0.0552453 -0.12477322 0.10197531 -0.06838516 -0.16951963 -0.12230365 -0.10667417
-0.10179774 -0.067485295 -0.09409013 -0.041899193 -0.1328542 -0.09006199 -0.09561627 -0.20342371
-0.020850975 -0.07575541 0.068861365 -0.045743633 0.06923383 -0.089008495 -0.01982389 -0.07222312
-0.18743539 -0.06330097 0.05164784 -0.057243757 -0.08248158 0.044301983 0.03967691 -0.008316952
-0.032396056 -0.11754446 -0.1335895 0.090415 0.06192498 -0.07125881 0.112977274 0.007657026
0.08558613 -0.021014055 -0.16870281 -0.12028537 0.014409245 0.031782996 -0.029561726 0.08769291
-0.023461789 0.059445746 -0.019007716 -0.09557651 0.041990276 -0.21351703 -0.10798557 -0.16422449
-0.048418514 -0.16076364 -0.116783164 -0.029580964 -0.021542896 0.061640274 -0.0955058 -0.0055100946
-0.013751878 -0.05054278 -0.0009364249 0.1340579 -0.10583051 0.007874244 -0.012611838 0.09734161
-0.13505776 -0.0039341864 0.044802886 0.17193896 -0.08650721 0.10240204 0.03882036 -0.15736689
0.064679824 0.12599346 -0.076021396 -0.09741188 0.22399303 0.06835022 -0.09004712 -0.09042944
0.09640709 -0.11213029 -0.1290641 -0.04074347 -0.13586651 0.050294857 -0.009720746 -0.0044644484
-0.20922524 -0.10457486 0.014962579 -0.052852634 -0.16074395 0.112276986 -0.023413347 -0.035470355
0.19858943 -0.043803867 0.07223919 0.044229276 -0.09584787 0.004342418 0.12150477 -0.064163834
0.023068085 0.14363928 -0.031030089 -0.025387332 -0.18224335 -0.017661065 -0.11213142 -0.1973117
-0.17892605 -0.11347545 -0.015494039 0.032275334 -0.061491407 -0.029918669 0.0039013952 0.20677882
-0.05405842 -0.14338025 -0.046407428 0.04482042 -0.074623816 -0.09244945 0.10615475 -0.12130757
0.09031477 0.11185485 -0.09616625 -0.1742102 0.09873495 0.0699973 0.0017412761 -0.14164236
-0.015827535 0.100014396 0.015832933 -0.021990245 -0.046690606 -0.03445662 -0.10988637 0.008490246
0.007343006 0.08836967 -0.10839785 -0.079603136 0.16765079 0.011096628 0.0705176 -0.11171378
00000000: 3943 d53c 61af 043e a420 30be 9abc 0fbe
00000010: cb78 453e 94e8 4f3d 7da2 63bc c237 c6bd
00000020: 99e4 c43d 5582 05bd 7d99 bdbd 8ac8 923d
00000030: edde f23d 8bbc 81bd 0181 83bd 31cd 2f3e
00000040: 53b5 c93d 40eb ed3d d0f6 d6bc e600 c6bd
00000050: 0e96 e8bc 81ff 253e 2317 773c 0f7b 323e
00000060: 19ca 8c3e ecf4 afbd c073 793d 6fdc d8bd
00000070: 68e9 55bd e860 abbd cbba 4a3b 2463 1fba
00000080: 98f1 08be 2892 c4bd 4c00 eabd 1ccf f7bd
00000090: a534 b0bd f175 043e f321 20bd a3a8 e1bd
000000a0: 7d5d 333d a536 4f3c 19ef f4bd 2771 3ebd
000000b0: 465a 26bd 8716 e53d 0ce4 7a3d 2b97 c63b
000000c0: ba02 e83d ae1e b5bc 094a 17bc 5761 3b3e
000000d0: c300 03be 1258 3fbb f2f2 bd3d f537 0fbd
000000e0: cf93 993d b308 0b3d 6d50 fbbd 975a bc3d
000000f0: a04b 48bd 88a5 42bd dd8c 15be e35b 88bd
00000100: 02c1 88bd 1287 ef3d b8ef cb3d 906c 60bd
00000110: 1b8b 3ebd d6db 35bd 6ff5 06be 82a2 c8bd
00000120: 0c5d c3bd e8eb 323e 848a 4fbd b0e0 29be
00000130: 1057 2637 f13a fc3d 0d57 d7bd b8f4 243e
00000140: 0099 283e 8836 023e 14ff 3f3e 0c4f 123e
00000150: 284c fcbd 018f 6a3c cce7 27be b2d6 64bd
00000160: f34c 1b3e 1ec0 41be 58bf a4bd 70eb ad3c
00000170: a839 48bd 0bc5 a9bd ea5c b33d 14eb 163d
00000180: 047a a23b e548 623d 1a89 ffbd 6ed8 d03d
00000190: 850d 8cbd 8e96 2dbe 567a fabd fd77 dabd
000001a0: 557b d0bd bb35 8abd 53b2 c0bd 7d9e 2bbd
000001b0: ee0a 08be 6c72 b8bd 77d2 c3bd 4e4e 50be
000001c0: aacf aabc a725 9bbd 3007 8d3d ad5d 3bbd
000001d0: 77ca 8d3d 164a b6bd b665 a2bc b7e9 93bd
000001e0: 10ef 3fbe f0a3 81bd af8c 533d 6e78 6abd
000001f0: 1aec a8bd ff75 353d 4184 223d d343 08bc
00000200: bab1 04bd 26bb f0bd b0cb 08be 802b b93d
00000210: 0ca5 7d3d 24f0 91bd a160 e73d cae7 fa3b
00000220: c847 af3d ab25 acbc 6ec0 2cbe 2d58 f6bd
00000230: c114 6c3c e32e 023d 6f2b f2bc 5798 b33d
00000240: f032 c0bc 627d 733d 12b6 9bbc 9ebd c3bd
00000250: fffd 2b3d 35a4 5abe 8a27 ddbd 772a 28be
00000260: 7e52 46bd 399f 24be 032c efbd c753 f2bc
00000270: ba7a b0bc 837a 7c3d 8b98 c3bd 068e b4bb
00000280: 8f4f 61bc f205 4fbd 697a 75ba 7946 093e
00000290: abbd d8bd f902 013c e2a1 4ebc 0a5b c73d
000002a0: 954c 0abe 59ea 80bb 3b83 373d c410 303e
000002b0: b12a b1bd 29b8 d13d 1902 1f3d c924 21be
000002c0: db76 843d 6e04 013e 1bb1 9bbd e17f c7bd
000002d0: 6e5e 653e 33fb 8b3d a06a b8bd 1233 b9bd
000002e0: 1571 c53d 91a4 e5bd 6129 04be a0e2 26bd
000002f0: 9720 0bbe fb01 4e3d c443 1fbc 824a 92bb
00000300: 243f 56be 582b d6bd 9b25 753c 017c 58bd
00000310: 109a 24be 7af1 e53d 59cd bfbc 5d49 11bd
00000320: 075b 4b3e af6b 33bd 24f2 933d c229 353d
00000330: e34b c4bd d84a 8e3b 7ed7 f83d 5468 83bd
00000340: 48f9 bc3c 2d16 133e d032 febc 18f9 cfbc
00000350: 009e 3abe f0ad 90bc 28a5 e5bd 140c 4abe
00000360: 6438 37be d165 e8bd b6da 7dbc 2433 043d
00000370: 6ade 7bbd ff17 f5bc 8dae 7f3b d4bd 533e
00000380: 5d6c 5dbd 46d2 12be b715 3ebd 9e95 373d
00000390: 5fd4 98bd 2356 bdbd a967 d93d 1a70 f8bd
000003a0: f3f6 b83d 2814 e53d d0f2 c4bd 2964 32be
000003b0: 8d35 ca3d bf5a 8f3d 883b e43a b20a 11be
000003c0: bfa8 81bc 59d4 cc3d 11b4 813c e324 b4bc
000003d0: a63e 3fbd 6322 0dbd 1b0c e1bd ac1a 0b3c
000003e0: 999d f03b 28fb b43d b1ff ddbd f806 a3bd
000003f0: a6ac 2b3e a2ce 353c 886b 903d 32ca e4bd

model.4.bias f4 [64]
0.00020706443 0.00019313386 -0.00024512166 -0.0004957135 0.00042054948 -0.000116800504 -0.00053814147 0.0007169209
4.2789823e-05 0.0004707651 -5.8311216e-05 -0.00016267582 0.0002613682 0.00026151084 0.00023590725 5.1395833e-05
-2.2501543e-05 -0.00010418925 0.00058194244 0.00025256653 0.00065044017 -0.000121109864 -0.00030855925 -0.00039715672
0.0004736365 -0.00036526652 -0.0003821916 -0.0005724931 -0.0004716997 -0.00018334811 -0.000101185644 -0.0005617029
-0.0008263364 -0.0010663052 -0.00012448269 2.0711672e-05 2.0532776e-05 -0.0004228714 -4.5705874e-06 4.511926e-05
7.249933e-05 0.00063619536 -0.00055720157 9.289468e-05 -0.00020869415 -0.0003490912 0.00011079339 1.0948132e-05
-1.02364875e-05 0.0003479599 -0.00014042547 0.00041289747 -0.00020564871 0.00027450532 0.0006688193 -2.5649829e-06
-0.00046148017 0.00014556588 -0.00011003908 -0.00011273437 0.0006241426 0.00046274305 -0.00043834822 0.0006494299
00000000: 6f1f 5939 fa83 4a39 ac83 80b9 c5f2 01ba
00000010: 327d dc39 cbf2 f4b8 1012 0dba bfef 3b3a
00000020: 3979 3338 06d1 f639 3193 74b8 f593 2ab9
00000030: 3f08 8939 641b 8939 df5d 7739 db91 5738
00000040: b2c1 bcb7 2d80 dab8 7f8d 183a e86a 8439
00000050: 4d82 2a3a 5dfc fdb8 1fc6 a1b9 7939 d0b9
00000060: 6a52 f839 3e81 bfb9 e360 c8b9 5d13 16ba
00000070: 764e f7b9 2241 40b9 a133 d4b8 3e3f 13ba
00000080: 7f9e 58ba 44c3 8bba 9187 02b9 fabd ad37
00000090: cd3d ac37 d7b4 ddb9 0c5d 99b6 703e 3d38
000000a0: c80a 9838 59c6 263a 2a11 12ba 74d0 c238
000000b0: e9d4 5ab9 3a06 b7b9 c059 e838 dead 3737
000000c0: 61bd 2bb7 636e b639 2d3f 13b9 297a d839
000000d0: 68a3 57b9 7beb 8f39 b453 2f3a 1222 2cb6
000000e0: d2f2 f1b9 0ba3 1839 c8c4 e6b8 ce6b ecb8
000000f0: 809d 233a 529c f239 1ad2 e5b9 813e 2a3a

model.5.weight f4 [64]
0.9239255 1.1707661 1.0015938 0.9228162 0.98911417 0.8699616 0.95437074 0.89846826
1.0739143 0.9988843 0.94203866 0.93601906 0.899139 0.9487188 0.9836747 1.0205518
1.029788 1.1275041 1.1433067 0.99920064 0.9565987 0.964506 1.0755247 1.009993
1.1276242 1.0597764 1.0712932 0.99883485 1.0417806 1.1377995 1.013202 0.9558829
1.1136035 1.1066636 1.0288656 0.93943125 0.9163903 0.9326499 1.0445771 0.878219
1.0861206 1.0178828 1.0485848 0.9358302 1.0029687 0.9468432 0.9779317 0.8994265
1.0731012 1.0398151 1.0913748 0.9269097 0.9877617 0.8871499 0.9030136 1.1823815
0.9605095 1.1014519 0.9668726 1.0897571 0.97682565 1.0595704 0.9271376 1.0220551
00000000: 6286 6c3f aadb 953f 3a34 803f af3d 6c3f
00000010: 9636 7d3f ceb5 5e3f a451 743f 0402 663f
00000020: 0676 893f e2b6 7f3f 7229 713f f29e 6f3f
00000030: f92d 663f 3cdf 723f 1bd2 7b3f 71a1 823f
00000040: 18d0 833f 0e52 903f e057 923f 9dcb 7f3f
00000050: a7e3 743f dde9 763f cbaa 893f 7347 813f
00000060: fd55 903f c1a6 873f 2320 893f a4b3 7f3f
00000070: 1159 853f 6aa3 913f 9ab0 813f beb4 743f
00000080: 8f8a 8e3f 27a7 8d3f deb1 833f 917e 703f
00000090: 8e98 6a3f 25c2 6e3f b4b4 853f f6d2 603f
000000a0: 0006 8b3f fc49 823f 0738 863f 9192 6f3f
000000b0: 4761 803f 5164 723f bb59 7a3f d140 663f
000000c0: 615b 893f a918 853f 2bb2 8b3f f449 6d3f
000000d0: f3dd 7c3f 411c 633f e62b 673f 4758 973f
000000e0: f3e3 753f 60fc 8c3f f684 773f 297d 8b3f
000000f0: 3f11 7a3f 01a0 873f e458 6d3f b4d2 823f

model.5.bias f4 [64]
-0.18922456 0.11276531 -0.0692013 -0.12720203 -0.053487904 -0.028112207 0.07593098 -0.10588246
-0.050825953 -0.15753442 -0.08122416 0.04121671 -0.10251395 -0.048220314 -0.034120463 0.03400268
-0.0074449 -0.007593111 0.030028118 0.029960223 -0.04229514 -0.01908289 0.06494435 0.0802993
0.02657438 0.08113746 0.0017250555 -0.075907394 0.059097648 -0.13947853 -0.05910835 -0.06731476
-0.022908047 -0.024793142 -0.052398834 -0.091024116 -0.07158593 0.010399478 0.023021858 -0.07332646
-0.09393474 0.027927663 0.010958165 -0.02887836 -0.16296631 -0.07414927 -0.02582529 -0.11731297
0.07651086 -0.04919473 -0.037671648 -0.072265565 0.06695096 -0.055951927 -0.03487091 0.07604438
-0.040194735 -0.05477195 -0.043964833 0.09211121 -0.10712616 0.0944344 -0.08312075 0.021929698
00000000: 15c4 41be 80f1 e63d 69b9 8dbd 4041 02be
00000010: 2216 5bbd 924b e6bc b481 9b3d e7d8 d8bd
00000020: e02e 50bd b450 21be da58 a6bd dad2 283d
00000030: d5f2 d1bd aa82 45bd e6c1 0bbd 6546 0b3d
00000040: 59f4 f3bb a2cf f8bb 87fd f53c 246f f53c
00000050: ab3d 2dbd b953 9cbc 8b01 853d f673 a43d
00000060: 84b2 d93c 662b a63d 421b e23a 5675 9bbd
00000070: 6010 723d 76d3 0ebe 991b 72bd 52dc 89bd
00000080: a8a9 bbbc fd1a cbbc 29a0 56bd da6a babd
00000090: a59b 92bd 9262 2a3c 5698 bc3c 2f2c 96bd
000000a0: db60 c0bd 8ec8 e43c e089 333c 4f92 ecbc
000000b0: a4e0 26be 93db 97bd 8f8f d3bc c841 f0bd
000000c0: bab1 9c3d 6a80 49bd 964d 1abd f8ff 93bd
000000d0: 961d 893d d92d 65bd cdd4 0ebd 28bd 9b3d
000000e0: 3ca3 24bd 8d58 60bd 7814 34bd cda4 bc3d
000000f0: f664 dbbd d366 c13d 363b aabd e9a5 b33c
