saved_models/model.pth (torch, 100722 bytes, 37 tensors)

model.0.weight f4 [256, 4]
00000000: 26f4 a13e fe77 2c3d 0358 d03c 1c6e cb3e
00000010: aef4 ce39 71f4 f6bc 41df 0c3c 683b 153f
00000020: 7c7e 053f 4e07 d8be 2dbd cf3d 1615 2ebe
00000030: f8dd 28bf a5fa 63be 8179 923e 3ffb c83d
00000040: 26dd 68bc 1f4e 073f b368 363d 2c6e 4ebe
00000050: 9fc1 12bf ea0c 09be aa05 b93c 3069 96be
00000060: 709f e0be 8c46 313e 7e79 ec3e 1a8e 5ebe
00000070: d266 24bd d794 673e 71dd 66be 1778 9e3c
00000080: 2292 1dbf 0f9a 8b3d 75ad 18be 7ead 933e
00000090: 9297 a0be 621c eabe 72f4 31be 119e 59be
000000a0: 889a 763e 8f87 973e acdb d7be 1f76 ce3e
000000b0: 9373 5dbe b209 0fbd 17ed b63c c2c7 18bd
000000c0: 1f9e 3d3a 0ae1 8b3e 8269 8f3e b5e8 9ebe
000000d0: 0a32 c2bd c7ca 963e fddb a63b 3956 a63e
000000e0: 4bdd 873d cd9a 333d 87dc d4be 5f91 943e
000000f0: de4c 933e 0fe9 113e 001e 443d 3da0 efbe
00000100: 8605 003f c15e d63e 499c 3ebe 6383 d83e
00000110: a5af 913e 7929 1cbe 2261 a83e e8c1 c73d
00000120: 5750 06bf 4801 9ebe ca47 a43e b38d a63d
00000130: f7fd 4c3d 6f2e 3dbe 11ea da3e 581f 42be
00000140: 1437 273e ce32 133e 1ecb 6fbe 5dbb 7f3e
00000150: d83d 893e 4dbc 113f 4614 923e dfa3 b53e
00000160: 1f37 af3e e3a3 0ebf c28e d43b 201b 003f
00000170: 8567 613e df71 b4be e3d7 1ebe f304 713e
00000180: 2cbf 0abf f81d e1bd e9a0 6d3e 8342 bc3e
00000190: 0c78 f7be 8ee5 2a3c 4ad0 fe3d a981 4c3e
000001a0: baaa 9dbe 459e 723e 14b0 a5bd 553c f0be
000001b0: 7d4d e03e 79f4 013f 6b5a 173e c606 1d3d
000001c0: 3eb2 153f 9c56 c03e 03c0 da3d 6c79 c4be
000001d0: 0503 4bbd 7eff 96be a7ed 92be 8b1a febd
000001e0: 99f8 b2bd 1665 c4be 1cc3 b53e 9f7f 403e
000001f0: f7c6 b5bd d071 423e 0a9d f2be 3293 adbe
00000200: 7796 d63e 0ee4 43be 6918 ed3d 31c4 5e3e
00000210: 9836 0b3e 6544 85be 623a 0dbe d907 b53d
00000220: 8ee5 e5be f6bb c83d 6498 ba3e 5bd7 f73e
00000230: 9974 b7be bfcc a9be 91ad e3bd 5ff5 1a3f
00000240: 28d3 b23e def8 77be aaac 76be 4f95 e1be
00000250: 439d afbd 3b13 bbbe 712d c7be 9254 c73e
00000260: ea7a 593d 4665 c4be 6292 e63c 26d5 9cbe
00000270: f324 2fbf 6c9f d23d b8cf a83e 1566 dfbe
00000280: d3e1 15bf ef6b 98be e935 853e 14e6 dd3c
00000290: 88b2 433e 80d8 02bf e91a f23e 3c57 4a3e
000002a0: d25a 89be ef5b a3be 3f9b 6c3e e820 063f
000002b0: 72de c0be f388 293d 7d9d e53e ed26 14be
000002c0: 4261 86be fb44 12be 0bdb 833e dacd a1bd
000002d0: 5f53 1fbe 13a8 2abd ec3c cb3c 06b8 033f
000002e0: 780e 1d3e 0459 dbbe c640 ee3e ff31 8cbd
000002f0: dd54 9f3d 509b 18bd 5df3 1f3e 78f0 c3bd
00000300: 03ca b23e b614 ce3d 62d4 103d 5602 ba3e
00000310: 2ef3 c63d dab2 843e 7ffc c03e e1d8 6bbb
00000320: 661c 55be c384 29be 105d fd3e f820 023e
00000330: a54c bc3e a050 ba3e 1e6a 9c3e 5edb cfbd
00000340: ad09 833e bb0a 653e 3372 49be 27a4 11be
00000350: d793 85be 834e c1be abac 17bf 6211 89be
00000360: 52b3 cdbe f4b4 e4bd 36c7 293e c39c 303e
00000370: 2d1d 35be 548f d93e 86f0 a83e 9c18 b6be
00000380: f156 a3be 4b79 1f3d ec30 a13e c622 42be
00000390: 17ec 3ebe 2183 e8be 570e b73a fa41 11bd
000003a0: 920e 01bf a67a ad3d b56c a53e 91cb 02bc
000003b0: cb94 90be 99af 833d 8b74 913c a163 463e
000003c0: 1438 2cbf 30cb 963d b0e4 32be 3822 a73d
000003d0: 2c18 8bbe e0dc e7be 2d60 2abd 8cb7 6abd
000003e0: 9fb5 c1be 6878 90be 030c ca3e 2b1c 0dbc
000003f0: 3d3a 64be 150d eabe 520b 643e fe97 97be
0.31631583 0.04210662 0.025432592 0.39732444 0.00039473682 -0.030145856 0.00859815 0.5829377
0.52146125 -0.42193073 0.10143504 -0.17000231 -0.659637 -0.22263582 0.28608325 0.098135464
-0.014212882 0.5285358 0.044533443 -0.20159215 -0.5732669 -0.13383833 0.022585709 -0.29377127
-0.4387164 0.17312068 0.4618644 -0.21733895 -0.04013712 0.22615372 -0.2254541 0.019344373
-0.61551106 0.06816494 -0.14909919 0.28843302 -0.3136564 -0.4572478 -0.17378405 -0.21251704
0.24082386 0.2959561 -0.42159784 0.40324494 -0.2162612 -0.034921356 0.02232985 -0.03729988
0.000723334 0.2732013 0.28010184 -0.31036916 -0.094822004 0.29451582 0.0050921426 0.32487658
0.06634005 0.0438488 -0.415745 0.2901716 0.28769583 0.14249061 0.047880173 -0.4680194
0.5000843 0.41869166 -0.18614306 0.4228774 0.2845432 -0.15250196 0.32886606 0.097537816
-0.5246634 -0.30860353 0.3208602 0.08132496 0.050046887 -0.18474744 0.42756703 -0.18957269
0.16329604 0.14374849 -0.23417327 0.24973817 0.26804996 0.5692795 0.28531092 0.35476586
0.34221742 -0.5571882 0.0064867446 0.5004139 0.22012146 -0.35243127 -0.15512042 0.23537044
-0.54197955 -0.10992044 0.23205914 0.36769494 -0.48333776 0.010430707 0.12442072 0.19971336
-0.30794317 0.23693188 -0.08090225 -0.4692103 0.4380912 0.5076366 0.14780585 0.038336538
0.584751 0.37566078 0.106811546 -0.38373888 -0.049563427 -0.294918 -0.2869694 -0.124074064
-0.087388225 -0.38358372 0.3550042 0.18798684 -0.0887584 0.18988729 -0.47385436 -0.33901364
0.4191167 -0.19129965 0.115769215 0.21754529 0.13595045 -0.26028743 -0.13791803 0.088393874
-0.449017 0.09801476 0.3644439 0.4840649 -0.35831144 -0.3316402 -0.111170895 0.60530657
0.34926724 -0.24216029 -0.24089304 -0.44059226 -0.08574917 -0.3653811 -0.38901857 0.3893171
0.053095736 -0.38358516 0.028145973 -0.3063137 -0.68415755 0.102843136 0.32970977 -0.4363257
-0.58547705 -0.29769847 0.26017693 0.027087249 0.19111073 -0.511116 0.47286156 0.1975984
-0.26827103 -0.31906077 0.23106097 0.5239396 -0.37669712 0.04139037 0.44846717 -0.14467974
-0.26246077 -0.14284126 0.25753054 -0.07900591 -0.15559147 -0.041664194 0.024809323 0.5145267
0.1533755 -0.4284135 0.46533793 -0.068454735 0.07779858 -0.037257493 0.1562018 -0.0956735
0.34919748 0.10062544 0.035358794 0.36329907 0.097143516 0.25917703 0.3769264 -0.0035987424
-0.20811614 -0.16554551 0.49485064 0.12707889 0.36777225 0.36389637 0.3054971 -0.10149263
0.2559332 0.22367375 -0.1967247 -0.14222775 -0.26089355 -0.37755212 -0.59247845 -0.26771075
-0.40175873 -0.111673266 0.16579899 0.172473 -0.17686911 0.42492163 0.32996005 -0.3556565
-0.3190227 0.038934033 0.31482637 -0.18958578 -0.18644749 -0.45412543 0.0013966066 -0.03546331
-0.5041286 0.08470659 0.323095 -0.007983104 -0.2823852 0.06429977 0.017755767 0.19373943
-0.6727307 0.07362974 -0.1747005 0.081608236 -0.2716688 -0.45285702 -0.041595627 -0.05730395
-0.37833878 -0.28216863 0.3946229 -0.008612673 -0.22287841 -0.45713106 0.22269943 -0.29608148

model.0.bias f4 [256]
00000000: 6279 303e 78fc 8e3e 1fef 7ebe 7deb 81be
00000010: 8288 213e 7a42 663e eaea f9be 7902 d5be
00000020: e9ad f03e a5e8 d0bd 1dfc 46be 5100 82bd
00000030: 7682 c23c 01e7 ac3e 9a1c db3e a233 e33e
00000040: 1e96 78be 2660 77be d85e e23d e3c6 6f3e
00000050: 739c fc3e 387d f0bd 69ff 173d 980c df3e
00000060: 7935 3fbe 6a3a a9be 5faa 5a3e 9395 c63e
00000070: 2432 623d 8cc6 2dbe fe55 6dbe 8d4d fabe
00000080: e300 5dbe ffc8 663d 04a6 d8be de8d 213e
00000090: 3dd1 e63e a542 bb3e 4848 a73d 9291 eb3e
000000a0: bf30 b53e 30db b03e 62e6 bf3d 142d 86bc
000000b0: d96d 993e 596a ae3d 92df ffbd d91d f13e
000000c0: 102b bd3e 017a 26be 2fc9 cf3e 847f e4be
000000d0: a9df 90be 94da 8fbe b825 a2be d95b b7be
000000e0: 3eba 7c3e 004e a8be 15c7 ac3e fc5a c0be
000000f0: 00b1 a33e df57 a43c 8726 bc3d a0e4 e5be
00000100: b7a7 ce3d 4875 aabe 27a5 123e 0802 fe3e
00000110: ac43 aa3d 577d 87be 7056 03be d646 dcbe
00000120: 8176 6a3e 1e11 ebbe d19f a1be 1d82 e6be
00000130: 905e ed3e c5b0 f7be 7549 8fbd 5cdd 1ebe
00000140: 848b ebbe 5e2b 2d3d c294 4e3e 3062 983e
00000150: ac73 1dbe 7797 51bd 28a5 e4bc 698e a53e
00000160: 6567 8c3e 418c 713e d139 97be 4ea4 e3be
00000170: adc8 a6bd 30b6 8e3d e440 81bd a5dd c5be
00000180: bf8a a43d 5546 20be a87c fabe cbd4 91be
00000190: 03fa 153d c7b4 c1bc 2548 f93e 841e 20bd
000001a0: 805f 533e 87b1 a8be cb76 3a3e 6f58 c53e
000001b0: 38c5 c3bd ff3f f53e b492 f83e 2254 b13e
000001c0: d7c1 40bd 951f e5bc 0e70 89be 89c9 5bbd
000001d0: 7fe4 963e 5d0b 09bd 1439 543e 333c cfbe
000001e0: e757 6abe 18c9 2d3e 9547 cb3e c974 e73e
000001f0: 3b20 153e 7a58 9cbe 0eb0 f7be 8b99 01be
00000200: 03f7 0dbe 7f03 aebe 7b3a b9be da7b bf3e
00000210: d077 5bbd 2a1d dfbd d7a5 a13e d96d c43e
00000220: b0f9 043e b6c6 123e 6b37 4ebe bf8f a83e
00000230: 6c82 d0bc d4f4 3bbe c049 ba3d d5fd dd3e
00000240: c671 ecbc 5b7b e0be d71a d43e ff18 d7bc
00000250: 8a14 75bb 6ca3 ed3e 3078 dabc ae8c fabe
00000260: 942f cfbd 1881 e23d fc4f 913e b1a2 ab3c
00000270: cc6f 1e3c 0830 8ebd 521b d23e 58c1 d13e
00000280: eafb ec3e 2e5b bfbe 7f82 573d ca01 7ebe
00000290: 8c21 0b3e 7679 a3be c32c 67be dae1 eb3d
000002a0: 765b 0b3e 45b5 7c3d ef44 f53e 985e 5e3e
000002b0: af17 473e fa45 b5be d774 9a3e 465c c73d
000002c0: 6039 893d 8b6e 71be 753e a63e c06e d33e
000002d0: ce3a a7bd dc24 f3be 2a70 d8be 19b5 5cbe
000002e0: 20f6 78be 4d84 89be 663f d5be f19e 14bd
000002f0: d9b6 33be 5311 e2be 3b57 eabd f9e3 f33e
00000300: b2e7 ce3d ef4b 7c3d 429d 843e 3e14 863e
00000310: 507a a03e a1af cdbe 98dd a23e a482 df3b
00000320: 2ab9 c13e e5da a4be b660 d03e 7465 6c3d
00000330: e9a5 b93e 6b7f fe3c a541 d03d 171f 953e
00000340: 5371 1c3b fa84 3fbe 6541 933e da65 cf3e
00000350: 0834 7f3d 04fb 49be 20b0 593e 831f 873e
00000360: ee2d 9abe 40c6 9e3e f734 833e 96f5 173e
00000370: 260a f63e 1d25 78be 9f15 3bbe baf8 8b3d
00000380: d8b1 a63e b59f 163d 8801 86be c2fc e9be
00000390: d71a b33d beab 5e3e a34d 523e 8d7f adbe
000003a0: 419b 2cbe 0a34 f03e d3de cd3e 6ce8 4e3e
000003b0: fba3 b8be 50d2 c1bc d8fb 313d 8194 40be
000003c0: 51ee e63e 8748 84be b1a1 433e 2657 8fbe
000003d0: 9833 be3e f13b a6be 98b5 663e e5fb f1bd
000003e0: 686c 8c3e 7990 d4be 0b36 79be 3ad9 1e3d
000003f0: 3096 f23e 5381 bf3e 871d a03e 6209 a93e
0.17233804 0.27926993 -0.24895905 -0.25374976 0.1577473 0.22486296 -0.48812038 -0.4160345
0.47007683 -0.102006234 -0.19432111 -0.063477166 0.02374385 0.33769992 0.4279526 0.4437533
-0.24276015 -0.24157771 0.11053246 0.23415713 0.4933811 -0.117426336 0.037108812 0.43564296
-0.18672742 -0.3305238 0.21354054 0.3878599 0.0552236 -0.16970271 -0.23177335 -0.48887292
-0.2158237 0.05634403 -0.4231416 0.15776774 0.4508151 0.36574283 0.081680834 0.460095
0.35388753 0.34542227 0.09370114 -0.016378917 0.2996662 0.08516378 -0.124938145 0.47093084
0.36946917 -0.16257478 0.40583178 -0.44628537 -0.2829564 -0.2809645 -0.31669402 -0.35812262
0.24680421 -0.3287201 0.33745638 -0.37569416 0.31970978 0.020061431 0.09187036 -0.4490099
0.10090583 -0.33292603 0.14320813 0.49610925 0.08313689 -0.26462814 -0.12825942 -0.43022794
0.22896768 -0.45911497 -0.31567243 -0.45021144 0.46361208 -0.48377052 -0.06996433 -0.1551413
-0.4600488 0.042277686 0.20173934 0.2976241 -0.15376157 -0.05116984 -0.027910784 0.32335213
0.27422634 0.23588659 -0.29536298 -0.44461292 -0.081437446 0.06968343 -0.06311205 -0.38645664
0.08034276 -0.1565183 -0.4892323 -0.2848266 0.036615383 -0.023645772 0.48687854 -0.039091602
0.20641899 -0.32947943 0.18209378 0.38544032 -0.09559101 0.47900388 0.48549426 0.346345
-0.04705986 -0.027969161 -0.26843303 -0.053658996 0.29471204 -0.033458102 0.20724899 -0.40475616
-0.22885095 0.16971242 0.3970305 0.45206288 0.14563076 -0.30536252 -0.48376507 -0.12656228
-0.13863759 -0.33987042 -0.3617743 0.3739918 -0.05358106 -0.108942345 0.31571838 0.38365057
0.12985873 0.14333615 -0.20138328 0.3292217 -0.025452815 -0.18355113 0.09096098 0.4335772
-0.028862845 -0.43844113 0.41426727 -0.026257036 -0.0037396275 0.46413743 -0.026668638 -0.48935455
-0.10116497 0.11059779 0.28381336 0.0209516 0.009670209 -0.06942755 0.4103647 0.40967822
0.46285945 -0.37374252 0.052614685 -0.2480537 0.13587016 -0.31928605 -0.22575669 0.11517687
0.13609108 0.06169631 0.47904155 0.21715772 0.19442628 -0.3540495 0.30167267 0.09734397
0.067003965 -0.23577325 0.32469526 0.41295433 -0.08165513 -0.4748906 -0.42273074 -0.21553458
-0.24312639 -0.2685875 -0.41649932 -0.03628439 -0.1755022 -0.44153842 -0.11442419 0.47634867
0.10102786 0.061595853 0.25901228 0.2618732 0.31343317 -0.40173057 0.31809688 0.0068209935
0.3783658 -0.32198253 0.40698785 0.05771394 0.36259392 0.031066617 0.10168771 0.29125282
0.0023871257 -0.1870307 0.2876083 0.40507394 0.06230548 -0.19724661 0.21258593 0.2639123
-0.30113167 0.31010628 0.25626346 0.14839777 0.48054618 -0.24232908 -0.18269967 0.0683455
0.3255756 0.036773402 -0.26173043 -0.4570065 0.08745354 0.21745202 0.20537429 -0.33886376
-0.168561 0.46914703 0.40209064 0.2020585 -0.36062607 -0.023659855 0.043453068 -0.1880665
0.45103696 -0.25836584 0.19104649 -0.27996176 0.37148738 -0.32467607 0.2253021 -0.11815623
0.27426457 -0.41516474 -0.24337022 0.038781382 0.4738021 0.37403354 0.31272528 0.3301497

model.1.weight f4 [256]
00000000: 9db9 833f 6919 693f 4a20 883f cdf3 833f
00000010: 4582 783f 8f27 8b3f 6764 4b3f 55bb 853f
00000020: 9df2 8b3f 70a6 703f 06e7 7a3f 026d 943f
00000030: 2823 713f a3a7 6d3f 7bc5 713f 1989 5e3f
00000040: e3a3 913f 94a1 833f ff53 8a3f 0fcb 713f
00000050: 0189 863f a31b 743f de99 673f 7a5b 7e3f
00000060: 89c8 723f 3444 723f 84e6 983f bbc1 803f
00000070: 0c7b 823f 5984 6c3f 36e4 853f 6fd9 933f
00000080: 8672 8f3f 5b19 6f3f 2cb0 8c3f 2f54 613f
00000090: 657d 773f c55a 693f 6744 863f f9d5 873f
000000a0: 3541 763f 547e 9e3f 313e 903f 89fe 673f
000000b0: cd55 953f b47b 883f 0988 6f3f 8caa 803f
000000c0: 730b 933f f60c 823f ec3d 793f ed30 4d3f
000000d0: a012 623f 4eb0 6e3f aec9 723f 1a14 763f
000000e0: 75b4 883f 1d0f 723f 76a8 753f cf70 913f
000000f0: f612 863f 183e 553f 981b 863f 1da6 873f
00000100: 6fa5 613f 1ce3 793f a637 7d3f cc76 883f
00000110: 2375 913f 6e11 823f 2a2b 833f 5267 813f
00000120: 5237 893f a259 9c3f 14f4 773f 4f92 7b3f
00000130: 8d30 7c3f d6cb 663f 6817 8c3f 2fad 723f
00000140: 8610 7b3f ffe3 863f 15a1 683f 0582 743f
00000150: 26f9 7a3f b18d 633f c397 723f 1d60 583f
00000160: 931d 8d3f aab3 673f 6a2e 5a3f 6c18 813f
00000170: 9ede 7a3f ec35 7f3f ddfc 823f d931 833f
00000180: eaaa 5a3f 5b3b 6d3f 74f4 6b3f 88f3 713f
00000190: afe2 7c3f 7f2f 723f ba02 833f 7a9c 833f
000001a0: 1937 653f d6bd 603f 834d 803f 4669 823f
000001b0: ce23 803f 8bd8 a03f f4ca 843f 4d0b 863f
000001c0: 2f14 893f 599a 803f 34e0 893f a054 833f
000001d0: d205 863f eedf 7a3f 6e05 6c3f 41f6 793f
000001e0: 14ea 893f 39aa 3d3f d8e9 703f d0a5 773f
000001f0: b700 633f e1e4 5f3f 4163 6e3f 96fc 5f3f
00000200: 0897 823f 08ec 7f3f 9c39 673f fdd1 873f
00000210: e4d0 863f 4b52 8c3f 5b09 523f de5d 823f
00000220: f0fe 703f 966a 813f 1e29 7a3f 122d 843f
00000230: 4134 583f 990b 723f b577 8f3f 9a55 8c3f
00000240: e746 703f ec17 6f3f 0d42 563f 4f34 883f
00000250: 2c47 733f 90c2 503f cb06 673f f410 763f
00000260: e195 853f 3980 8d3f 3af2 7a3f 00b5 913f
00000270: 11ad 6e3f 596b 5a3f 1c2b 873f b37b 863f
00000280: 4151 803f f9f3 7c3f 843b 4f3f 3bbb 7d3f
00000290: 6d0d 773f 90b0 5b3f 0306 6e3f d247 5b3f
000002a0: 73ec 643f 6c9c 623f 88a0 603f 9f75 613f
000002b0: 993d 5e3f a75a 843f 735a 7a3f b0bd 6b3f
000002c0: 9879 7b3f 5245 8c3f 890f 783f c6e6 703f
000002d0: dd0c 713f ed45 7c3f ba5f 823f d29b 463f
000002e0: 3741 933f d9a4 913f 28ca 5c3f 7ca7 5f3f
000002f0: 88bc 6e3f bda3 803f 5967 803f f934 5e3f
00000300: 8708 723f 6387 4f3f ed91 913f 0b7a 6e3f
00000310: 1252 833f 9d03 873f c9ca 5b3f a63f 713f
00000320: 5630 8e3f e25d 7d3f c7a2 7a3f 2c9c 853f
00000330: ec5d 7f3f 914a 883f dfb4 733f 23fa 843f
00000340: eb1c 7a3f da43 823f 74f8 933f 6322 813f
00000350: 6e0e 903f 5d45 473f 4b36 863f 4ddb 7a3f
00000360: 2395 8f3f f40e 793f e3df 793f 9daa 6c3f
00000370: dbea 613f dccf 4c3f 0c6f 7c3f 050d 5b3f
00000380: f170 7c3f f82f 4d3f b73f 7e3f 396f 823f
00000390: 564e 8b3f ccb7 7f3f 2b46 803f aeea 8a3f
000003a0: 9e33 5b3f d411 873f 84d2 863f 53bd 8c3f
000003b0: 714c 863f d553 883f b3ed 803f 8d2b 743f
000003c0: ccdc 773f 05fc 863f 1e6e 6e3f 2a77 503f
000003d0: 9bc3 813f 15a5 853f 4a4b 7d3f 9bc4 5d3f
000003e0: d951 833f 0290 683f 6c3b 763f 0717 8f3f
000003f0: abaa 5c3f f2de 813f 1469 853f 10cd 803f
1.029102 0.910544 1.0634854 1.0308777 0.97073776 1.0871447 0.79450077 1.0447794
1.0933415 0.94003963 0.98008764 1.1595767 0.9419427 0.9283392 0.94441956 0.86927944
1.1378139 1.0283685 1.0806884 0.9445047 1.051056 0.9535467 0.9046916 0.9935833
0.9483724 0.9463532 1.1945348 1.0059122 1.0193801 0.92389446 1.046027 1.155073
1.1206825 0.93398064 1.0991263 0.8801908 0.9667571 0.9115413 1.0489625 1.0612174
0.9619325 1.2382302 1.1268979 0.90622765 1.1666809 1.0662751 0.9356695 1.0052047
1.1487869 1.0160205 0.9736011 0.8015278 0.8830967 0.9323777 0.9483899 0.9612442
1.0680071 0.9455431 0.95960176 1.1362551 1.0474536 0.8329787 1.0477171 1.0597569
0.88143057 0.97612166 0.9891304 1.0661254 1.1363872 1.0161569 1.0247548 1.0109656
1.0720007 1.2214854 0.9685681 0.98270124 0.9851158 0.9015478 1.0944643 0.9479551
0.9807209 1.0538329 0.9087079 0.95510894 0.9803642 0.8888808 0.9476282 0.8452166
1.102465 0.9050852 0.8522707 1.0085578 0.97995937 0.99691653 1.0233418 1.0249587
0.85417044 0.92668694 0.9216988 0.94512224 0.9878339 0.94603723 1.0235207 1.0282128
0.895372 0.87789667 1.0023655 1.0188377 1.0010927 1.2566084 1.0374436 1.0472199
1.0709285 1.0047103 1.0771546 1.02602 1.0470526 0.9799794 0.92195785 0.9764138
1.077456 0.74087864 0.9410682 0.96737385 0.88672966 0.87458616 0.931202 0.8749479
1.0202341 0.9996953 0.9032228 1.0610958 1.0532498 1.0962614 0.82045525 1.0184896
0.94139004 1.0110652 0.9771899 1.0326254 0.84454733 0.94548947 1.1208407 1.0963624
0.9385819 0.93395877 0.83694535 1.0640963 0.95030475 0.8154688 0.9024474 0.9611962
1.0436364 1.1054755 0.9802586 1.1383362 0.9323283 0.8532005 1.0560031 1.05065
1.0024797 0.9880977 0.8095019 0.99113816 0.9650486 0.8581629 0.92977923 0.85656464
0.8942329 0.8851993 0.8774495 0.880701 0.8681274 1.0340165 0.97794265 0.92086315
0.9823241 1.0958655 0.96898705 0.9410213 0.9416025 0.985442 1.0185463 0.7758151
1.1504277 1.1378433 0.86245966 0.87364936 0.93256426 1.0049969 1.0031539 0.8679958
0.9454426 0.8106596 1.1372658 0.9315497 1.0259421 1.0547978 0.858563 0.94237745
1.1108501 0.9897138 0.9790463 1.0438285 0.9975269 1.0647756 0.9519786 1.0388836
0.97700375 1.0176957 1.1560197 1.0088619 1.1254404 0.77840215 1.0485319 0.97990876
1.1217388 0.9728844 0.9760725 0.92447835 0.88248986 0.8000467 0.98606944 0.8556674
0.98609835 0.8015132 0.9931597 1.0190192 1.0883281 0.99889827 1.0021414 1.0852869
0.85625637 1.0552316 1.0532994 1.0995277 1.0492078 1.0650584 1.007254 0.95378953
0.96821284 1.054566 0.93136775 0.8143183 1.0137819 1.0441004 0.98943007 0.8662812
1.0259353 0.9084474 0.9618442 1.1178902 0.8619792 1.0146163 1.0422692 1.006258

model.1.bias f4 [256]
00000000: a4ef ebbd bac6 a4be 97f7 643e 4958 e5be
00000010: 6f2f 82bd 3baa bcbe 6182 32be 963c 373c
00000020: c0d5 78be bada c2bd def9 ff3d 7d3a 27be
00000030: d6f7 3abd 77f3 8cbe e22c 7fbd 25fb d7bd
00000040: 30ac 103e 3f30 babd 400a 13be 090a 62be
00000050: 8fcc 023e a32b 9abe 35a7 f3bd 2cda 15bc
00000060: b057 bdbe 5df8 c1be ffc2 7cbd 6abd f93c
00000070: 3c53 223d d204 5cbe 003c 3fbe 21cf 85bd
00000080: 518c 4a3e c6a6 55bd baa1 03bc e3ec 00be
00000090: bcaf 4d3d 6c57 9abd 8c8f c63d e0dd edbd
000000a0: be52 7ebe 90cf 1ebe c6e7 53be a867 98be
000000b0: 5c47 513c 91d7 51bd ebe0 f2be bf94 3bbc
000000c0: 528f 73bc 65d0 11bc 1741 88be e1c7 03be
000000d0: b8db c5bc 4fa2 35bd 2434 f8be ce0a b93d
000000e0: 00f9 cebd 3304 8ebb 4a91 94be 67c0 ae3c
000000f0: 82c8 32be 76a9 f7bd f82f 7ebe 13c6 493d
00000100: f340 c73c d4b3 273c efc2 f33d de53 24be
00000110: 3d5b b0be f6e3 44be e414 a93d e816 283d
00000120: 3d1d 7fbe aed9 62be c5f5 71be e1c6 18be
00000130: 473d 72be 247d 0bbd 3fee cabe bce8 dfbd
00000140: e32e 5dbd 83a7 40be 9018 65bd f5bf ddbc
00000150: edd2 36be 545f acbd 38a0 733d 4323 f5be
00000160: 7d40 c1bd fca6 d0bd 050c adbb 1d8e 543d
00000170: f432 0cbe c800 d5bd 1626 4dbe c157 c63c
00000180: bcf1 04be 871d 26bd 5eb3 cdbc b7d4 e43d
00000190: a10e 6cbe ccf3 2cbe a6e0 8fbe 10da 97bd
000001a0: 4fa1 66be a026 93bd 2ace 253c 6680 5c3d
000001b0: dcd9 76bc cb7e 82be 58e3 c83c 149a 993c
000001c0: e6e6 2bbe 1fea f2be a139 13be e2f0 4d3d
000001d0: acb5 01bd 2484 58bd abf0 14bd be21 07be
000001e0: 0409 103e 9aae 57be 8872 25be 5bc3 56bd
000001f0: 046e c4bd 3d18 31be 057a 76be db74 f0bd
00000200: 6734 7bbe aa7d 073d 2e50 c43c 711d a1bd
00000210: dfb8 febd fcd9 36be cf6e acbd a225 aa3d
00000220: e060 97bd b704 4cbe 2928 65be 7ba1 29be
00000230: 20dc 1dbe c8a1 15bd 1005 72bd cfa7 0e3e
00000240: 257e 6abe 3810 1ebe b2aa 98be 17cf d0be
00000250: b28e a0be ba1a 4b3e 3585 f9bd 3b6d 903d
00000260: 49ea 26bd c7dd cbbe 5e1f 333d 3bc7 4cbe
00000270: 52ff 93be 7636 bcbd f91e 363e d409 fc3d
00000280: cf65 4a3e e9b9 28be 176a 3abe 3acd ddbd
00000290: 79cd fdbb 0301 afbc c4c7 74bc ed42 d9bd
000002a0: a567 84bd 434f 33be 491e 88bd 3545 80be
000002b0: 7199 66be cedd 32be 5189 1ebe 6ffb 89be
000002c0: f376 153a ca7a dfbd a905 75be 178a c6be
000002d0: 8afd 90bc 7b93 84bd 680a 5ebe 1896 9cbd
000002e0: 2079 71be af2e 41be 4a01 d9bd 38fa e23d
000002f0: 6716 523d 987b 85be e666 953d 3ff1 583c
00000300: 81fa e2bd 0fa4 32be bb20 3fbe b09f 1d3a
00000310: 6535 543e 37c6 153e f3cf 7bbd f7da 3bbe
00000320: ac53 283d de0a 06be 5121 58be 1cf3 1c3e
00000330: 998b d73d 7869 e63d 5241 99bd 3294 07be
00000340: dfd4 76bd 1234 d73d 7a20 fabd 6b4e f03d
00000350: c5bf 4fbd 6078 ffbd ebe2 663d 97a0 913d
00000360: 1c42 bcbe 3a13 523d 8fa2 d83c a270 c1be
00000370: 3e14 a0be f671 88bd e258 1abe 56d1 15be
00000380: 644d 683c 46c5 6ebe 4a68 f8bd 5c84 183c
00000390: 8991 7ebe c635 febd e494 23be 0f1c 81be
000003a0: 8018 9fbe b080 d2bd b78c a1bd f10b 5d3e
000003b0: e006 44be cb36 8fbe 5f06 d53c f916 d4bd
000003c0: 7214 643c 4a9f b4be 7138 6bbe ffee bfbd
000003d0: 3137 dc3b b78b fd3c 57dc 973d 49fb d2be
000003e0: d80a a5be ba4a d7bd caed 3ebe a73e 183d
000003f0: c003 94be ee58 76bd 85c1 37be ca1b 06bf
-0.11520317 -0.32182866 0.22360073 -0.4479392 -0.063567035 -0.36848626 -0.17432548 0.011183878
-0.24300289 -0.09514375 0.1249883 -0.16330905 -0.04564651 -0.275295 -0.062298663 -0.10545949
0.14128184 -0.090912335 -0.14359379 -0.2207414 0.12773345 -0.30111417 -0.118971266 -0.0091462545
-0.36980963 -0.378848 -0.0617094 0.030485827 0.03963016 -0.21486214 -0.18675232 -0.06533647
0.19780089 -0.052161 -0.008034164 -0.12590365 0.05021642 -0.07536206 0.09695348 -0.11614585
-0.24836251 -0.15508866 -0.20693883 -0.29766583 0.012773361 -0.05123097 -0.47437224 -0.011449038
-0.014865713 -0.008899783 -0.2661216 -0.12869217 -0.024152622 -0.044344243 -0.4847728 0.09035264
-0.10106087 -0.0043339967 -0.29017097 0.021331979 -0.174593 -0.12092869 -0.24822986 0.049261164
0.024322962 0.010235745 0.11902415 -0.16047618 -0.3444461 -0.19227585 0.08255938 0.04103747
-0.24913497 -0.2215335 -0.2362891 -0.14919616 -0.23656188 -0.03405489 -0.39634892 -0.109330624
-0.053999793 -0.188139 -0.055931628 -0.027069071 -0.178539 -0.0841662 0.05947897 -0.47878465
-0.09436128 -0.101881 -0.005280974 0.051893342 -0.13691312 -0.1040054 -0.2003406 0.024211766
-0.1298284 -0.040555503 -0.025109943 0.11173385 -0.23052455 -0.16889876 -0.2810108 -0.07414639
-0.22522472 -0.071851015 0.010119954 0.053833388 -0.01506659 -0.2548736 0.024522468 0.018750228
-0.167873 -0.47444245 -0.14377452 0.050278552 -0.031667396 -0.052860394 -0.03636233 -0.13196465
0.14065939 -0.21062699 -0.16156971 -0.0524324 -0.09591296 -0.17294402 -0.24069984 -0.117410384
-0.24531709 0.033078827 0.023964014 -0.07866944 -0.12437605 -0.17856592 -0.084195726 0.08307959
-0.07391524 -0.19923674 -0.22378601 -0.16565506 -0.15416002 -0.03653124 -0.05908686 0.13931201
-0.22899683 -0.15435874 -0.2981773 -0.40782997 -0.31358868 0.19834414 -0.1218361 0.07052084
-0.040750775 -0.3981764 0.043731086 -0.19997875 -0.2890573 -0.09190075 0.17785253 0.12306562
0.197654 -0.16477169 -0.18204533 -0.108301595 -0.0077454415 -0.021362787 -0.014940206 -0.10608468
-0.06465081 -0.17510705 -0.066464014 -0.250528 -0.22519471 -0.17467424 -0.1548207 -0.2694964
0.0005701624 -0.10912092 -0.2392794 -0.3877723 -0.017699022 -0.06473442 -0.21683657 -0.076458156
-0.23581362 -0.18865465 -0.10595949 0.11082882 0.051290896 -0.26070857 0.07295017 0.013241111
-0.11082936 -0.17445396 -0.1866483 0.000601287 0.20723493 0.14626394 -0.061477613 -0.18345247
0.04109542 -0.13090083 -0.21106459 0.15327114 0.10524673 0.11250585 -0.07483162 -0.13240126
-0.060261603 0.105079785 -0.12213226 0.11733707 -0.050719995 -0.124741316 0.05636875 0.07110708
-0.36769187 0.051287867 0.026444701 -0.37781245 -0.31265444 -0.06662361 -0.15072969 -0.14630637
0.014178608 -0.23317441 -0.121292666 0.009308901 -0.24860205 -0.124126 -0.15974766 -0.2521672
-0.3107338 -0.102784514 -0.07888167 0.21586587 -0.19143248 -0.2797149 0.026004015 -0.10355944
0.01392089 -0.35277778 -0.2297075 -0.09371757 0.0067204465 0.03095041 0.07415073 -0.4120734
-0.32234836 -0.105123 -0.18645397 0.037169125 -0.2890911 -0.060143404 -0.17944916 -0.5238615

model.1.running_mean f4 [256]
00000000: 5391 303e 25fe 8e3e c3ec 7ebe 87e9 81be
00000010: 0f85 213e dc50 663e eeea f9be 9b00 d5be
00000020: 0fa8 f03e ade5 d0bd 7df8 46be 5029 82bd
00000030: 6e7b c23c f2e8 ac3e 261b db3e 0e31 e33e
00000040: f397 78be c259 77be 2763 e23d e8c0 6f3e
00000050: 389f fc3e 7a7e f0bd 2af2 173d 290e df3e
00000060: 7d32 3fbe 5d34 a9be 04ad 5a3e 5993 c63e
00000070: 7930 623d 86c3 2dbe 844d 6dbe 054c fabe
00000080: 5c02 5dbe 67c2 663d f0a6 d8be c18b 213e
00000090: 7bcf e63e dd41 bb3e b84f a73d 718d eb3e
000000a0: ab2f b53e f6d7 b03e 55db bf3d 2855 86bc
000000b0: 9c66 993e 6f68 ae3d 65d5 ffbd 7c1c f13e
000000c0: d92c bd3e b678 26be 72cb cf3e 7c7d e4be
000000d0: 02e0 90be c3d9 8fbe cd21 a2be 4459 b7be
000000e0: 9cb6 7c3e bd4b a8be b9c6 ac3e 9761 c0be
000000f0: 01af a33e c964 a43c 9520 bc3d 40e3 e5be
00000100: e4a8 ce3d fb74 aabe 2ea5 123e 2f00 fe3e
00000110: 1951 aa3d 5580 87be 5355 03be f344 dcbe
00000120: f472 6a3e f90b ebbe 509c a1be 0884 e6be
00000130: 395c ed3e ddae f7be 8e45 8fbd 5cdb 1ebe
00000140: cf80 ebbe c445 2d3d f692 4e3e c25f 983e
00000150: 0e77 1dbe 9e93 51bd 35a1 e4bc 4d8c a53e
00000160: 4c5e 8c3e 7490 713e ed38 97be b0a2 e3be
00000170: 58c6 a6bd 4cb4 8e3d 993b 81bd 9bdb c5be
00000180: ca89 a43d ca46 20be 717a fabe 56d4 91be
00000190: d0f1 153d 39af c1bc 5e4c f93e 4823 20bd
000001a0: 365f 533e 6ab0 a8be fa78 3a3e ea56 c53e
000001b0: bac1 c3bd 003d f53e 388a f83e 8c51 b13e
000001c0: 9cf3 40bd 39ff e4bc ab6e 89be 8ac4 5bbd
000001d0: 29e5 963e 3211 09bd 1835 543e a137 cfbe
000001e0: a951 6abe fbc7 2d3e 2947 cb3e a973 e73e
000001f0: b11e 153e 6a58 9cbe e7ad f7be 5698 01be
00000200: e500 0ebe fc02 aebe d637 b9be 2e7c bf3e
00000210: 828c 5bbd d40f dfbd 3fa5 a13e 256c c43e
00000220: 1efa 043e 41a4 123e ae32 4ebe 458c a83e
00000230: d27f d0bc 9df3 3bbe 2d56 ba3d 26fd dd3e
00000240: 6a77 ecbc 6279 e0be 661a d43e b89b d7bc
00000250: c4d5 73bb 32a2 ed3e f05d dabc 548b fabe
00000260: b207 cfbd 927d e23d 734f 913e 0298 ab3c
00000270: 5b83 1e3c ae2f 8ebd 271b d23e 1cbf d13e
00000280: a8fa ec3e 575d bfbe fb84 573d 0cfc 7dbe
00000290: 1e24 0b3e ea78 a3be d327 67be 7ee0 eb3d
000002a0: b459 0b3e a2b9 7c3d 4f42 f53e f95b 5e3e
000002b0: 7814 473e 1646 b5be 2a76 9a3e b05a c73d
000002c0: df3a 893d c468 71be 693a a63e 586c d33e
000002d0: 323b a7bd d622 f3be 566f d8be 07b3 5cbe
000002e0: a9ec 78be 3485 89be c73d d5be f590 14bd
000002f0: bfb6 33be c10c e2be 9d54 eabd 96e2 f33e
00000300: 67e2 ce3d eb4a 7c3d 389f 843e f511 863e
00000310: 207a a03e ceaf cdbe e3dd a23e d21a e03b
00000320: eab2 c13e 9ad8 a4be 3660 d03e 8a67 6c3d
00000330: 2fa4 b93e ba5e fe3c b441 d03d 3d1f 953e
00000340: 7127 1b3b 1283 3fbe 0043 933e c465 cf3e
00000350: 1774 7f3d 4cf9 49be d1ab 593e 891f 873e
00000360: 750f 9abe 98bc 9e3e 5e34 833e dff6 173e
00000370: 220a f63e 5624 78be b203 3bbe 67f3 8b3d
00000380: 46b1 a63e f09d 163d 4cf7 85be 45fa e9be
00000390: 3c26 b33d 1fac 5e3e ef46 523e 0882 adbe
000003a0: dc9a 2cbe 3a33 f03e e5db cd3e 96e2 4e3e
000003b0: e2a2 b8be 0cbf c1bc fcf6 313d 7d98 40be
000003c0: e0ec e63e df4c 84be 679f 433e 7c56 8fbe
000003d0: 2230 be3e d33a a6be 0fb6 663e 06f7 f1bd
000003e0: 4269 8c3e ab8f d4be 1e3b 79be 29c6 1e3d
000003f0: 0f92 f23e 917e bf3e f91b a03e 710a a93e
0.17242937 0.27928272 -0.24895005 -0.2537348 0.15773414 0.22491783 -0.4881205 -0.41602024
0.4700322 -0.10200057 -0.19430728 -0.06355536 0.023740496 0.33771473 0.4279415 0.44373363
-0.24276714 -0.24155334 0.11054068 0.23413432 0.49340224 -0.117428735 0.03709618 0.4356549
-0.18671604 -0.33047763 0.21355063 0.38784292 0.05522201 -0.16969118 -0.23174101 -0.48886123
-0.21582931 0.05633774 -0.42314863 0.15775968 0.4508017 0.36573687 0.08169502 0.4600635
0.3538793 0.34539765 0.09368006 -0.016398028 0.29961097 0.08516013 -0.12491874 0.47092044
0.3694828 -0.16256985 0.40584904 -0.44626987 -0.28295904 -0.28095827 -0.31666413 -0.35810292
0.24679035 -0.32870284 0.33745363 -0.37574455 0.31969455 0.02006759 0.09185902 -0.4489994
0.10090807 -0.33292374 0.14320824 0.49609515 0.083162494 -0.26465097 -0.12825517 -0.43021354
0.22895414 -0.45907572 -0.3156457 -0.45022607 0.46359423 -0.48375598 -0.069956884 -0.15513366
-0.4599671 0.04230286 0.20173249 0.29760557 -0.15377447 -0.05116617 -0.0279089 0.32333604
0.27415693 0.2359026 -0.29535618 -0.44460058 -0.081433 0.06967983 -0.063101955 -0.38644108
0.08034094 -0.15652004 -0.4892154 -0.28482312 0.036607563 -0.023643123 0.48691076 -0.039096147
0.20641789 -0.32947093 0.18210211 0.38542873 -0.09558435 0.47898102 0.48542953 0.34632528
-0.047107324 -0.02795373 -0.26842245 -0.05365423 0.2947171 -0.033463664 0.20723379 -0.4047213
-0.22882713 0.16970818 0.39702728 0.4520543 0.14562489 -0.30536205 -0.48374864 -0.12655768
-0.13867529 -0.33986652 -0.36175412 0.3739943 -0.053600796 -0.10891691 0.31571385 0.38363758
0.12986037 0.1432047 -0.2013652 0.32919517 -0.025451574 -0.1835465 0.09098468 0.433572
-0.028865535 -0.43842608 0.4142639 -0.02631937 -0.0037206272 0.46412808 -0.026656121 -0.48934424
-0.1010889 0.11059107 0.28380927 0.020946506 0.009674872 -0.06942688 0.4103634 0.40966117
0.46284986 -0.373759 0.052617054 -0.2480318 0.13587996 -0.31928188 -0.22573785 0.11517428
0.13608438 0.06170047 0.47902152 0.21714772 0.19441402 -0.35405034 0.30168277 0.09734094
0.06700682 -0.23575121 0.32466438 0.41293597 -0.081655875 -0.47487515 -0.42272443 -0.21552669
-0.24309029 -0.26859438 -0.41648695 -0.036271054 -0.17550181 -0.44150355 -0.1144192 0.4763381
0.101017766 0.061594885 0.25902724 0.26185575 0.31343174 -0.4017319 0.3180991 0.0068391347
0.37831813 -0.32196504 0.40698403 0.05771593 0.36258075 0.031051029 0.10168782 0.29125395
0.0023674632 -0.18702343 0.28762054 0.4050733 0.06236657 -0.19724005 0.21256949 0.26391247
-0.30089918 0.3100326 0.2562589 0.14840268 0.48054606 -0.24232611 -0.18263128 0.06833535
0.32557124 0.036771715 -0.26165235 -0.45698753 0.08747527 0.21745346 0.20534872 -0.33888268
-0.16855949 0.46914083 0.4020683 0.20203623 -0.3606177 -0.023650669 0.043448433 -0.1880817
0.45102596 -0.25839898 0.19103776 -0.2799567 0.37146097 -0.32466754 0.22530387 -0.11814694
0.27424055 -0.4151586 -0.24338958 0.0387632 0.4737706 0.3740125 0.3127134 0.3301578

model.1.running_var f4 [256]
00000000: cb62 153d 0a87 a13e ca09 513f 99df 0e3f
00000010: 12dc 973e 9740 ba3d 007e f13e e2f4 3d3d
00000020: 6d5f 503f 8d89 a63e 7c08 2b3e 3975 f43c
00000030: 62da 913e eedf a13e 6b97 4a3e a4e8 023f
00000040: 9c76 0b3e 3edf df3d cb04 b33e ee16 3e3e
00000050: 4d0b 4f3d c3b4 2a3f 4f1d ae3e 40ab 5b3e
00000060: 6ec2 473f 5d95 f23e 5c4c a83d 99c5 cd3e
00000070: 77eb 543f 9c5e 993e 9d02 1e3e a9ac 443e
00000080: 412e bb3d 0c5b 293e 37d3 933f f5bf 543f
00000090: d625 673f c817 0d3f 6495 aa3e 7dea a23e
000000a0: 429b af3e bd04 4f3e 5c07 0b3f 06ce ab3e
000000b0: a724 7d3d 0a4a d43e b11e 773e 5391 303d
000000c0: 36db 1d3d 638d a53e 5ced 943e e1f5 e43e
000000d0: 62af 153e 6661 3c3f c718 a43e 5118 ed3e
000000e0: 3dbb 233e c677 493e 0aa3 ee3e 6c2b 713e
000000f0: d51a 0a3f ef9a 653e 1d8e 523e 7aef 1b3e
00000100: e83a 0d3e bea9 933e a225 383f d83c 7e3e
00000110: 33ef c33c fada 123f ec12 973f a9cd 263e
00000120: ad65 593f 95c0 e73d 66c3 7a3e 583f 123d
00000130: 56c8 c53d fc29 303f e189 723f 2c48 ed3e
00000140: 9498 223d 071b 083f 2283 983e 4458 2c3e
00000150: 988b a43e 9476 803e a643 db3d c1d4 9f3f
00000160: 51f4 c13d 1576 db3e b6b3 3a3e 3a08 c73e
00000170: afe6 393e 484a 193f d14f 003e 8f5c 443e
00000180: 7e3f 483f f6bd 733f f018 be3e f380 d93e
00000190: b86b 2c3f 6603 893f bb7e 493e 9a60 813e
000001a0: 04f0 c23d a1d7 0a3f 9aa6 aa3d d361 173f
000001b0: 8b7a a23e b1c2 143e 8c52 ea3c 9f07 bd3e
000001c0: 419b c93e 0efe 383f 0e86 3c3e d5af 583d
000001d0: de7b 0a3e 0ea3 7b3e 2bfd 693e ee02 af3d
000001e0: 636f ee3e 3d67 a33e 50e5 dd3e 9fce 363e
000001f0: b917 e63e bf6d c23d 7106 173f 02ce ef3d
00000200: fb62 083d 3466 8e3e c72a b63e 85c4 943e
00000210: d483 953e 40f0 3b3e 048f 113e ab77 af3f
00000220: 88bd 963e 514b db3c fc1a 3f3f b244 363f
00000230: 6289 853f 4112 f23e e675 d63e 6e91 853e
00000240: d964 8f3e ee1b a13e 890c 1d3f d4e6 b43e
00000250: 5d74 e63e 7113 613e 3cf6 5d3e 7e15 d23e
00000260: f08e 033e 1262 7d3f fca5 b93e 70db 453e
00000270: cb5e 8d3e 262a a13f 9951 2c3e 02c0 273e
00000280: 3b3e fd3e 905d 953d c5dc c03e c33a ab3d
00000290: c934 2c3e f60d c53e c05c 143e 8519 a83e
000002a0: 9e99 343f e46a 1e3e c17f 203d 85fa 743f
000002b0: e4e3 f33e 636e f13f 0a1d 463e 9dd5 c83e
000002c0: a211 013f 6d53 4b3e bb67 e73e 8e48 b83e
000002d0: 06ca f93e 410d f93e 97e2 903e c326 0e3f
000002e0: 5d92 443e 9876 d63e e70e 4a3f 4811 bf3e
000002f0: 48cb 003f de35 133e f6e9 7f3f beab 323e
00000300: a2fe 993f 67fb d53e 2bd9 4b3e 2321 163e
00000310: f76f 3a3f e823 bc3e 55d5 de3e a900 c73e
00000320: 5d24 b33e 3799 4c3f 1a9b 173f 7089 b43e
00000330: abd8 533e 8497 8b3e 45fb 1c3e 0823 663e
00000340: 77c4 703e c3dc 963e b9e9 be3d bef9 883e
00000350: af28 313e 2708 363d 7bb5 1a3e 0c06 ef3e
00000360: 494b 7f3d 0a99 b53d 8eab 663e b71a 503f
00000370: c6c1 b33e e56a 663d 8489 253e 510b 1d3e
00000380: b2b6 2c3d 28f0 bd3e 8cf2 253d 11e5 823e
00000390: 0f6f 573d ac26 f93e f8bf 303e ce3f 1c3e
000003a0: 4d91 193f 8837 403e 2841 bc3e 0a00 903d
000003b0: 7326 143f a80b 893e 132a c33e 9003 a33d
000003c0: 9085 113e 9cbe 193d 324f 293e 251a 913e
000003d0: 8f15 6d3e 1ce1 de3e 56e0 9a3e 11e3 d43e
000003e0: 19db 0b3f 71cc 753e 1bcf 1d3e 82a8 d63e
000003f0: bf02 bd3e eafd 9c3d 5940 303f df4c 543e
0.03647117 0.3154834 0.8165556 0.5580993 0.29660088 0.09094351 0.47166443 0.046376117
0.8139561 0.32526818 0.16702455 0.029841052 0.28486925 0.31616157 0.19784324 0.5113623
0.13619465 0.10931252 0.34964594 0.18563434 0.050547887 0.6668207 0.34006736 0.21452045
0.7803105 0.4737958 0.082176894 0.40189818 0.8317179 0.29954994 0.15430684 0.1920649
0.091396816 0.16538638 1.1548833 0.83105403 0.9029211 0.5511441 0.333171 0.31819525
0.3429814 0.20216651 0.54308105 0.3355562 0.061802533 0.41462737 0.24132802 0.043107342
0.038539134 0.32334432 0.2908734 0.4471884 0.14617684 0.7358612 0.32050154 0.46307614
0.15989394 0.19674596 0.46608764 0.2355172 0.5394719 0.22422384 0.20562024 0.15228072
0.13792002 0.2884044 0.71932423 0.24827898 0.02391777 0.5736538 1.180265 0.1628939
0.8492077 0.11316029 0.24488601 0.03570494 0.09657352 0.68814063 0.94741637 0.46344125
0.03969629 0.5316624 0.29787546 0.16830546 0.32137752 0.25090468 0.10706262 1.2486802
0.09470428 0.42863527 0.18232617 0.38873464 0.18154405 0.5987897 0.12530448 0.19175933
0.7822188 0.9521173 0.371284 0.42481193 0.67351866 1.0704162 0.1967725 0.25269014
0.095184356 0.54235274 0.08332558 0.5913364 0.31734118 0.14527394 0.028603815 0.36919877
0.39376262 0.72262657 0.18410513 0.05290206 0.13523814 0.24573919 0.22850482 0.08545481
0.46569356 0.31914702 0.43339014 0.17852257 0.44939974 0.09493589 0.58994204 0.11709215
0.03329752 0.2781235 0.35579512 0.29056183 0.2920214 0.18353367 0.14214712 1.3708395
0.29441476 0.026769312 0.7465055 0.7119857 1.0432551 0.47279552 0.41886824 0.26087517
0.28006628 0.3146662 0.6134725 0.35332358 0.45010653 0.21980073 0.21675962 0.41032022
0.12847495 0.9897777 0.3625945 0.1932199 0.27611384 1.2590988 0.16828002 0.16381839
0.4946154 0.07293236 0.37668434 0.08360817 0.16817011 0.38487214 0.14488506 0.3283197
0.705469 0.15470463 0.039184336 0.9569476 0.47634804 1.8861812 0.19347015 0.39225474
0.5041753 0.19856043 0.45196328 0.35992855 0.48786944 0.48642924 0.28297874 0.55527896
0.19196458 0.41887355 0.7892899 0.37317872 0.5031018 0.14376017 0.9996637 0.17448327
1.2030833 0.41793367 0.19907062 0.14661078 0.72827095 0.36746144 0.43522134 0.3886769
0.3498868 0.7992129 0.5922104 0.35261106 0.20688121 0.27264035 0.15330227 0.22474301
0.23512445 0.29465303 0.09321923 0.26753038 0.17300676 0.04444137 0.15108292 0.466843
0.062327657 0.088670805 0.2252638 0.81290764 0.35108775 0.056254286 0.1616574 0.15336348
0.04216642 0.37097287 0.040514514 0.2556539 0.052596148 0.48662317 0.1726073 0.15258715
0.59987336 0.18771183 0.3676846 0.070312575 0.5787117 0.26766706 0.38118038 0.07959664
0.14211106 0.037535295 0.16534117 0.2834026 0.23152755 0.4353112 0.3024928 0.41579488
0.5463119 0.2400377 0.15411036 0.41925436 0.36916158 0.07665618 0.68848187 0.20732449

model.4.weight f4 [64, 256]
00000000: 41ff 5bbc 3b64 0a3e 7311 a63c 39b7 1a3e
00000010: c931 623d ae96 373e 6cf9 88bc 0c9c 853d
00000020: 99f8 1a3e 39ab 1ebd 7108 f6bc d1eb 193e
00000030: f9a5 2e3d 5a44 283e 4b84 4dbd 401f 743d
00000040: 4afc 9f3b 8acf a9bd 775d b63d 4850 0cbc
00000050: f1e9 ddbc 40df 423c 2c50 1cbd 59d7 b23c
00000060: 7c7e 073e d6bf a33d 28d0 d9ba c159 0d3d
00000070: cc66 89bb 950f a0bd 008b 9c3d 97b9 153d
00000080: e1a3 4b3d d55b 82bb e955 ff3c 5618 0a3c
00000090: fbaa d33d 4915 1c3d 59a0 1bbc 9b1a 50bd
000000a0: cc57 ea3d 1632 26bd fa14 913d 32fc 9d3d
000000b0: 82a9 813d aa8d e23c d09e 23bd 544d 773d
000000c0: cffc 64bc 7b80 8ebd 3686 ba3d bae2 5f3a
000000d0: baae 5f3d 9517 c1bc 9150 1b3d ccd7 853c
000000e0: fed1 c03d 3d52 f7ba 4a4a 2e3d 0e62 d13d
000000f0: 1fb1 113e f851 563d c251 943d d0d8 babd
00000100: 3e3d cabb 414d cd3d fe3e 6f3a 3f6a ba3d
00000110: ee65 c93d 6f5c ab3d d162 b43c 61f2 ea3c
00000120: 7570 483d 528e 8dbd 04db 313d 4ff7 603d
00000130: 5ba2 3fbd 9b9b 073e a6a8 2b3d 0eeb 4abd
00000140: 8255 db3c 147b 153e c738 79bd be13 88bd
00000150: bec8 18bd 7d48 19bd ea49 44bd f4db 94bd
00000160: f4ce 15bd 15fe b73d 8cb9 413c a4bc d13c
00000170: ce55 8c3b 1d1d 35bc e08b 89bd 9e35 3db9
00000180: 6536 b43c 9f8a d8bb e59e f1ba 3c86 1dbc
00000190: 8a02 113e 9690 c53c 061e db3c e20b e8bd
000001a0: 1f9c fd3d 526a 8b3c 67ed db3c 430e fe3c
000001b0: 4fe6 f2bd 9bc8 cabd bb43 023e adff 9f3d
000001c0: 8d53 94bc 24b8 143e 22bd 94bd f1ec 6cbd
000001d0: 3663 32bd 3324 e63c 32b5 2abd 818a 703d
000001e0: 5615 ba3d 2a57 4cbd 1f14 f33d ddcc 1e3e
000001f0: 5bed 52bd d0cf f7bc 70f9 48b8 51ac 9dbd
00000200: bc6c bebd bfee 7a3c e818 b23d bb30 b53d
00000210: fb46 d23c 010d e23d 2799 20bd ad1d 21bd
00000220: 432c 7d3c 8c47 f33d 04aa 0d3d a41d 86bc
00000230: 2a3c acbd 21ce 9dbd e8a3 0f3d c287 0b3d
00000240: 4a0c 49bc fecf f93d d036 803c 71bc 033e
00000250: 8cb4 d43d 4098 10bb 02d8 8d3d e465 9f3c
00000260: ceba 7e3c 653d ce3d dfff bcbd be25 b0bd
00000270: 96e6 d8bd 6543 023e 6aa2 873c 2b80 a4bd
00000280: 9340 3bbd 6dac 32bc f9e5 e43d 0711 fb3c
00000290: 1e8a 63bd 5755 52bd c438 a23c 919d 51bd
000002a0: 4273 52bd 358f b9bc 5702 98bb a73b 9e3d
000002b0: 34c2 93bb 918c f13d d7bb a9bd 542f fe3d
000002c0: 762b 39bc e434 babc ecd2 ed3d 03d2 0d3e
000002d0: 42a6 c93a 9a06 133d 846d c13d 3d39 933c
000002e0: 01b6 7abd fcb2 593d 4bed 043d 89f3 d23c
000002f0: 4e68 293d 0e25 c23d 4ff9 9abc 738d 3e3d
00000300: a249 31bd a77d c43c 44e6 be3d 1e44 91bc
00000310: 8441 9fbc 5dd3 863c 67a1 a7bd fe98 4e3d
00000320: 16ba d83d 283e 17bc 5162 1e3e 7ee9 de3d
00000330: 1000 1bbd 30a0 8dbb dfb7 0dbd 3f5d dc3c
00000340: f92f cd3d c1ce 04bd c70c d2bd 95e4 163a
00000350: d36a 123e 827d aebd eadf ca3b d353 1d3d
00000360: 120b 1f3e 5e51 24bd 6593 c8bd 5843 f93d
00000370: 7ad9 54bd 47c5 ce3d 0d64 eb3d 4466 c53c
00000380: 2a75 74bd 69f1 e2bc dbcb 343d 31ab e1bc
00000390: 8d5d 9bbd 5493 9bbd 3b5b fbbd 4cb6 ca3d
000003a0: f4a7 89bd cf9b 163e e5fe e93d 4e7b f2b9
000003b0: 1c3f 293c 0ffa 1cbc 1714 a3bd d2f5 28bd
000003c0: 27a4 173d b8d0 8d3d aa75 943c b2aa d9bc
000003d0: d795 15bd a311 bdbd f6c2 97bd 0e90 f03d
000003e0: c165 193c 34af 19bd 72ac e33c 9d3d e83d
000003f0: 1949 87bc 1322 4bbd 4427 7a3d dfe5 913d
-0.0134275565 0.13514797 0.020271992 0.15108956 0.05522326 0.17928573 -0.016720496 0.06523904
0.15133895 -0.03873751 -0.030033322 0.15031363 0.042638753 0.16432324 -0.050174993 0.059600115
0.00488237 -0.08291538 0.08904546 -0.008564062 -0.027089091 0.011894047 -0.038162395 0.021831201
0.13231844 0.07995574 -0.0016617822 0.034509424 -0.0041931625 -0.07815472 0.076437 0.036553945
0.049716834 -0.0039782324 0.031168895 0.008428654 0.10335346 0.038106237 -0.009498679 -0.050806623
0.11442527 -0.04057511 0.07084079 0.07714118 0.06331159 0.027655441 -0.039946377 0.06037648
-0.01397629 -0.069580995 0.0910763 0.000854056 0.05460999 -0.023570815 0.03791863 0.016338252
0.09415053 -0.0018869113 0.042551316 0.102237806 0.14227723 0.052324265 0.072421566 -0.09123385
-0.0061718514 0.10024501 0.0009126513 0.09102296 0.09833895 0.0836724 0.022019776 0.028680028
0.048935372 -0.06911911 0.04342176 0.05492335 -0.046785694 0.13242953 0.041908883 -0.049540572
0.026774172 0.14597732 -0.060845163 -0.066443905 -0.037300818 -0.037422646 -0.047922052 -0.07268515
-0.03657432 0.08984009 0.011824023 0.025602646 0.0042826897 -0.011054304 -0.06716132 -0.00018044419
0.021998594 -0.006608322 -0.0018434195 -0.0096145235 0.14161125 0.024116796 0.026747715 -0.113303915
0.12383293 0.01701847 0.0268466 0.03101266 -0.11860334 -0.09901544 0.1272115 0.07812438
-0.018106246 0.14523369 -0.07262637 -0.057843152 -0.043551646 0.028093433 -0.041676708 0.058725838
0.09086101 -0.049887814 0.11869072 0.15507837 -0.05149589 -0.03025046 -4.7916023e-05 -0.07698882
-0.09298083 0.015315711 0.08696157 0.08847185 0.025668612 0.110376365 -0.039208557 -0.03933494
0.015452447 0.11878881 0.034585968 -0.016371556 -0.08409913 -0.077053316 0.035068423 0.034065016
-0.012270996 0.121978745 0.015651137 0.12864853 0.10385999 -0.0022063404 0.06925966 0.019457765
0.015547467 0.10070304 -0.09228491 -0.08600949 -0.10590856 0.12721021 0.016556937 -0.080322586
-0.04571588 -0.010905367 0.11176676 0.030647768 -0.05555164 -0.051350918 0.019802459 -0.051175658
-0.05137945 -0.022651294 -0.004638951 0.077262215 -0.004509235 0.11794389 -0.08287781 0.12411371
-0.011301866 -0.022730298 0.11612496 0.13849644 0.0015384632 0.035894968 0.094447166 0.01797163
-0.06120873 0.05314921 0.032452863 0.025750892 0.04135924 0.09479724 -0.018917708 0.046521615
-0.043283112 0.023985697 0.093212634 -0.017732676 -0.01944042 0.016458208 -0.08185082 0.050438873
0.10582368 -0.009231128 0.15467192 0.10884379 -0.037841856 -0.0043220744 -0.03459918 0.026899932
0.10018916 -0.03242374 -0.10256343 0.0005756107 0.14298563 -0.085200325 0.0061912434 0.03841002
0.15531567 -0.04011666 -0.09793738 0.12171048 -0.051965214 0.100962214 0.114936925 0.024096616
-0.05968205 -0.027703004 0.044139724 -0.02754745 -0.07586203 -0.0759646 -0.1227326 0.098980516
-0.06721488 0.14707874 0.114255704 -0.00046249706 0.010329988 -0.009581103 -0.07962816 -0.041250058
0.037021782 0.069245756 0.018122513 -0.026570652 -0.03651985 -0.092318796 -0.07410233 0.11746226
0.009362639 -0.037520602 0.02779219 0.11339877 -0.016514348 -0.049593043 0.061072603 0.071239226

model.4.bias f4 [64]
00000000: 6c98 5d3d e817 4ebd d16c 653c 2a86 c2bc
00000010: f03e 6f3d 675a d13c 5c5c 6b3d f953 273d
00000020: 25f1 bcbc c1ec 81bb 5cfa 38bd e323 e5bc
00000030: add4 adbc 4ccc 813c 6572 4ebd 3aa6 423d
00000040: b9ec d33a 7a7e 4c3d 9c22 023d e004 71bc
00000050: 8f01 3dbd 880e a73c ea62 eabc fda9 09bd
00000060: 6df0 1c3d 1572 ee3c e5fd 5fbd e92c 7f3b
00000070: 1e23 aebc f8c3 b9bc cf85 66bd 634f 633c
00000080: 861e 85bb 1c2b 203d 09d0 fcbc d14c febc
00000090: ed8e 44bd bdaf 0fbc d8c5 8f3c bd9e 0c3c
000000a0: a57f 8abc 4daa 44bd d00d f83c de29 0e3c
000000b0: bd4a 963c c46c 7cbd b9bd d53c 64e4 e83b
000000c0: 97c7 603c c256 56bd 7b2a 0abd bd23 1dbd
000000d0: 4250 5e3c a840 353d da6d 223d fa9b 653c
000000e0: 09f4 303b 2ac7 743d f5e1 2f3d 1f17 393d
000000f0: dc6f ea3c 3adc 013d 1e8c 663d 1f1b 8bbc
0.05410044 -0.050315768 0.014002995 -0.023745615 0.05840963 0.025555803 0.057461128 0.040851567
-0.023064205 -0.003964991 -0.045160636 -0.027971214 -0.021219576 0.015844487 -0.050402064 0.047521807
0.0016168571 0.049925305 0.031771287 -0.014710635 -0.046144065 0.020392671 -0.028611619 -0.03360938
0.038315225 0.029107133 -0.054685492 0.003893668 -0.02125698 -0.022676453 -0.056279954 0.013873908
-0.0040624766 0.039103612 -0.030860918 -0.031042488 -0.047987867 -0.008769927 0.017550394 0.008582768
-0.016906569 -0.048013974 0.030280024 0.008676974 0.018346185 -0.061627164 0.026091443 0.0071073044
0.013719461 -0.052328832 -0.03373192 -0.03836416 0.01356894 0.044251114 0.039655544 0.0140142385
0.0027000925 0.05976025 0.0429401 0.045188066 0.028617792 0.031704165 0.05628597 -0.016980706

model.5.weight f4 [64]
00000000: e476 8b3f 76b5 8f3f cfe0 7c3f 4813 7f3f
00000010: ff1d 8c3f 54f8 763f 0022 7c3f 7083 6e3f
00000020: 9422 7f3f 7f66 713f 0fcb 7b3f 20aa 8b3f
00000030: ba6e 6e3f 73aa 793f aacc 833f f915 6c3f
00000040: 4efb 723f e2d5 823f a9c9 633f 4993 903f
00000050: 98fb 843f 1147 6f3f be8a 7d3f aaee 6e3f
00000060: a4ee 863f c4ef 733f 5ce4 7c3f b46e 7a3f
00000070: 8dab 843f e8da 743f a005 873f 98c4 7f3f
00000080: ea00 733f ccc0 6a3f fa73 683f d9db 463f
00000090: c3f3 723f 3e85 883f 2ec0 713f f49f 903f
000000a0: ee60 763f 7d7e 703f b0a7 843f dc9e 813f
000000b0: 914e 6f3f 8b74 6f3f 2c6f 8b3f 58be 6c3f
000000c0: ba96 593f ec96 6d3f b976 5d3f 6b44 633f
000000d0: 7530 7b3f 5ce1 893f 4de3 8f3f 48eb 983f
000000e0: ebfe 883f b308 833f 1d3f 803f 7cb3 673f
000000f0: 6764 823f 4e1a 783f ede3 693f a354 7a3f
1.0895658 1.1227252 0.9878053 0.99638796 1.0946654 0.9647267 0.9848938 0.9316931
0.9966214 0.9429702 0.9835672 1.0911293 0.93137705 0.9752571 1.0296834 0.9222103
0.9491471 1.0221522 0.88979584 1.1294948 1.038928 0.93467814 0.9903983 0.9333292
1.0541577 0.9528773 0.9878595 0.9782517 1.0364853 0.95646524 1.0548592 0.99909353
0.9492327 0.91700435 0.90801966 0.7767921 0.949032 1.0665662 0.9443387 1.1298814
0.9624165 0.93943006 1.0363674 1.0126605 0.9347926 0.93537205 1.0893302 0.9247794
0.84995615 0.92808414 0.8650928 0.8877627 0.98120815 1.0771899 1.1241242 1.1946802
1.0702795 1.023703 1.0019261 0.90508246 1.018689 0.9691514 0.9136341 0.97785395

model.5.bias f4 [64]
00000000: 5110 50be e382 36be 5605 4bbe 704e 3b3c
00000010: 66a8 113d 8b9e 45bd 7210 d23c 8486 26bd
00000020: cac4 b4be 577a acbe 59c7 9bbe fd05 84bd
00000030: 9d73 643c 9866 9abe 50e8 e43d e598 d6bd
00000040: 0cb8 cabc 5908 83be ad32 fbbe 80a0 b1be
00000050: 2d0c e33c afca c83c 79ba 97be 61b9 c9bd
00000060: bd52 0fbe 56aa a4be ba3b 68be 8a10 1bbe
00000070: 4821 b4be 5683 cd3d 3311 4b3d caa7 99bc
00000080: ba04 1abd 33af acbe c18c 87bd 22f2 51be
00000090: 3039 88bb 31b6 4cbe 2319 98bd 1879 64bd
000000a0: 7ea0 bfbd 3913 1cbc 1d56 94bc c89a cc3c
000000b0: 1cfe 97bd a561 01bd 5618 afbe 128b 7fbe
000000c0: da54 23be 16a2 cbbd 2c07 03be b812 40be
000000d0: fe2b 67be 622b 79be c83c 16be 4ebc b8be
000000e0: 8b8e aa3c 7ce7 92be 8d3f 9bbe a04c cabd
000000f0: b770 28be e48e 99be c73a d7bd 7b39 c1bd
-0.20318724 -0.17823367 -0.19826254 0.011432275 0.035560988 -0.0482469 0.025642607 -0.040655628
-0.35306388 -0.33687088 -0.30425528 -0.06446455 0.01394358 -0.30156398 0.111771226 -0.10478381
-0.024745964 -0.25592306 -0.490621 -0.34692764 0.027715767 0.02451071 -0.29634455 -0.09849811
-0.13996406 -0.32161206 -0.22679034 -0.15143028 -0.35181642 0.10034816 0.04957695 -0.018756766
-0.037602164 -0.33727416 -0.066186436 -0.20502523 -0.004157208 -0.19991376 -0.074266694 -0.055779546
-0.09356783 -0.009526067 -0.018107468 0.02497615 -0.074215144 -0.03158726 -0.34198254 -0.24955395
-0.15950337 -0.09943025 -0.12795705 -0.1875714 -0.22575375 -0.24332955 -0.14671624 -0.36081165
0.020819923 -0.28692234 -0.30321923 -0.09877896 -0.16449247 -0.2999183 -0.10509258 -0.09434792

model.5.running_mean f4 [64]
00000000: d359 c83f 767f 7c3f f63b abbe d9d2 23bd
00000010: 3e3e 20bf a3ba 2ec0 c4f0 1e40 c25a a93f
00000020: 5a37 c53f 6df9 2b40 9f3b 9e3f fe2c b53b
00000030: 8432 3bbf 67f8 763f 689f dbbe 6efa 5abf
00000040: 8f6c 29bf e3d2 0340 2f7c 2f40 b1c9 2740
00000050: 0118 323f 2a5e 913e 0f79 2740 4617 ffbf
00000060: 9de0 3840 d0ad 913f 9568 2440 a15a 48c0
00000070: faed 3540 02b9 e73e 45d3 febe d4c8 89bf
00000080: 3ad0 f0bd 7f88 1abf c126 85bf 56f4 d1bf
00000090: e8d4 8bbf a441 e63f 1c07 b7bf e6cc 403d
000000a0: be2e 593f 84d1 643d 666b 20bf 3559 f3be
000000b0: 850e 85be 0c1e 8a3d 84b3 3f40 321b cd3f
000000c0: eee9 ac3d 2acf e6bf a60a 62be 4585 8dbf
000000d0: ec1a 883f fc48 393f e1db b03f 1b8d 8140
000000e0: 1525 19c0 5d04 b53f aa98 5c40 1d41 ce3f
000000f0: 72ab 83be 2494 583f f988 81bf bba3 24c0
1.5652412 0.9863199 -0.33444184 -0.039996002 -0.62594974 -2.7301414 2.4834452 1.3230822
1.5407517 2.6870987 1.2361945 0.005529045 -0.73123956 0.9647278 -0.42895055 -0.85538375
-0.6618127 2.0597465 2.7419546 2.6216853 0.6956788 0.28392154 2.6167638 -1.9928977
2.8887093 1.1381168 2.5688832 -3.1305315 2.84265 0.45258337 -0.4977056 -1.0764413
-0.11758466 -0.60364527 -1.0402452 -1.640269 -1.0924349 1.7988782 -1.4299045 0.047070406
0.8483695 0.055863872 -0.62663877 -0.47528997 -0.2598764 0.06744012 2.9953318 1.6023924
0.08443056 -1.8031971 -0.22074375 -1.1056296 1.0633216 0.7237699 1.3817102 4.048475
-2.3928883 1.4141957 3.4468179 1.6113621 -0.2571674 0.84601045 -1.0119926 -2.5724933
