saved_models/model2.pth (torch, 101794 bytes, 37 tensors)

model.0.weight f4 [256, 5]
0	0x3d7d4d7b	0.06184147
1	0x3e737c3d	0.23777862
2	0x3db952ef	0.090490215
3	0xbed8c72f	-0.42339465
4	0x3e6246e4	0.22097355
5	0x3ee0b4ef	0.4388804
6	0xbe6dc979	-0.23221387
7	0xbe8bcb5a	-0.27303582
8	0x3e3f3fd0	0.18676686
9	0x3d24cb36	0.04023286
10	0x3e221811	0.15829493
11	0x3ed587c1	0.41705135
12	0xbe84f101	-0.2596512
13	0x3e7e3e16	0.24828371
14	0x3e8559de	0.26045126
15	0xbe837176	-0.256725
16	0xbea6d806	-0.32586688
17	0x3eb0d7e0	0.345397
18	0xbe4fefd0	-0.20306325
19	0xbdd9cd5e	-0.10634874
20	0xbe278d66	-0.16362533
21	0x3ee87ea2	0.45409113
22	0xbc3c6bb3	-0.011500287
23	0xbe031652	-0.12801483
24	0x3e5ede14	0.21764404
25	0xbec8a975	-0.39191785
26	0x3e08f03b	0.1337289
27	0xbe2dca37	-0.1697167
28	0x3ecde17a	0.40211087
29	0xbddd6a65	-0.10811309
30	0xbdfac1cd	-0.12243996
31	0x3c288cc7	0.01028747
32	0x3e8013bd	0.2501506
33	0x3ecfc1cc	0.40577543
34	0xbda8b8d4	-0.08238378
35	0xbea5ca36	-0.32380837
36	0xbe26d027	-0.16290341
37	0xbe11dd46	-0.14244565
38	0xbe17ac5b	-0.14811842
39	0x3ecf66c2	0.40508085
40	0xbe494544	-0.19655329
41	0x3e36924c	0.17829245
42	0x3dbfef05	0.09371761
43	0xbeccad0b	-0.3997577
44	0x3f07ed35	0.53096324
45	0xbf08ceb7	-0.5344042
46	0x3e270712	0.16311291
47	0xbe059d63	-0.1304832
48	0xbeb7f1e9	-0.3592675
49	0xbe2ee7be	-0.1708059
50	0x3ea22967	0.31672212
51	0xbd83ac6e	-0.06429373
52	0xbec94f56	-0.3931834
53	0xbd6b02fb	-0.05737589
54	0xbe5cb37c	-0.21552843
55	0x3ebec4b3	0.37259445
56	0xbea92b51	-0.3304086
57	0x3eafc1b8	0.34327483
58	0xbdbbcd58	-0.091700256
59	0xbed7fb30	-0.42183828
60	0x3e0dbf61	0.13842537
61	0x3c2df821	0.010618241
62	0xbecfcb4e	-0.40584797
63	0xbea2445c	-0.3169278
64	0xbd9bbf5e	-0.0760486
65	0x3d5f51dd	0.05452143
66	0x3d1c832d	0.038211036
67	0x3e3fd9a8	0.18735373
68	0x3cc6f552	0.0242869
69	0xbeecfca4	-0.462865
70	0xbeb5f9cd	-0.35542145
71	0xbed91f75	-0.42406812
72	0xbee7c8d8	-0.4527042
73	0xbe1e5746	-0.1546298
74	0xbcf50628	-0.029910162
75	0xbe3734af	-0.17891191
76	0x3e9bb10c	0.30408514
77	0x3e1bc7cd	0.15212937
78	0xbe589603	-0.21150975
79	0x3e8c195b	0.27363095
80	0xbf00a926	-0.502581
81	0x3ddd4f1f	0.10806107
82	0xbe50ff3a	-0.20409861
83	0x3e87abd2	0.26498276
84	0x3d8dd847	0.06926017
85	0xbed0ae52	-0.40757996
86	0xbe61afb1	-0.22039677
87	0x3cef9e2c	0.029250227
88	0x3ef6ab08	0.4817736
89	0x3dc0601a	0.0939333
90	0x3ea5670d	0.32305184
91	0xbd528842	-0.051399477
92	0x3e8bbf1b	0.2729424
93	0xbd74ea9f	-0.059794065
94	0xbd2f3527	-0.0427753
95	0xbc76ee8e	-0.015071524
96	0x3e461f53	0.19347887
97	0xbceeb21f	-0.02913767
98	0xbeb63044	-0.355837
99	0xbe8b2bd3	-0.27181873
100	0xbe83711c	-0.25672233
101	0xbe7ec049	-0.24878038
102	0xbdf2b7f3	-0.11851492
103	0xbdb3d958	-0.087816894
104	0x3e797015	0.24359162
105	0x3e1d008f	0.15332244
106	0xbdf8aa0e	-0.1214181
107	0xbcfd73ae	-0.03093895
108	0x3f10b3dd	0.5652445
109	0x3eea18c6	0.45722026
110	0xbe96ce6f	-0.2945437
111	0x3e70f43a	0.23530665
112	0x3db03250	0.08603346
113	0x3e55ea0a	0.2089006
114	0x3ea99a9d	0.33125773
115	0x3eb156d1	0.34636548
116	0x3eb695f5	0.35661283
117	0x3cbbb4e6	0.022913408
118	0xbec65ea7	-0.3874409
119	0x3e8b4fa0	0.27209187
120	0x3ed1a001	0.40942386
121	0xbe5d21bb	-0.21594898
122	0x3e5570c0	0.20843792
123	0xbe7fb343	-0.24970727
124	0xbed54a6b	-0.4165834
125	0x3e4e7c4e	0.20164606
126	0xbec6897b	-0.38776764
127	0x3e8166e1	0.25273803
128	0x3e2e3de4	0.17015797
129	0x3e7e0eec	0.2481038
130	0x3e51d6aa	0.20492044
131	0xbeb31543	-0.3497716
132	0xbe9b1a8e	-0.30293697
133	0x3eeed8e5	0.46649852
134	0xbe23ef4d	-0.16009255
135	0x3e8f3fc8	0.2797835
136	0x3e5f33eb	0.21797149
137	0xbde8e517	-0.113718204
138	0x3efb7519	0.49112776
139	0x3f24b148	0.6433301
140	0xbe5ca4c3	-0.21547227
141	0xbb31d2fe	-0.0027133818
142	0xbe04e2ef	-0.12977193
143	0x3eab30a0	0.33435535
144	0xbe1db4d1	-0.15401007
145	0x3e91de8a	0.28490096
146	0x3e78500e	0.24249288
147	0x3e4cf02d	0.20013495
148	0xbe8c548d	-0.27408257
149	0x3e9a3c2d	0.30124035
150	0x3dfe8666	0.12427978
151	0xbd1f4d2f	-0.038891967
152	0x3efcf77c	0.49407566
153	0xbe0a0c72	-0.1348131
154	0xbe685edf	-0.2269244
155	0xbe6d0f7a	-0.23150435
156	0xbf072d66	-0.5280365
157	0x3e7ba020	0.24572802
158	0xbe47a6c6	-0.19497213
159	0xbd705648	-0.058676034
160	0xbebaf7ec	-0.36517274
161	0xbeb79b8a	-0.35860854
162	0x3ea73552	0.32657868
163	0x3ea660fb	0.32495865
164	0xbed9d45b	-0.42544827
165	0x3dc3faed	0.09569345
166	0xbebc7d98	-0.3681457
167	0x3ef2fab9	0.4745691
168	0x3e1ce0cc	0.15320128
169	0xbe1b7347	-0.15180694
170	0xbec875a9	-0.39152268
171	0x3ed3143f	0.41226384
172	0x3d6b4b15	0.05744465
173	0xbe3fb49e	-0.18721244
174	0x3cc897b4	0.0244864
175	0x3ac6e065	0.0015173076
176	0xbeda17de	-0.42596334
177	0x3d2134fd	0.039357174
178	0x3dc7dfdd	0.097594954
179	0x3de5faa5	0.11229447
180	0x3db242c4	0.08704141
181	0x3d0bf528	0.034169346
182	0x3e45057d	0.19240375
183	0xbe92c57f	-0.28666303
184	0x3f1e9c02	0.619568
185	0xbd86a861	-0.065750845
186	0x3d5a498b	0.053292792
187	0x3dc2a75b	0.09504577
188	0x3eb0e835	0.3455216
189	0x3ed013a5	0.40639988
190	0xbe0f74ef	-0.1400945
191	0x3e33023f	0.17481326
192	0x3c17d3ff	0.009266852
193	0x3e72ca6c	0.2371003
194	0xbeb61275	-0.35560957
195	0x3ed38465	0.41311947
196	0xbd789938	-0.060692996
197	0xbeaad687	-0.33366796
198	0x3e90b731	0.28264764
199	0xbe6acae6	-0.22928962
200	0x3efb1c46	0.49045008
201	0xbe9c8b6e	-0.30575126
202	0x3e277635	0.16353686
203	0x3e147a5c	0.14499801
204	0x3f0b7d71	0.54488283
205	0xbeb18672	-0.34672886
206	0xbe4f5a4f	-0.20249294
207	0x3e20ad03	0.15690999
208	0x3e82929b	0.25502476
209	0xbe4154aa	-0.18879953
210	0xbd98eb6a	-0.07466777
211	0x3e26ef29	0.1630217
212	0x3e0d0e63	0.1377502
213	0x3eaf9d64	0.34299767
214	0x3dcef879	0.10105986
215	0x3e259daf	0.16173433
216	0xbeb4f2c2	-0.3534146
217	0xbec1a9e7	-0.37824938
218	0xbea19d89	-0.31565502
219	0xbea3009e	-0.31836408
220	0xbccc8449	-0.024965422
221	0x3ed077dd	0.40716448
222	0xbc4d3223	-0.012524161
223	0xbe6a471e	-0.22878692
224	0xbe8978d0	-0.26849985
225	0xbdb40177	-0.08789342
226	0xbebda043	-0.37036332
227	0x3ef16a83	0.47151574
228	0xbe4cb18d	-0.19989605
229	0x3d1642f7	0.036684956
230	0xbe8e8217	-0.27833626
231	0xbe4704bc	-0.194354
232	0x3eaf592e	0.34247726
233	0x3cd72ed6	0.02626745
234	0xbe21e34b	-0.15809362
235	0x3ec14a29	0.37751892
236	0xbc00e0ff	-0.007866143
237	0x3eff2028	0.4982922
238	0xbe0c540f	-0.13703941
239	0xbd20d505	-0.03926565
240	0x3e6b74e2	0.22993806
241	0x3cff58d4	0.031170286
242	0x3e106927	0.14102612
243	0xbe2de8aa	-0.16983286
244	0xbe59c521	-0.21266605
245	0x3dac907f	0.08425998
246	0xbec4d415	-0.38443056
247	0x3df08b66	0.11745338
248	0x3e85de4c	0.26146162
249	0xbeb558e2	-0.35419375
250	0x3e2ef3c6	0.1708518
251	0x3eb16f81	0.34655383
252	0xbda29a0e	-0.0793954
253	0x3eaaeeba	0.3338526
254	0xbecccad5	-0.399985
255	0xbe909290	-0.28236818

model.0.bias f4 [256]
0	0x3da06b39	0.07832951
1	0xbe832cbd	-0.2562007
2	0xbe317118	-0.17328298
3	0xbea9a830	-0.3313613
4	0xbe0f05bb	-0.1396703
5	0xbe1f9d86	-0.15587434
6	0x3ed199c8	0.40937638
7	0x3e51f33e	0.20502946
8	0xbcf5034f	-0.029908804
9	0x3dcb3ffc	0.099243134
10	0xbcb23bc8	-0.021757022
11	0x3dd439ec	0.1036261
12	0xbe7abb6f	-0.24485563
13	0x3e0d7fc8	0.13818276
14	0xbeade3c9	-0.3396285
15	0xbeb59561	-0.3546553
16	0x3ec09417	0.37612984
17	0xbd869248	-0.0657087
18	0x3e033f27	0.1281706
19	0x3ec5a334	0.38601077
20	0xbe07113b	-0.13190167
21	0xbee0faf5	-0.43941465
22	0x3e268cf0	0.16264701
23	0x3e08f317	0.13373981
24	0x3e498f1e	0.19683501
25	0xbe53b599	-0.20674743
26	0xbc7480b2	-0.0149232615
27	0x3ed3fbac	0.41402948
28	0xbe4560d4	-0.19275218
29	0x3e6c6fdc	0.23089546
30	0x3e6d2c08	0.23161328
31	0x3e97cd13	0.29648647
32	0x3e0bb63a	0.13643733
33	0xbe818f5e	-0.25304693
34	0xbe73b96d	-0.23801203
35	0xbe764f61	-0.24053718
36	0x3e3b9a61	0.1832061
37	0x3e87e591	0.26542333
38	0x3e8c9a4e	0.27461475
39	0x3c73cec4	0.01488084
40	0x3dd49ef3	0.1038188
41	0xbe503cc7	-0.20335685
42	0xbebcfe45	-0.36912742
43	0xbca9e77c	-0.020740263
44	0xbe36cd58	-0.1785177
45	0x3e28ac4f	0.1647198
46	0x3eab14aa	0.33414203
47	0x3e350127	0.17676221
48	0x3e6ef00d	0.2333376
49	0xbc98e12f	-0.018662063
50	0x3de45b1a	0.11150189
51	0xbeac08a5	-0.33600345
52	0xbd873935	-0.06602708
53	0xbe5b5362	-0.21418527
54	0x3e9971ea	0.29969722
55	0x3ede3ecf	0.43407294
56	0x3ede82a6	0.43459052
57	0x3e428762	0.18996957
58	0x3e80a8ac	0.25128686
59	0x3e8ceff5	0.27526823
60	0xbb01532b	-0.001973341
61	0xbec67261	-0.3875914
62	0x3e979e26	0.29612845
63	0xbe7bd0cd	-0.2459137
64	0x3e569420	0.20954943
65	0xbed94f35	-0.42443243
66	0x3db7aeb2	0.08968867
67	0xbe11a1a4	-0.14221817
68	0x3bc985f1	0.0061500003
69	0xbe5bc4e4	-0.21461827
70	0x3def7680	0.11692524
71	0x3eba1968	0.36347508
72	0xbe9cf442	-0.30655104
73	0x3d390083	0.045166504
74	0xbe5eb412	-0.21748379
75	0x3d9e25c9	0.07722051
76	0xbecac7a1	-0.3960543
77	0xbd2e34a3	-0.042530667
78	0xbe8f752a	-0.28019077
79	0xbe67ef93	-0.22649984
80	0x3cf717dd	0.030162746
81	0xbe6139d4	-0.21994716
82	0x3e57c68e	0.21071836
83	0xbe2ff051	-0.17181517
84	0xbe562e15	-0.20916016
85	0xbed83c93	-0.42233714
86	0xbea4451f	-0.32083985
87	0x3e130181	0.14356042
88	0xbe27dcad	-0.16392775
89	0xbdb63d5c	-0.08898422
90	0xbe98e3a5	-0.2986118
91	0xbe8b670d	-0.2722706
92	0xbe5218cb	-0.2051727
93	0x3d374ff2	0.044753976
94	0xbe4cebf7	-0.20011888
95	0x3eca320f	0.39491317
96	0xbd836222	-0.06415202
97	0xbeb2872f	-0.34868762
98	0xbe86f2d2	-0.26357132
99	0x3ebd508f	0.36975524
100	0xbea6880d	-0.32525674
101	0x3ecc7626	0.3993389
102	0x3e85d081	0.26135638
103	0xbdcb1c9c	-0.09917566
104	0xbd93bceb	-0.072137676
105	0xbe22e230	-0.15906596
106	0xbe944dbb	-0.28965554
107	0xbea6c38f	-0.32571074
108	0x3e0e51a2	0.13898328
109	0xbe31f943	-0.17380242
110	0x3e21ee64	0.15813595
111	0x3ea9ecc1	0.3318844
112	0xbd540408	-0.051761657
113	0xbc1cc5ba	-0.009568626
114	0x3ecf01c3	0.40431032
115	0x3c5786f5	0.013154735
116	0xbe53d582	-0.20686916
117	0x3c727f2c	0.014800828
118	0xbe43dd2e	-0.19127342
119	0x3e9c8adc	0.3057469
120	0x3e0cbcf6	0.13743958
121	0x3e0e014d	0.13867684
122	0x3e8348c7	0.25641462
123	0xbe9bcc10	-0.30429125
124	0xbd322368	-0.043490797
125	0xbe9274ad	-0.28604642
126	0xbec1eec8	-0.37877488
127	0xbd9c46ea	-0.07630713
128	0x3ecf96f3	0.40544853
129	0x3e9c5c44	0.30539143
130	0x3e0afef5	0.13573821
131	0x3e7d2f72	0.2472513
132	0xbebd1d78	-0.36936545
133	0x3edbf428	0.42959714
134	0x398407d9	0.0002518285
135	0x3d64edb3	0.05589075
136	0x3e70c57b	0.23512833
137	0xbec7426b	-0.3891786
138	0x3eac5812	0.33660942
139	0xbd95e3b1	-0.07318819
140	0xbe92bf18	-0.28661418
141	0x3d653689	0.055960212
142	0x3d3b05bf	0.045659777
143	0x3dd9bf3c	0.10632178
144	0xbdfcdfc7	-0.1234737
145	0xbe74844f	-0.23878597
146	0xbd666ddd	-0.056257118
147	0x3dd7116e	0.10501371
148	0x3e5258db	0.20541708
149	0xbdb1bba7	-0.0867837
150	0xbea96ff2	-0.3309322
151	0xbc840623	-0.016116207
152	0x3e232062	0.15930322
153	0xbde774d3	-0.11301579
154	0x3e70bafc	0.23508829
155	0xbee2cbf7	-0.44296238
156	0x3ec64b02	0.387291
157	0x3d5ae457	0.053440418
158	0xbe273f00	-0.16332626
159	0x3ede139f	0.43374345
160	0x3e902d04	0.28159344
161	0x3d3505f9	0.04419515
162	0xbe5ae0d8	-0.21374834
163	0x3e098ab1	0.13431813
164	0x3ed90854	0.42389166
165	0x3e58ddbf	0.2117834
166	0xbe570e48	-0.21001542
167	0xbd141f42	-0.036162622
168	0xbed1038a	-0.40823013
169	0xbeacb21e	-0.33729643
170	0x3e841d55	0.2580363
171	0xbe8324c0	-0.25613976
172	0x3d0fdf6a	0.035125174
173	0xbea48121	-0.32129768
174	0xbdda8c78	-0.106713235
175	0x3d39144e	0.04518538
176	0x3e1f0311	0.15528513
177	0xbecb69e2	-0.3972922
178	0x3eb38f46	0.35070246
179	0x3e8b609d	0.27222148
180	0xbe9dca9f	-0.3081865
181	0xbe137c28	-0.1440283
182	0xbd1ab152	-0.037766762
183	0xbe4b69c7	-0.1986457
184	0x3dc50d6f	0.09621703
185	0x3e5c1285	0.2149144
186	0x3e5bde17	0.2147144
187	0xbebeb73f	-0.3724918
188	0xbe945aa2	-0.28975397
189	0xbea1f483	-0.3163186
190	0xbe99acd3	-0.30014667
191	0x3edf2a12	0.43586785
192	0x3de5ee3f	0.112270825
193	0x3d04d163	0.03242625
194	0x3e629183	0.22125821
195	0xbdd5c98b	-0.10438832
196	0xbcb4b5fd	-0.022059435
197	0xbe80ea39	-0.25178698
198	0x3e3a9fcc	0.1822502
199	0xbec4857d	-0.38383093
200	0x3d0738d9	0.0330132
201	0x3def082c	0.116714805
202	0x3c5ca3ef	0.013466819
203	0x3e9a65a1	0.30155662
204	0xbe9d64a3	-0.30740842
205	0x3e0e68d5	0.13907178
206	0x3e9bda19	0.30439833
207	0xbe1e3382	-0.15449336
208	0xbe46bf66	-0.1940895
209	0xbedd3b4b	-0.432093
210	0xbe441f52	-0.19152573
211	0xbbb935d3	-0.0056521683
212	0xbe9081f7	-0.28224155
213	0x3e419872	0.1890581
214	0xbe6b1444	-0.2295695
215	0x3e893938	0.26801467
216	0x3dc01123	0.093782686
217	0x3ec38ba5	0.38192478
218	0x3edcc358	0.43117785
219	0xbdb9611a	-0.09051724
220	0x3dd6c9b8	0.104876935
221	0x3eb6a5ff	0.3567352
222	0x3dc759c8	0.09733921
223	0x3e8ac093	0.27100047
224	0xbed29a4e	-0.4113335
225	0xbebc6d39	-0.3680208
226	0xbed3cdeb	-0.4136804
227	0x3eb73959	0.3578594
228	0x3e767ab8	0.24070251
229	0x3e58ccf0	0.21171927
230	0x3e362370	0.17786956
231	0xbea9134c	-0.33022535
232	0xbe9bc207	-0.3042147
233	0xbd4481d1	-0.047975365
234	0x3def2218	0.11676425
235	0x3e56931d	0.20954557
236	0xbea5e642	-0.32402235
237	0xbe09f9d5	-0.1347421
238	0x3da0aa76	0.07845013
239	0xbd803474	-0.06260005
240	0x3e531212	0.20612362
241	0xbe1cbfd7	-0.15307556
242	0x3e9e8f8b	0.3096889
243	0xbddbc158	-0.10730237
244	0x3eb4217d	0.351818
245	0xbec08e47	-0.3760855
246	0x3dfa8bc2	0.12233688
247	0xbde0951f	-0.109659426
248	0x3e099edb	0.13439505
249	0xbeaf7885	-0.34271637
250	0xbe4a7507	-0.19771205
251	0xbe2d09ff	-0.16898344
252	0x3e6cffda	0.23144475
253	0xbd3dd2d7	-0.04634365
254	0xbe1a0635	-0.1504143
255	0x3e924ff0	0.28576612

model.1.weight f4 [256]
0	0x3f6fc8d2	0.936658
1	0x3f850c27	1.0394334
2	0x3f89f1ba	1.0776894
3	0x3f6cf1aa	0.9255625
4	0x3f861208	1.0474253
5	0x3f721a9c	0.9457185
6	0x3f7fae23	0.99875087
7	0x3f694c40	0.91131973
8	0x3f83e0f5	1.0303026
9	0x3f83f25e	1.030834
10	0x3f81d77c	1.0143886
11	0x3f83c549	1.0294582
12	0x3f88eb81	1.069687
13	0x3f847b70	1.035017
14	0x3f734c62	0.95038426
15	0x3f8c1cf1	1.0946332
16	0x3f82db5b	1.0223192
17	0x3f7287ff	0.94738764
18	0x3f7ec76c	0.99523044
19	0x3f81426d	1.0098397
20	0x3f800422	1.0001261
21	0x3f6aa516	0.9165815
22	0x3f89db02	1.0769961
23	0x3f63506d	0.88794595
24	0x3f63aa4d	0.88931733
25	0x3f83c865	1.029553
26	0x3f839099	1.0278503
27	0x3f794b35	0.9738038
28	0x3f696b0f	0.91178983
29	0x3f81a361	1.0127984
30	0x3f839378	1.0279379
31	0x3f6fe0b5	0.9370225
32	0x3f6514b7	0.89484733
33	0x3f6f48fa	0.9347073
34	0x3f887122	1.0659525
35	0x3f6d48c6	0.9268917
36	0x3f93d040	1.1547928
37	0x3f8a57a1	1.0807992
38	0x3f82c75a	1.0217087
39	0x3f86ed1c	1.054111
40	0x3f8f86c7	1.1213006
41	0x3f4354b0	0.763011
42	0x3f856db8	1.0424109
43	0x3f80e8d2	1.0071051
44	0x3f7ed668	0.9954591
45	0x3f858ac1	1.0432969
46	0x3f156348	0.58354616
47	0x3f6cbe84	0.92478204
48	0x3f64f67c	0.89438605
49	0x3f83b5e7	1.0289887
50	0x3f80f4b4	1.0074677
51	0x3f733c82	0.950142
52	0x3f630a85	0.88687927
53	0x3f81688c	1.011003
54	0x3f885ef2	1.0653975
55	0x3f818fd7	1.0122021
56	0x3f856c9a	1.0423768
57	0x3f67b415	0.9050916
58	0x3f84b536	1.0367801
59	0x3f8d0408	1.1016855
60	0x3f923b12	1.1424277
61	0x3f923543	1.1422504
62	0x3f7c5aa1	0.9857579
63	0x3f86ee2e	1.0541437
64	0x3f84b7fa	1.0368645
65	0x3f81ae16	1.0131252
66	0x3f997d3f	1.1991347
67	0x3f723dfb	0.94625825
68	0x3f882406	1.0635993
69	0x3f840551	1.0314122
70	0x3f795c71	0.9740668
71	0x3f87e1aa	1.0615742
72	0x3f6e3bf5	0.9306024
73	0x3f451b16	0.76994455
74	0x3f7dae41	0.99094015
75	0x3f8562fd	1.0420834
76	0x3f8703a9	1.0547992
77	0x3f84477c	1.0334315
78	0x3f8dbc55	1.1073099
79	0x3f88bbf4	1.0682359
80	0x3f6cef56	0.925527
81	0x3f86ef55	1.0541788
82	0x3f7430e6	0.95387113
83	0x3f7ba0e1	0.98292357
84	0x3f855145	1.0415426
85	0x3f7f0bda	0.9962746
86	0x3f74af2d	0.955798
87	0x3f7ed29a	0.995401
88	0x3f724b4f	0.9464616
89	0x3f592d02	0.848343
90	0x3f7c1731	0.9847289
91	0x3f75934e	0.95927894
92	0x3f81d893	1.0144218
93	0x3f74c216	0.9560865
94	0x3f631724	0.88707185
95	0x3f857524	1.0426373
96	0x3f9f8ade	1.2464254
97	0x3f976564	1.1827817
98	0x3f6f7e93	0.9355251
99	0x3f4cd4ec	0.80012393
100	0x3f862c8f	1.0482348
101	0x3f88ebfa	1.0697014
102	0x3f659ad6	0.89689386
103	0x3f73e0d0	0.9526491
104	0x3f6c1494	0.922189
105	0x3f7aedd1	0.9801913
106	0x3f68aaaa	0.9088541
107	0x3f8fd9c8	1.1238337
108	0x3f870544	1.0548482
109	0x3f8922ea	1.071378
110	0x3f8613b4	1.0474763
111	0x3f84efc6	1.0385673
112	0x3f714a8a	0.9425436
113	0x3f77e6dd	0.96836644
114	0x3f8375e5	1.0270354
115	0x3f85b110	1.044466
116	0x3f6e343e	0.93048465
117	0x3f7980d1	0.97462183
118	0x3f743026	0.9538597
119	0x3f88784a	1.0661709
120	0x3f7fd39c	0.99932265
121	0x3f786de2	0.9704267
122	0x3f6ff1b7	0.937282
123	0x3f83eb5e	1.0306203
124	0x3f6d3c15	0.926698
125	0x3f7b6094	0.9819424
126	0x3f7e6557	0.9937338
127	0x3f8b1ef9	1.0868827
128	0x3f834966	1.0256774
129	0x3f691364	0.9104521
130	0x3f709a6e	0.9398564
131	0x3f879f48	1.0595484
132	0x3f795940	0.9740181
133	0x3f78bca7	0.9716286
134	0x3f6e2c65	0.9303649
135	0x3f86c3d1	1.0528508
136	0x3f821b10	1.0164509
137	0x3f7910ed	0.9729145
138	0x3f7d2be4	0.98895097
139	0x3f872263	1.0557369
140	0x3f881a1f	1.0632972
141	0x3f7c3624	0.9852011
142	0x3f84bc74	1.0370011
143	0x3f824e61	1.0180169
144	0x3f42a017	0.7602553
145	0x3f748015	0.9550794
146	0x3f4b38ca	0.7938353
147	0x3f9037c2	1.1267016
148	0x3f87a175	1.0596148
149	0x3f853d32	1.04093
150	0x3f856ace	1.0423219
151	0x3f875389	1.0572368
152	0x3f7220f4	0.9458153
153	0x3f91f393	1.1402458
154	0x3f74cd1e	0.95625484
155	0x3f661fdf	0.8989238
156	0x3f8b9c6e	1.0907114
157	0x3f83370a	1.0251172
158	0x3f8ad069	1.0844852
159	0x3f850be3	1.0394253
160	0x3f85eee2	1.0463526
161	0x3f89220f	1.0713519
162	0x3f8b8eca	1.0902951
163	0x3f83692d	1.0266472
164	0x3f901fdb	1.1259722
165	0x3f868fc5	1.0512625
166	0x3f86fe4f	1.0546359
167	0x3f7b4b7f	0.9816207
168	0x3f635b30	0.88811016
169	0x3f8759a9	1.0574237
170	0x3f859302	1.0435488
171	0x3f6deef1	0.9294272
172	0x3f7414d4	0.9534428
173	0x3f7e3ad0	0.9930849
174	0x3f83bd03	1.0292057
175	0x3f64bae8	0.89347696
176	0x3f6ab351	0.91679865
177	0x3f85d536	1.0455692
178	0x3f8aa464	1.0831418
179	0x3f6c655c	0.9234216
180	0x3f8b6a09	1.0891734
181	0x3f8be64a	1.0929654
182	0x3f66eb1f	0.90202516
183	0x3f6eaeec	0.9323566
184	0x3f71510e	0.94264305
185	0x3f83b68c	1.0290084
186	0x3f7f1e7f	0.9965591
187	0x3f7d6aa8	0.9899087
188	0x3f8250a8	1.0180864
189	0x3f860791	1.0471059
190	0x3f830449	1.0235683
191	0x3f74343d	0.9539221
192	0x3f8a80a8	1.0820513
193	0x3f871b6d	1.0555245
194	0x3f76d675	0.96420985
195	0x3f72e98a	0.948876
196	0x3f820a60	1.0159416
197	0x3f769d79	0.96334034
198	0x3f735479	0.9505077
199	0x3f6e57d1	0.9310275
200	0x3f70d673	0.94077224
201	0x3f74cdc7	0.9562649
202	0x3f861bdc	1.0477252
203	0x3f927cb4	1.1444306
204	0x3f8a0496	1.078265
205	0x3f9050d0	1.1274662
206	0x3f8ef033	1.1167053
207	0x3f88c666	1.0685546
208	0x3f8118c6	1.0085685
209	0x3f907304	1.12851
210	0x3f92a4fa	1.1456597
211	0x3f679dde	0.9047526
212	0x3f7f826b	0.9980838
213	0x3f71141a	0.941713
214	0x3f87d834	1.0612855
215	0x3f7180f0	0.9433737
216	0x3f6f4d1d	0.9347704
217	0x3f5f6feb	0.8728015
218	0x3f71ead8	0.9449897
219	0x3f7ebb4a	0.9950453
220	0x3f71f910	0.94520664
221	0x3f860a76	1.0471942
222	0x3f712ecf	0.9421205
223	0x3f67628b	0.9038474
224	0x3f737713	0.9510357
225	0x3f880aba	1.0628273
226	0x3f8610aa	1.0473835
227	0x3f7c47b6	0.9854692
228	0x3f88f4a6	1.0699661
229	0x3f6214a9	0.88312775
230	0x3f759a43	0.9593851
231	0x3f725e18	0.94674826
232	0x3f9422c6	1.1573112
233	0x3f67db21	0.9056874
234	0x3f857078	1.0424948
235	0x3f865777	1.0495442
236	0x3f86786c	1.05055
237	0x3f6e1ee3	0.9301588
238	0x3f71eb18	0.9449935
239	0x3f801537	1.0006474
240	0x3f86d541	1.053383
241	0x3f892e6a	1.071729
242	0x3f442a52	0.76627076
243	0x3f878bf1	1.0589582
244	0x3f89146a	1.0709355
245	0x3f788cbd	0.9708975
246	0x3f6dd4e4	0.9290297
247	0x3f790caf	0.9728498
248	0x3f68dd36	0.9096254
249	0x3f849d75	1.0360552
250	0x3f84efad	1.0385643
251	0x3f848760	1.0353813
252	0x3f7250b1	0.94654375
253	0x3f83b533	1.0289673
254	0x3f5126b2	0.8169967
255	0x3f62800b	0.8847663

model.1.bias f4 [256]
0	0xbd81fdee	-0.06347261
1	0x3c46de24	0.012137923
2	0xbcfe8298	-0.031068131
3	0xbd154562	-0.03644312
4	0xbdb56679	-0.08857436
5	0xbd4c0f4d	-0.04981928
6	0xbda1f3af	-0.07907807
7	0xbd834ba8	-0.06410915
8	0xbc5b3174	-0.01337849
9	0xbdaa197a	-0.083056405
10	0xbdb68c75	-0.08913509
11	0x3d868b52	0.06569542
12	0x3cba545e	0.022745308
13	0x3d84e4ba	0.06488939
14	0xbdb1258d	-0.0864974
15	0x3d763c85	0.06011631
16	0xbb004196	-0.0019570342
17	0x3d01658b	0.03159098
18	0xbd3505ad	-0.044194866
19	0x3ca7e76f	0.020496098
20	0xbea3d81b	-0.32000813
21	0xbe543b0d	-0.20725651
22	0x3bbc26e4	0.005741941
23	0x3da9ee8b	0.082974516
24	0xbdcb0d5b	-0.09914657
25	0xbd8c7fdb	-0.06860324
26	0xbd2b7708	-0.041861564
27	0xbe045f88	-0.12927067
28	0xbd65d8b3	-0.056114864
29	0x3d65d97a	0.056115605
30	0x3c537dd4	0.012908418
31	0xbd8da338	-0.06915897
32	0x3c24b8ec	0.010053854
33	0xbdbc5193	-0.091952465
34	0xbcf33ad0	-0.02969113
35	0xbdd0beaa	-0.10192616
36	0x3ca5d823	0.020244664
37	0x3c97ca92	0.01852921
38	0xbdc46dca	-0.09591253
39	0x3d3a998d	0.045556594
40	0xbe93f9de	-0.2890157
41	0xbda3b928	-0.079943
42	0xbe3ffc79	-0.18748654
43	0xbe7b6f8d	-0.24554272
44	0xbd5020ab	-0.050812405
45	0xbc15b24b	-0.009136747
46	0xbe263818	-0.16232336
47	0xbda1f8b2	-0.07908763
48	0xbd19e2d1	-0.037569825
49	0xbd113144	-0.035447374
50	0x3d6fd95e	0.058556907
51	0xbd0862dc	-0.033297405
52	0xbe1757ee	-0.14779636
53	0xbe3c6fdd	-0.18402047
54	0x3c8b978a	0.017040033
55	0xbe473c43	-0.19456582
56	0x3d630116	0.055420958
57	0xbde14ec1	-0.11001349
58	0xbc2ef1c2	-0.010677757
59	0xbe1252d2	-0.14289406
60	0xbdd90869	-0.10597307
61	0xbe11a2be	-0.14222237
62	0xbd48f002	-0.049057014
63	0xbe2fda74	-0.17173177
64	0xbdf8d920	-0.12150788
65	0xbd9fa7f9	-0.0779571
66	0x3e4594c8	0.19295037
67	0x3e7949af	0.24344514
68	0x3d1a9311	0.03773791
69	0x3d2a939a	0.04164467
70	0xbc8ff277	-0.017571671
71	0x3d43cffb	0.047805768
72	0xbd902583	-0.07038405
73	0xbe0fe240	-0.14051151
74	0x3d4e96d0	0.050436795
75	0x3c12871d	0.008943346
76	0x3d43f8a5	0.047844548
77	0x3e059608	0.13045514
78	0xbc533023	-0.012889895
79	0x3d84770e	0.064680204
80	0xbd91dd5d	-0.071223
81	0x3d15971e	0.03652107
82	0x3e8473c0	0.2586956
83	0x3c82766e	0.015925612
84	0xbd8ad8d0	-0.06779635
85	0x3d2c7751	0.042105976
86	0xbccb9c79	-0.024854885
87	0x3d040a48	0.032236367
88	0xbd144d60	-0.036206603
89	0xbcb2745e	-0.021784004
90	0xbba8c2ae	-0.0051501608
91	0xbe02736e	-0.12739345
92	0x3c661a21	0.014044316
93	0x3d53f337	0.05174562
94	0x3cc2f2fe	0.023797508
95	0xbe6535eb	-0.2238385
96	0xbde2480f	-0.110489
97	0x3d8a26c5	0.06745676
98	0xbd62cf9d	-0.055373777
99	0xbe490ecb	-0.1963455
100	0xbe8f8ba1	-0.28036216
101	0x3d070b4b	0.032969754
102	0xbd8057f2	-0.06266774
103	0xbe558539	-0.20851602
104	0xbdc600a5	-0.09668092
105	0xbd300551	-0.04297382
106	0xbd823aa4	-0.06358841
107	0xbe832c62	-0.256198
108	0x3d27836b	0.040896814
109	0xbd0aaf56	-0.03385862
110	0x3aea8f6c	0.0017895526
111	0xbc8518cc	-0.016247176
112	0xbdb58d90	-0.088648915
113	0xbd90361f	-0.07041573
114	0xbeba6507	-0.36405203
115	0xbd49cbed	-0.049266744
116	0xbdfdd565	-0.123942174
117	0xbd27fbb8	-0.041011542
118	0xbe6d1d6e	-0.23155758
119	0x3dd096b6	0.10184996
120	0x3c56d811	0.013113038
121	0xbd7fe669	-0.062475596
122	0xbe2aad90	-0.16667771
123	0x3a872d32	0.0010313152
124	0xbdb29375	-0.087195314
125	0xbc576b45	-0.013148134
126	0xbdf046cd	-0.11732254
127	0xbdea50d0	-0.11441195
128	0x3dcf5589	0.101237364
129	0xbe1e2956	-0.15445456
130	0xbe98c401	-0.2983704
131	0xbe315e81	-0.17321207
132	0xbd735b22	-0.059413083
133	0x3d2dd682	0.0424409
134	0xbda72c30	-0.08162725
135	0x3cbf4a70	0.023350924
136	0xbea814b8	-0.32828307
137	0xbdf0daee	-0.117605075
138	0xbb20f734	-0.0024561407
139	0xbd80e842	-0.062943
140	0x3dc99daa	0.09844525
141	0xbca56acb	-0.020192524
142	0x3d94c2f2	0.07263745
143	0xbe06cfcf	-0.1316521
144	0xbda9703d	-0.08273361
145	0xbd5a5917	-0.05330762
146	0xbddcb95c	-0.10777542
147	0x3e1cbad6	0.15305647
148	0x3d1b59b5	0.03792735
149	0x3d1903f7	0.037357297
150	0x3d4ca935	0.049966056
151	0x3cd17274	0.02556727
152	0x3e24fe2f	0.16112588
153	0x3d857ff5	0.065185465
154	0xbddac776	-0.106825754
155	0xbde67376	-0.11252491
156	0xbcc7dcc5	-0.024397263
157	0xbe08c48d	-0.13356228
158	0x3d50ebe1	0.0510062
159	0xbe71312e	-0.23553917
160	0x3b0689c3	0.002052889
161	0x3b27ba29	0.0025593138
162	0xbe95d8b5	-0.29266897
163	0x3d93eed4	0.07223287
164	0x3c58c7b3	0.013231206
165	0xba3db6d4	-0.00072370213
166	0x3d722faa	0.059127487
167	0x3d5d8b80	0.054088116
168	0xbdbbbba2	-0.091666475
169	0x3e1c0aa0	0.15238428
170	0x3cd9b586	0.026575815
171	0xbcac234a	-0.02101292
172	0xbd9335e5	-0.07188014
173	0xbe03847c	-0.12843508
174	0xbd852803	-0.06501772
175	0xbe900993	-0.28132305
176	0xbdd30c85	-0.10305122
177	0x3d082452	0.033237763
178	0xbe1e4857	-0.15457283
179	0xbde2cd84	-0.11074355
180	0xbdb182e4	-0.086675435
181	0xbe2687d9	-0.1626276
182	0xbd4772ae	-0.04869335
183	0xbde13215	-0.109958805
184	0xbde67b87	-0.1125403
185	0x3d3c60a7	0.045990612
186	0xbe0cc69d	-0.1374764
187	0xbd750fe7	-0.05982962
188	0xbe12f2df	-0.1435046
189	0xbe8a9034	-0.27063143
190	0xbc0c7ee2	-0.008575173
191	0xbe4efe5b	-0.20214216
192	0xbdaea224	-0.085270196
193	0x3dbc24ce	0.091867074
194	0xbd979a4c	-0.07402477
195	0x3df180c1	0.11792136
196	0x3c6357cb	0.013875912
197	0xbd0d0c14	-0.034435347
198	0xbe299c61	-0.1656356
199	0xbdf05602	-0.11735155
200	0xbe1f18c4	-0.15536791
201	0xbd1e85ca	-0.03870181
202	0x3d5557de	0.05208575
203	0xbc88e49f	-0.016710578
204	0x3cfa8e87	0.03058554
205	0x3d3d26aa	0.04617945
206	0xbe572b3f	-0.21012591
207	0x3d815b65	0.0631626
208	0xbe92060e	-0.28520244
209	0x3d5b4145	0.053529043
210	0x3c883826	0.016628336
211	0xbdf88da6	-0.12136392
212	0x3dd7a226	0.10528974
213	0xbdb253f6	-0.087074205
214	0xbca43946	-0.020046841
215	0xbd9ceec7	-0.07662731
216	0xbdfe0d52	-0.124048844
217	0xbda319ba	-0.07963891
218	0xbd9117da	-0.070846274
219	0x3d53ca95	0.05170687
220	0xbdd54334	-0.104132086
221	0xbe4d87ef	-0.20071386
222	0xbce691d2	-0.028145704
223	0x3d8b1dfd	0.06792829
224	0xbe6094f9	-0.21931829
225	0x3dc2393c	0.09483573
226	0x3d5f3b28	0.054499775
227	0xbd3af756	-0.045646034
228	0x3c9bb301	0.019006254
229	0xbd9e5bd8	-0.077323616
230	0xbda1bdbf	-0.07897519
231	0xbcfbb1e1	-0.030724468
232	0x3d932918	0.071855724
233	0xbea25ad1	-0.31709912
234	0x3d2da508	0.042393714
235	0xbe14ebfe	-0.14543149
236	0xbcc2e0f3	-0.023788905
237	0xbc4366d4	-0.011926372
238	0xbe61f84a	-0.22067371
239	0xbe14d076	-0.14532647
240	0x3c3e802a	0.011627236
241	0x3d0f4641	0.03497911
242	0xbdb6e6d3	-0.08930745
243	0x3c6d94da	0.014500821
244	0x3db3350d	0.08750353
245	0xbe234849	-0.15945543
246	0xbd52e8c4	-0.051491514
247	0x3dcbb710	0.09947026
248	0xbd97ff8f	-0.07421791
249	0xbe11fdd2	-0.14256981
250	0x3ca313a8	0.019906834
251	0x3d6ddc8c	0.058071658
252	0xbdb7ac09	-0.0896836
253	0x3d08b354	0.033374146
254	0xbe2d431a	-0.16920128
255	0xbe861022	-0.26184183

model.1.running_mean f4 [256]
0	0x3da066ca	0.078321055
1	0xbe832c1e	-0.25619596
2	0xbe317c31	-0.17332532
3	0xbea9a7f5	-0.33135954
4	0xbe0f02ec	-0.13965958
5	0xbe1f9e0d	-0.15587635
6	0x3ed1955d	0.40934268
7	0x3e51f56f	0.20503782
8	0xbcf54404	-0.029939659
9	0x3dcb120c	0.099155515
10	0xbcb21452	-0.021738205
11	0x3dd43fcc	0.10363731
12	0xbe7ab9b2	-0.244849
13	0x3e0d7f2e	0.13818046
14	0xbeade1ba	-0.33961278
15	0xbeb59381	-0.354641
16	0x3ec0922a	0.37611514
17	0xbd86930b	-0.06571015
18	0x3e033f22	0.12817052
19	0x3ec5a1c1	0.3859997
20	0xbe0716e8	-0.13192332
21	0xbee0fad6	-0.43941373
22	0x3e268d4e	0.16264841
23	0x3e08eecd	0.13372345
24	0x3e498f1a	0.19683495
25	0xbe53c5c6	-0.20680913
26	0xbc744203	-0.014908317
27	0x3ed3fa9f	0.41402146
28	0xbe455fbe	-0.19274804
29	0x3e6c6f07	0.23089229
30	0x3e6d2b48	0.23161042
31	0x3e97cddd	0.2964925
32	0x3e0bb630	0.13643718
33	0xbe818ed1	-0.25304273
34	0xbe73b798	-0.23800504
35	0xbe7648bd	-0.24051185
36	0x3e3b93d1	0.18318106
37	0x3e87e861	0.2654448
38	0x3e8c9834	0.27459872
39	0x3c73f127	0.014889038
40	0x3dd47124	0.10373142
41	0xbe503958	-0.20334375
42	0xbebcfdd4	-0.36912405
43	0xbca9d9dd	-0.020733768
44	0xbe36cbb8	-0.1785115
45	0x3e28adfd	0.16472621
46	0x3eab1406	0.33413714
47	0x3e34fe43	0.17675118
48	0x3e6ef17e	0.2333431
49	0xbc98e647	-0.018664492
50	0x3de45396	0.11148755
51	0xbeac0788	-0.33599496
52	0xbd874632	-0.066051856
53	0xbe5b5b5c	-0.2142157
54	0x3e99780d	0.29974404
55	0x3ede412a	0.4340909
56	0x3ede8010	0.4345708
57	0x3e428a26	0.18998012
58	0x3e80a655	0.251269
59	0x3e8ce619	0.275193
60	0xbb024ec1	-0.0019883367
61	0xbec66e39	-0.38755968
62	0x3e97998e	0.2960934
63	0xbe7bccfc	-0.24589914
64	0x3e56a1f2	0.20960215
65	0xbed94c00	-0.42440796
66	0x3db79f84	0.08965972
67	0xbe11a707	-0.14223872
68	0x3bc970e2	0.00614749
69	0xbe5bc3fd	-0.21461482
70	0x3def6acf	0.11690294
71	0x3eba18d6	0.36347073
72	0xbe9cf285	-0.30653778
73	0x3d3910fb	0.04518221
74	0xbe5eb3a0	-0.21748209
75	0x3d9e2922	0.07722689
76	0xbecac650	-0.39604425
77	0xbd2e2bb6	-0.042522155
78	0xbe8f752b	-0.2801908
79	0xbe67ebf7	-0.22648607
80	0x3cf730c9	0.03017463
81	0xbe613dda	-0.21996251
82	0x3e57c036	0.21069416
83	0xbe2ff365	-0.17182691
84	0xbe562a5f	-0.20914601
85	0xbed83bda	-0.42233163
86	0xbea444ce	-0.32083744
87	0x3e12fb65	0.14353712
88	0xbe27dacc	-0.16392058
89	0xbdb63bfa	-0.08898158
90	0xbe98e426	-0.29861563
91	0xbe8b6793	-0.27227458
92	0xbe5219e0	-0.20517683
93	0x3d373cda	0.044735767
94	0xbe4cea2c	-0.20011204
95	0x3eca3133	0.3949066
96	0xbd8364b3	-0.06415691
97	0xbeb287ad	-0.34869137
98	0xbe86ed98	-0.26353145
99	0x3ebd4e5a	0.3697384
100	0xbea68928	-0.32526517
101	0x3ecc7523	0.39933118
102	0x3e85ce97	0.26134178
103	0xbdcb1af2	-0.09917249
104	0xbd93c4ae	-0.07215248
105	0xbe22e0a6	-0.15906009
106	0xbe944d9c	-0.2896546
107	0xbea6c2b6	-0.32570428
108	0x3e0e4d3e	0.13896653
109	0xbe31f6da	-0.17379323
110	0x3e21e4cd	0.15809937
111	0x3ea9ead1	0.33186963
112	0xbd541edc	-0.051787242
113	0xbc1cbbef	-0.009566291
114	0x3ecf00fc	0.4043044
115	0x3c578b8a	0.013155827
116	0xbe53d123	-0.20685248
117	0x3c72b26b	0.014813046
118	0xbe43da73	-0.191263
119	0x3e9c9193	0.30579814
120	0x3e0cbbf4	0.13743573
121	0x3e0e0597	0.1386932
122	0x3e83499c	0.25642097
123	0xbe9bcbd5	-0.3042895
124	0xbd3225ea	-0.04349319
125	0xbe92733f	-0.2860355
126	0xbec1eda3	-0.37876615
127	0xbd9c3b5a	-0.07628508
128	0x3ecf92de	0.40541738
129	0x3e9c5d5e	0.30539984
130	0x3e0b03e7	0.13575707
131	0x3e7d29d2	0.24722984
132	0xbebd1aba	-0.36934453
133	0x3edbfa32	0.4296432
134	0x39846067	0.00025248827
135	0x3d64efe1	0.05589283
136	0x3e70c3d4	0.23512203
137	0xbec74214	-0.389176
138	0x3eac57d3	0.33660755
139	0xbd95de70	-0.07317817
140	0xbe92bd5f	-0.28660104
141	0x3d652fa6	0.055953644
142	0x3d3afadc	0.045649394
143	0x3dd9c565	0.10633353
144	0xbdfcdcda	-0.123468116
145	0xbe74859f	-0.23879097
146	0xbd6666f4	-0.056250528
147	0x3dd70dd2	0.10500683
148	0x3e5263c1	0.20545866
149	0xbdb1bff9	-0.08679194
150	0xbea96d63	-0.33091268
151	0xbc83e23b	-0.016099086
152	0x3e231a87	0.15928088
153	0xbde762c6	-0.112981364
154	0x3e70bd70	0.23509765
155	0xbee2cb44	-0.44295704
156	0x3ec64e6d	0.3873171
157	0x3d5ade6e	0.05343478
158	0xbe27409b	-0.16333239
159	0x3ede1344	0.43374074
160	0x3e902c1d	0.28158656
161	0x3d352b13	0.044230532
162	0xbe5ade7c	-0.21373934
163	0x3e098e2e	0.13433143
164	0x3ed907d1	0.42388776
165	0x3e58db6c	0.21177453
166	0xbe570c29	-0.21000732
167	0xbd140cdc	-0.036145076
168	0xbed101e5	-0.40821758
169	0xbeacb77c	-0.33733737
170	0x3e841c01	0.25802615
171	0xbe832539	-0.25614336
172	0x3d0fe760	0.035132766
173	0xbea4809e	-0.32129377
174	0xbdda8730	-0.10670316
175	0x3d390e79	0.045179818
176	0x3e1f0530	0.15529323
177	0xbecb698d	-0.39728966
178	0x3eb38dea	0.3506921
179	0x3e8b5f6d	0.27221242
180	0xbe9dc726	-0.30816
181	0xbe136cde	-0.14396998
182	0xbd1aaae5	-0.037760634
183	0xbe4b6775	-0.19863684
184	0x3dc516ca	0.09623487
185	0x3e5c0df9	0.21489705
186	0x3e5bda07	0.2146989
187	0xbebeb757	-0.37249252
188	0xbe945831	-0.28973535
189	0xbea1f2d1	-0.31630567
190	0xbe99aa09	-0.3001254
191	0x3edf2a1b	0.4358681
192	0x3de5eb3d	0.11226509
193	0x3d04b077	0.032394852
194	0x3e6291ac	0.22125882
195	0xbdd5c039	-0.10437054
196	0xbcb4aba3	-0.022054499
197	0xbe80e775	-0.25176588
198	0x3e3a9a1a	0.18222848
199	0xbec482f1	-0.3838115
200	0x3d07419b	0.03302155
201	0x3def0577	0.11670964
202	0x3c5caf1d	0.013469485
203	0x3e9a5d3a	0.3014925
204	0xbe9d6614	-0.30741942
205	0x3e0e698f	0.13907455
206	0x3e9bda3c	0.30439937
207	0xbe1e33c1	-0.1544943
208	0xbe46bb85	-0.1940747
209	0xbedd3a01	-0.43208316
210	0xbe442507	-0.1915475
211	0xbbb92434	-0.0056500677
212	0xbe908013	-0.28222713
213	0x3e41970a	0.18905273
214	0xbe6b0f4b	-0.22955053
215	0x3e8931e4	0.26795876
216	0x3dc00a4a	0.093769625
217	0x3ec38a8e	0.38191646
218	0x3edcbe4c	0.43113935
219	0xbdb95fd4	-0.09051481
220	0x3dd6c95f	0.10487627
221	0x3eb6a618	0.35673594
222	0x3dc75756	0.09733455
223	0x3e8ac071	0.27099946
224	0xbed296a7	-0.41130564
225	0xbebc6a7c	-0.3679999
226	0xbed3cccf	-0.41367194
227	0x3eb73615	0.3578345
228	0x3e767b2c	0.24070424
229	0x3e58d2d5	0.21174176
230	0x3e361f77	0.1778544
231	0xbea91192	-0.33021218
232	0xbe9bc12e	-0.30420822
233	0xbd445bb1	-0.047939006
234	0x3def1acc	0.11675033
235	0x3e569178	0.2095393
236	0xbea5e524	-0.32401383
237	0xbe09f8df	-0.13473843
238	0x3da0a69d	0.07844279
239	0xbd803b14	-0.06261268
240	0x3e530e50	0.20610929
241	0xbe1cc2bb	-0.15308659
242	0x3e9e8d73	0.30967292
243	0xbddbc388	-0.10730654
244	0x3eb41ce7	0.351783
245	0xbec08e51	-0.3760858
246	0x3dfa8b03	0.12233546
247	0xbde08e4c	-0.10964641
248	0x3e099e7a	0.1343936
249	0xbeaf755e	-0.34269232
250	0xbe4a8525	-0.19777353
251	0xbe2d0d74	-0.16899663
252	0x3e6cfd3f	0.2314348
253	0xbd3ddca4	-0.046352997
254	0xbe1a08e5	-0.15042455
255	0x3e925492	0.28580147

model.1.running_var f4 [256]
0	0x3e32e7ff	0.17471312
1	0x3e9cabe2	0.30599886
2	0x3e977098	0.2957809
3	0x3dc98593	0.098399304
4	0x3eb26088	0.34839272
5	0x3f05e993	0.5230953
6	0x3e958848	0.29205537
7	0x3eaeb329	0.34121063
8	0x3e9ae002	0.3024903
9	0x3d5ef182	0.05442954
10	0x3f18c914	0.5968182
11	0x3f656bd9	0.8961769
12	0x3eee6e6a	0.46568614
13	0x3e817dfe	0.25291437
14	0x3f1c2c0d	0.61004716
15	0x3ea66e12	0.32505852
16	0x3f2ed81b	0.682985
17	0x3f4cd2e6	0.80009305
18	0x3e62e556	0.22157797
19	0x3e9517eb	0.2911981
20	0x3e52f708	0.20602047
21	0x3f1e9d5a	0.6195885
22	0x3f5d2778	0.8638835
23	0x3ea1e43d	0.31619444
24	0x3f9ad4c9	1.2096187
25	0x3dbc4111	0.09192098
26	0x3eccd7c3	0.40008363
27	0x3f49571e	0.78648555
28	0x3e3c9ed5	0.18419965
29	0x3e6ef7b9	0.23336686
30	0x3ec26e07	0.3797457
31	0x3e6410ea	0.22272077
32	0x3e5d6f13	0.21624403
33	0x3e456799	0.192778
34	0x3ead78f9	0.33881357
35	0x3e155115	0.14581712
36	0x3e4a62b6	0.19764218
37	0x3f2a3eae	0.6650189
38	0x3d90f5a1	0.070781
39	0x3eac06b8	0.33598876
40	0x3dc9b35d	0.09848664
41	0x3e4b58f1	0.19858147
42	0x3ec4566c	0.38347185
43	0x3fa0581b	1.2526888
44	0x3e6a1db9	0.22862901
45	0x3e21a195	0.15784295
46	0x3dd26f19	0.102750964
47	0x3f004250	0.50101185
48	0x3ea97e0a	0.33103973
49	0x3e70597c	0.23471636
50	0x3e09f473	0.13472156
51	0x3d8f000c	0.06982431
52	0x3e5c17aa	0.21493402
53	0x3f18243f	0.5943031
54	0x3ccfd57c	0.025370352
55	0x3e2454d3	0.16047983
56	0x3eaefd0a	0.34177428
57	0x3e379ec7	0.17931662
58	0x3e76ef8a	0.24114814
59	0x3e5db087	0.21649371
60	0x3ea1dae8	0.31612325
61	0x3d2f817e	0.042848103
62	0x3dd45ad0	0.103688836
63	0x3e9434da	0.28946573
64	0x3d75d34d	0.060015965
65	0x3d32e77c	0.043677792
66	0x3d9dd7a8	0.07707149
67	0x3db28888	0.087174475
68	0x3f2d3c72	0.6767036
69	0x3f94f5de	1.1637533
70	0x3f96c945	1.1780173
71	0x3e6d20ef	0.23157094
72	0x3e576b1c	0.21036953
73	0x3d977eb7	0.07397216
74	0x3e3567ff	0.17715453
75	0x3dd4a9c1	0.103839405
76	0x3eaa492e	0.33258957
77	0x3df4024f	0.11914503
78	0x3dc89916	0.09794824
79	0x3ee62c17	0.44955513
80	0x3e151a36	0.1456078
81	0x3f2d33ea	0.6765734
82	0x3e430bbb	0.19047444
83	0x3f40454d	0.75105745
84	0x3fa4e006	1.2880867
85	0x3e5b59c2	0.21420959
86	0x3dbe3adf	0.092885725
87	0x3ed45354	0.41469824
88	0x3eb997d1	0.3624864
89	0x3e082a77	0.13297449
90	0x3e8bc946	0.27301997
91	0x3e2b8a24	0.16751915
92	0x3f4ea303	0.80717486
93	0x3e2fa338	0.17152107
94	0x3eecd654	0.4625727
95	0x3f09f9f1	0.53897005
96	0x3e648de6	0.22319755
97	0x3e6a3f1e	0.2287564
98	0x3e388621	0.18019916
99	0x3e66e7b4	0.22549325
100	0x3e923cb6	0.28561944
101	0x3e077906	0.1322976
102	0x3db3cd68	0.087794125
103	0x3f59dba1	0.8510075
104	0x3cd4fb3d	0.025998706
105	0x3f2f6b9a	0.6852356
106	0x3e427fba	0.18994036
107	0x3ec7d18a	0.39027053
108	0x3ea498cc	0.32147825
109	0x3dcb4fb2	0.0992731
110	0x3e321375	0.17390235
111	0x3ec51f0a	0.38500243
112	0x3e9cc09b	0.30615696
113	0x3d6f8e34	0.058485225
114	0x3e0e6cc8	0.13908684
115	0x3f24eddd	0.6442545
116	0x3e5eb678	0.21749294
117	0x3f78bf2b	0.971667
118	0x3f3f497c	0.74721503
119	0x3d553fd7	0.052062836
120	0x3ea436a3	0.32072935
121	0x3e39d9bc	0.18149465
122	0x3f4ac7ef	0.79211324
123	0x3e3a45a6	0.18190631
124	0x3ec548ff	0.38532254
125	0x3f0a8427	0.541079
126	0x3ea3a9e5	0.31965557
127	0x3e56c0f9	0.2097205
128	0x3e2d0c97	0.16899334
129	0x3e209fea	0.15686002
130	0x3f5e0f74	0.8674233
131	0x3f275279	0.6536022
132	0x3f2fb6c0	0.6863823
133	0x3e4589ab	0.19290797
134	0x3ee03c03	0.43795785
135	0x3f917e52	1.1366675
136	0x3f11a9cc	0.56899714
137	0x3f4d9676	0.8030771
138	0x3e8ed33b	0.2789553
139	0x3ef18640	0.47172737
140	0x3ec6b01f	0.38806245
141	0x3f1ddc7c	0.6166456
142	0x3f4946d7	0.7862372
143	0x3ec2e178	0.38062644
144	0x3f692a92	0.9108058
145	0x3e90140e	0.281403
146	0x3f08c914	0.5343182
147	0x3e35d3c9	0.17756571
148	0x3d9fe578	0.078074396
149	0x3fbfad2c	1.4974723
150	0x3f223336	0.6335939
151	0x3dd752b4	0.10513821
152	0x3e415b47	0.18882476
153	0x3d5e47ad	0.054267574
154	0x3f1ffb89	0.6249319
155	0x3efc1e89	0.49242046
156	0x3da0e07e	0.078553185
157	0x3ee3a63e	0.4446277
158	0x3f05ea07	0.5231022
159	0x3e492c1a	0.1964573
160	0x3f26cbdc	0.65154815
161	0x3dcef2b0	0.10104883
162	0x3f7b99cf	0.9828157
163	0x3f55cbc0	0.8351402
164	0x3dcff274	0.10153666
165	0x3f5689df	0.83804125
166	0x3ec84ed4	0.3912264
167	0x3e4e129b	0.20124285
168	0x3f5400b2	0.8281356
169	0x3db57696	0.08860509
170	0x3ecb930b	0.39760622
171	0x3eb8947c	0.36050785
172	0x3e5206df	0.20510434
173	0x3e3716c5	0.1787978
174	0x3da78962	0.081805006
175	0x3de8d672	0.11369027
176	0x3eef2e65	0.46715084
177	0x3e0a8be9	0.13529934
178	0x3f340ec0	0.70335007
179	0x3f20d5bd	0.6282614
180	0x3f62bd0f	0.8856973
181	0x3da3121a	0.07962437
182	0x3e56e0fe	0.20984265
183	0x3ec0a443	0.37625322
184	0x3ebc5424	0.36782944
185	0x3da4450c	0.08020982
186	0x3ea599dd	0.3234395
187	0x3de7124d	0.112827875
188	0x3f086776	0.5328287
189	0x3eedb3cf	0.46426246
190	0x3f88b4b6	1.0680149
191	0x3eff350b	0.49845156
192	0x3ea28c07	0.31747457
193	0x3dd84a76	0.10561077
194	0x3dd96bc9	0.106162615
195	0x3f1c10b2	0.60962975
196	0x3ea11d7e	0.31467813
197	0x3e9ffecc	0.31249082
198	0x3efb2ab5	0.4905602
199	0x3f304908	0.68861437
200	0x3ee5d987	0.44892523
201	0x3eb02b8a	0.34408218
202	0x3eaec5d6	0.34135312
203	0x3df90a1a	0.1216013
204	0x3ddf088d	0.10890303
205	0x3e9768ce	0.29572147
206	0x3da90a6a	0.082539394
207	0x3e9dffb7	0.30859157
208	0x3ea6d027	0.32580683
209	0x3d51c35a	0.051211692
210	0x3e818540	0.25296974
211	0x3ebf2d2f	0.3733916
212	0x3e0dd880	0.1385212
213	0x3f61df43	0.88231295
214	0x3ded6aed	0.1159266
215	0x3d789ca2	0.06069625
216	0x3f0e1fb1	0.5551711
217	0x3f2bd709	0.6712499
218	0x3ede8691	0.4346204
219	0x3f0f1087	0.55884594
220	0x3e71e5a3	0.23622756
221	0x3e690aff	0.22758101
222	0x3ee1ca0b	0.4409946
223	0x3db883a0	0.090094805
224	0x3e8bd2a2	0.27309138
225	0x3dc8e18d	0.098086454
226	0x3ebc0637	0.36723492
227	0x3d91350b	0.07090195
228	0x3ec30284	0.38087857
229	0x3d70b6f8	0.058768243
230	0x3d20872f	0.03919142
231	0x3f2ce1ee	0.6753224
232	0x3e48e8e8	0.19620097
233	0x3ef57043	0.4793721
234	0x3e64d4cb	0.22346799
235	0x3f4b357f	0.79378504
236	0x3edd8719	0.43267134
237	0x3e5fa931	0.21841885
238	0x3ee68bcf	0.4502854
239	0x3e05484d	0.13015862
240	0x3f2f49cd	0.68471986
241	0x3ea8e40a	0.3298648
242	0x3ec0bdf1	0.37644914
243	0x3f03261b	0.5123002
244	0x3dbeabdb	0.093101226
245	0x3e2ad9ad	0.16684599
246	0x3e0ad863	0.13559107
247	0x3e5b7e00	0.21434784
248	0x3e98ec47	0.29867765
249	0x3ee7e27c	0.4528998
250	0x3da5b560	0.08091235
251	0x3e4693e5	0.19392355
252	0x3e61ed56	0.22063193
253	0x3ea8ac6a	0.32944041
254	0x3e5df149	0.21674074
255	0x3ddf6a4c	0.109089464

model.4.weight f4 [64, 256]
0	0x3d5d5186	0.054032825
1	0xbd5575e4	-0.052114382
2	0x3ce98be9	0.028509097
3	0xbe58e27f	-0.21180151
4	0x3dbb5e20	0.09148812
5	0x3db4e1c8	0.08832127
6	0xbcee6de4	-0.029105134
7	0x3c282a35	0.010263969
8	0x3dcdceb9	0.10049195
9	0x3d80c228	0.06287032
10	0x3c208457	0.009797177
11	0xbd411316	-0.047137342
12	0x3ce10205	0.027466783
13	0xbbb62fda	-0.0055599036
14	0x3d5d14d8	0.053974956
15	0x3da8f463	0.08249738
16	0x3d01b3f9	0.031665776
17	0x3da7d719	0.081953235
18	0x3d9e848c	0.07740125
19	0x3db95ae3	0.090505384
20	0x3d2614e1	0.040547255
21	0x3c27bbc2	0.010237636
22	0x3e19044a	0.14943042
23	0x3d920703	0.07130244
24	0xbdaf4a84	-0.085591346
25	0xbd0c1506	-0.034199737
26	0xbd74a3a9	-0.05972639
27	0xbb03aa3f	-0.0020090488
28	0x3d162f1e	0.03666603
29	0x3c9c5d94	0.01908759
30	0xbe37c887	-0.17947589
31	0xbd8c8017	-0.06860369
32	0xbd91acdb	-0.07113048
33	0xbd9ca54b	-0.07648715
34	0xbd571084	-0.052505985
35	0x3e14d801	0.14535524
36	0x3d96b034	0.07357827
37	0x3d251b83	0.04030944
38	0xbceb956b	-0.028757771
39	0xbd53a655	-0.0516723
40	0x3d9b4ae0	0.07582641
41	0x3df7aa36	0.12093012
42	0x3db3bb3b	0.08775946
43	0xbdd1fa23	-0.10252788
44	0xbc0a0b8f	-0.008425607
45	0xbe0af641	-0.13570501
46	0xbc74a5a1	-0.014932067
47	0xbd14500c	-0.03620915
48	0xbd3faa6e	-0.046793394
49	0xbd35c8f5	-0.0443811
50	0xbdc5a420	-0.09650445
51	0xbca3070c	-0.019900821
52	0xbbe1cda4	-0.0068909694
53	0x3e1eb7aa	0.1549975
54	0xbdc7c65e	-0.097546324
55	0x3d1277c5	0.035758752
56	0xbdeb4627	-0.1148799
57	0xbd45a92a	-0.04825703
58	0x3cb9cc25	0.022680352
59	0xbdf6625b	-0.120304786
60	0x3cef6415	0.029222528
61	0x3e051938	0.12997901
62	0xbd85bc5d	-0.06530068
63	0xbd629f9c	-0.055327997
64	0xbe496156	-0.19666037
65	0xbb90f75f	-0.00442402
66	0x3d3a2227	0.045442726
67	0xbe01685d	-0.12637468
68	0x3c0a5ef1	0.008445487
69	0x3d9499ef	0.07255923
70	0xbcf10e79	-0.029425846
71	0xbc8c0696	-0.017092984
72	0x3db35f8b	0.08758458
73	0x3e1a121b	0.15045969
74	0xbda81b67	-0.082083516
75	0xbd6a654f	-0.05722552
76	0xbd1317fe	-0.035911553
77	0xbe02b344	-0.12763697
78	0xbcb19eb7	-0.021682126
79	0x3d61bc31	0.055111114
80	0xbe179640	-0.1480341
81	0x3d9da4d5	0.07697455
82	0xbd352c5c	-0.044231758
83	0x3d02704a	0.03184537
84	0x3dd1b298	0.10239142
85	0xbcb4d786	-0.022075426
86	0x3c6a241e	0.014290838
87	0xbd30b76f	-0.043143686
88	0xbd5e4b7c	-0.054271206
89	0x3b5462f2	0.0032407609
90	0xbdbf2193	-0.09332576
91	0xbc2ebf9c	-0.0106658
92	0xbd9a99ff	-0.07548904
93	0xbbaa4fdb	-0.005197508
94	0xbc77f59d	-0.015134242
95	0x3ca7dac0	0.02049005
96	0x3c1b9eb6	0.009498289
97	0x3dfc4678	0.12318128
98	0x3d348307	0.04407027
99	0xbb9021da	-0.0043985667
100	0xbddaad71	-0.106776126
101	0x3d94a198	0.07257384
102	0xbd4b59a9	-0.049646053
103	0x3db4d83a	0.088303044
104	0xbc8256d6	-0.015910547
105	0xbd4023de	-0.046909206
106	0x3c3d76da	0.011563981
107	0x3d862815	0.06550614
108	0xbcc6e464	-0.024278827
109	0x3d70106b	0.058609407
110	0x3df033ea	0.11728652
111	0xbd1cc91e	-0.038277738
112	0x3d921f4f	0.07134878
113	0x3daad5e0	0.08341575
114	0x3d66cefb	0.056349736
115	0xbda17f27	-0.078855805
116	0x3cbd4899	0.023105906
117	0x3d62f6e2	0.055411227
118	0xbd1832cd	-0.037157822
119	0xbc9f9667	-0.019480897
120	0x3cd82b69	0.026387887
121	0xbd382343	-0.044955503
122	0x3d341566	0.04396572
123	0xbd96dbdd	-0.07366154
124	0x3b1dc0bb	0.0024071175
125	0xbd8ff91c	-0.07029936
126	0xbac9555d	-0.0015360523
127	0x3d65ab3e	0.056071512
128	0x3cb2c233	0.021821117
129	0x3dfb6bf0	0.12276447
130	0x3d609407	0.05482867
131	0x3bbf7ea0	0.0058439523
132	0xbab86964	-0.0014069495
133	0x3e22e372	0.15907076
134	0x3a8fc644	0.0010969122
135	0xbda0625b	-0.0783126
136	0x3df1c641	0.11805392
137	0x3b932318	0.0044902675
138	0x3dadf0ac	0.0849317
139	0xbd8735df	-0.06602072
140	0xbb4ee6fe	-0.0031570788
141	0x3d834173	0.06408968
142	0xbd593ff9	-0.053039525
143	0xbdd164ee	-0.10224329
144	0x3bd2bbee	0.0064310944
145	0xbda17bfa	-0.07884975
146	0x3d52b197	0.051438894
147	0x3debb396	0.11508863
148	0x3e055637	0.1302117
149	0x3d91535d	0.070959784
150	0xbdd29f53	-0.10284295
151	0xbd8bce39	-0.06826443
152	0xbe2fcd1f	-0.17168091
153	0xbe0c8e2e	-0.13726112
154	0xbcc4ab93	-0.024007594
155	0xbbcfba8d	-0.0063393773
156	0xbe0085f3	-0.12551098
157	0xbdab6efd	-0.08370779
158	0x3d6cdeed	0.057829786
159	0xbd8817ee	-0.06645189
160	0xbd126ec2	-0.035750158
161	0x3a9d1b20	0.0011986233
162	0x3e1e13d3	0.1543725
163	0x3d2788ac	0.040901825
164	0xbda62e59	-0.08114309
165	0x3e125668	0.14290774
166	0x3cba61d9	0.022751736
167	0x3cca2110	0.024673969
168	0x3d1f0af4	0.038828805
169	0xbd8bff00	-0.06835747
170	0x3d11e256	0.03561624
171	0xbd810bb9	-0.06301064
172	0x3e48c85d	0.19607683
173	0x3e3088c0	0.17239666
174	0xbcb66234	-0.022263624
175	0x3dab6455	0.08368746
176	0xbc944b41	-0.01810229
177	0x3d19427b	0.037416916
178	0xbcbc28d8	-0.022968695
179	0xbd6fd4a0	-0.058552384
180	0x3a1ce94c	0.00059856917
181	0xbd805c41	-0.06267596
182	0xbdfc8185	-0.123293914
183	0xbc8c8391	-0.01715258
184	0xbd8bb199	-0.068209834
185	0xbbaff07e	-0.005369245
186	0x3da27ca8	0.079339325
187	0x3d8b796b	0.06810268
188	0x3d00b199	0.03141937
189	0x39d524e8	0.00040654023
190	0xbd8f1393	-0.06986155
191	0x3d20fa39	0.03930113
192	0xbd7066a8	-0.05869165
193	0xbd967a94	-0.07347599
194	0xbcd87c5b	-0.026426485
195	0x3c71c23d	0.014755783
196	0x3d88193d	0.06645439
197	0xbdb36693	-0.08759799
198	0x3d4458e3	0.04793633
199	0x3c796ffb	0.015224452
200	0xbd26431c	-0.040591344
201	0xbc88bb4c	-0.016690873
202	0xbd8ff010	-0.0702821
203	0xbd7b5525	-0.061360497
204	0x3dd86e16	0.10567872
205	0x3e3a6f92	0.18206623
206	0x3d396a67	0.04526749
207	0xbc4d4bdc	-0.012530293
208	0x3db41b9a	0.08794327
209	0xbcde2822	-0.027118746
210	0xbd604d2b	-0.054761093
211	0x3d0b82b3	0.03406019
212	0xbdbd3e28	-0.09240371
213	0x3cbddd17	0.023176713
214	0xbe6666c9	-0.22500147
215	0x3d743839	0.05962393
216	0x3d1d7c9e	0.038448922
217	0xbb9734d5	-0.0046144524
218	0x3d08e70d	0.033423472
219	0xbc296ef3	-0.010341394
220	0xbdb0d615	-0.08634583
221	0xbdadbd6f	-0.08483397
222	0xbd1894e1	-0.037251357
223	0xbcd96533	-0.026537513
224	0xbbcfba82	-0.006339372
225	0xbd393db3	-0.045224857
226	0x3dbbd40b	0.09171303
227	0xbe4d978b	-0.2007734
228	0x3bb9f003	0.0056743636
229	0xbd7e7d5d	-0.062131274
230	0xbcf3ee9b	-0.029776862
231	0xbc1c52fb	-0.009541268
232	0xbbd4c082	-0.0064926753
233	0x3dc4bf23	0.09606769
234	0xbd0a54d2	-0.033772297
235	0x3e3b3774	0.18282872
236	0xbdaa3a8c	-0.08311948
237	0x3d902df2	0.070400134
238	0x3cc6e9e2	0.024281446
239	0x3c99ab62	0.01875848
240	0xbdc26067	-0.094910435
241	0x3dc1a1e6	0.09454708
242	0x3b7be71a	0.0038437308
243	0xbc221906	-0.009893661
244	0xbe164e03	-0.14678197
245	0x3df58c67	0.1198967
246	0x3d41e5c8	0.047338277
247	0x3ccbb383	0.024865871
248	0xbd04e2a6	-0.03244271
249	0xbd19abee	-0.03751748
250	0xbe56cc3b	-0.20976345
251	0xbd32a517	-0.043614473
252	0x3de226cd	0.11042557
253	0x3da781d5	0.0817906
254	0xbc9f3ffa	-0.019439686
255	0x3d441377	0.047870126

model.4.bias f4 [64]
0	0x3d6222a5	0.05520882
1	0xbd22665c	-0.0396484
2	0xbc1f9336	-0.009739688
3	0x3cf2babc	0.029630058
4	0x3c0cf903	0.008604291
5	0xbcdb6adb	-0.026784351
6	0xbc97a949	-0.018513339
7	0x3d4bc000	0.049743652
8	0xbd79a5a4	-0.060948983
9	0xbcf3f662	-0.02978057
10	0xbcac7925	-0.02105386
11	0x3d6b03f5	0.05737682
12	0x3cb7cca3	0.022436446
13	0xbd1b1fbe	-0.03787207
14	0xbc44889f	-0.011995464
15	0x3d100240	0.035158396
16	0xbd5d0d3e	-0.053967707
17	0x3c8936fa	0.016749848
18	0x3cfe431e	0.031037863
19	0xbd1f20ab	-0.038849514
20	0x3d2dca24	0.042429104
21	0x3d5a43f5	0.053287465
22	0xbd6ca281	-0.057772163
23	0x3d2981ec	0.04138367
24	0x3c8bad1d	0.01705032
25	0xbce0153b	-0.027353873
26	0xbd12eddd	-0.035871375
27	0xbd4f63dc	-0.050632343
28	0x3bc154fe	0.0059000244
29	0x3cca6899	0.02470808
30	0xbd3757a0	-0.0447613
31	0x3d7c9152	0.061662026
32	0xbc559615	-0.013036271
33	0xbd645223	-0.055742394
34	0xbd7449cc	-0.05964069
35	0x3c61d059	0.013782584
36	0xbc90ee72	-0.017691825
37	0xbacce6df	-0.001563277
38	0xbca454b7	-0.020059926
39	0xbd120f67	-0.03565922
40	0x3c879450	0.016550213
41	0x3b705009	0.0036668798
42	0x3c013b05	0.0078876065
43	0xbd60454e	-0.054753594
44	0x3d8351f2	0.06412114
45	0x3d3a03db	0.045413833
46	0xbd74108c	-0.059586093
47	0xbc663275	-0.014050116
48	0xbd533ce9	-0.05157176
49	0xbc5b6099	-0.01338973
50	0x3ca8e69e	0.02061778
51	0xbb42ce8c	-0.0029725162
52	0xb96fce84	-0.00022869749
53	0x3b410a1d	0.002945549
54	0xbd31a79e	-0.043372743
55	0xbd4681a9	-0.048463497
56	0xbd6a2a0b	-0.057169
57	0xbcbe5d53	-0.02323786
58	0xbce1cbc3	-0.027562981
59	0x3c5492ac	0.012974422
60	0x3d3e510d	0.046464015
61	0xbd2c180f	-0.04201513
62	0xbcacadb6	-0.021078926
63	0x3c7d48cc	0.015459251

model.5.weight f4 [64]
0	0x3f800ebc	1.0004497
1	0x3f98147d	1.1881253
2	0x3f77b137	0.96754783
3	0x3f817349	1.0113307
4	0x3f8ac9c1	1.084282
5	0x3f7eeb67	0.99577945
6	0x3f82e307	1.0225533
7	0x3f867490	1.0504322
8	0x3f807e74	1.003859
9	0x3f53df10	0.8276224
10	0x3f6a08ae	0.91419494
11	0x3f770220	0.9648762
12	0x3f706d8d	0.9391716
13	0x3f8dd21d	1.1079746
14	0x3f83e84b	1.0305265
15	0x3f6d1786	0.9261402
16	0x3f5817f3	0.84411544
17	0x3f89744e	1.0738618
18	0x3f7f9d10	0.99849033
19	0x3f53db71	0.82756716
20	0x3f4376fd	0.76353437
21	0x3f897601	1.0739137
22	0x3f6a1714	0.91441464
23	0x3f913de4	1.1347013
24	0x3f632a4e	0.88736427
25	0x3f84ff08	1.0390329
26	0x3f5cf045	0.8630412
27	0x3f882db8	1.0638952
28	0x3f81202b	1.0087942
29	0x3f77f9c9	0.96865517
30	0x3f80e27d	1.0069119
31	0x3f822a44	1.0169148
32	0x3f6402c6	0.8906673
33	0x3f82e1a0	1.0225105
34	0x3f9990eb	1.199735
35	0x3f81391f	1.0095557
36	0x3f874ccf	1.0570315
37	0x3f6f9e4d	0.9360092
38	0x3f8b1862	1.0866816
39	0x3f6c1c0f	0.92230314
40	0x3f7cbd22	0.98726094
41	0x3f82790f	1.0193194
42	0x3f720e7d	0.9455336
43	0x3f932686	1.1496131
44	0x3f8a76a6	1.0817459
45	0x3f7f765f	0.99789995
46	0x3f75364d	0.9578598
47	0x3f5fe5ab	0.8745982
48	0x3f68da0f	0.9095773
49	0x3f6adae6	0.9174026
50	0x3f83c614	1.0294824
51	0x3f88bb3c	1.0682139
52	0x3f70c503	0.94050616
53	0x3f8b9081	1.0903474
54	0x3f858625	1.0431563
55	0x3f8be332	1.092871
56	0x3f5c0a35	0.85953075
57	0x3f69feda	0.914045
58	0x3f8636ec	1.0485511
59	0x3f5fa24e	0.8735703
60	0x3f9027da	1.1262162
61	0x3f7d15a4	0.98861146
62	0x3f8d5258	1.1040754
63	0x3f611721	0.87925917
