saved_models/model.pth (torch, 101746 bytes, 37 tensors)

model.0.weight f4 [256, 5]
00000000: bec4 4e3e 8264 29be 190a b6bc a138 c03e
00000010: 11eb e1be bb09 d5bc 131e 923e 6091 86be
00000020: a613 12be 7678 b03e 2821 a83e aeef c8be
00000030: be4c 81bd 0738 80be 9c23 8c3e e663 d2be
00000040: 4754 003f 96de 583e a6dd b9bd 9f51 11bd
00000050: a11e d53d ccb7 0f3c 94a4 d33e 6203 ba3d
00000060: 6423 a6be 6c85 863e a38e e53e 3b91 033c
00000070: 1255 ed3d b3c7 debd b673 bebe 1b5f 1ebe
00000080: 649c d93d 9f43 59be f4ac d3be 0839 9e3e
00000090: 2e83 dc3d 72e9 8cbe c9ed a43e 0127 5dbc
000000a0: 1715 33bd 5311 b9be 625b ab3e 9542 b83e
000000b0: f8fa 7cbe 59a1 1b3e ca28 893e 7110 b03e
000000c0: aaf6 81be 52b3 2bbe c414 89be 3f80 903e
000000d0: 52c4 babe 86ec debe 0635 01be 885c 98be
000000e0: 409a 95be e393 d4be eead 33be 4fac a33e
000000f0: d4b3 903e 101d 9dbd ba87 783d f488 96be
00000100: b418 c7bb e9cb 7f3e a20f ddbd b34a dcbe
00000110: 17a4 c4be e911 c1be 0549 e2be 3854 16be
00000120: bba4 7c3e 7e93 b9bd 60c1 86be 7943 abbe
00000130: f3f9 c3be 386a e5be b855 6f3e 45fc d5bd
00000140: c029 ee3e 4622 983e cf19 6fbe b758 ecbe
00000150: adfc 2cbe 8f9d b4bd 8055 c03e 7406 d1be
00000160: 88ab 12bc dc07 03be 54e4 173e 6e6f 913e
00000170: 6f17 ec3d b860 233f 6629 6abd c1c1 bdbb
00000180: d58d 9abe 28ee 95be a68c 1c3e 4a33 1cbe
00000190: 6bb7 febe d195 4fbd e277 9c3d e2db 29be
000001a0: cf61 1e3e 08be 56be 85be 3abe e9d2 1abf
000001b0: c8ee d0bc 84ce c4be 2e71 393c ed03 1f3e
000001c0: 9cc2 cebc 7cf7 9cbe 3a1e af3e 6adb dfbe
000001d0: 7973 a63d 0972 02be 6802 d2be c505 81be
000001e0: 9b9b 20bf 22e6 273e 5859 5cbe cf60 8f3e
000001f0: 2a96 b13d 58dd 29be 453c 09be cb35 b2be
00000200: da47 e2be 5cde 843e 32a6 a0be 90a7 b93e
00000210: 43e6 863e c97c 6d3e acce 433e 3d2a 00be
00000220: 2b2f f8be c098 debe 69a3 493d cc33 87be
00000230: 89d9 47be efa3 72be 9104 d73e f80c a9be
00000240: 5b7e 603d 7de7 893e 62d3 aabd fa4d 11be
00000250: 27ed 883d da78 9dbe a120 233e e896 99be
00000260: 6fbe e03e 6930 b83d 1393 a5be db11 86be
00000270: 585a d7be 67bc 60bd 2a31 d4be d77d ad3e
00000280: ca16 6bbd ccda 4b3e b793 f4bd d05b f13e
00000290: 18d7 1bbe ed1a b5be 9954 f6bd 2ced b03e
000002a0: e281 993e 7faa b53e 6e79 d9bd 03d0 13be
000002b0: 2d54 9d3d b87e a7be 9d2a 51be 6256 7dbe
000002c0: 6268 7e3e c7ac c33c 6bfb 553e 5107 a5be
000002d0: 3abc 80be 4ac8 9a3e ec84 09be bfed 6d3e
000002e0: 7591 dc3e 6e6f 08bf 10e6 06be 2057 b6be
000002f0: 6694 9cbe d119 bf3e 7751 833e a209 84be
00000300: d2f1 4fbe c344 b7be 0a42 b73e 3005 eebe
00000310: 88d5 183e 6e73 e2bd 47bb 383d 1e78 33be
00000320: aa11 963e 2b2e 933e 8641 d3be fca3 873d
00000330: aaf2 a33d 88ca 353e 60e9 c6be 795b 723e
00000340: e140 d33d b5e4 b9be 63cb 56be f5f1 eebd
00000350: 8a92 bfbe b43e 113d dd04 0d3e 21f7 7a3e
00000360: 0125 31be 5530 993e fc82 733e cf47 a4be
00000370: 87f7 a6be 2f30 553e 5fe6 963e 5226 8abe
00000380: e4db 7a3e 4bfa 6e3e cc9c acbd 6fb6 3dbe
00000390: 7f17 44be 8024 aa3e dd20 153e f4aa ac3e
000003a0: 23df f33e cb78 383d 21b7 84be 7cdd 1bbe
000003b0: 26db 5f3d 3bbb f53b 2b8a 873e 354a 393e
000003c0: 9c6b c0be 615d a6be 7b7f 9dbe 10be bb3e
000003d0: c3c0 51bc 3e83 cd3d d9f5 c53e bf09 c33e
000003e0: 995b da3e ce53 5d3e 8a20 b9be 26cd 17be
000003f0: cda8 473d 7a08 c2be 65b2 9cbe 6117 90be
0.20192239 -0.16542247 -0.022221612 0.37543204 -0.44124654 -0.026005616 0.2853857 -0.26282787
-0.14265308 0.34466904 0.32837796 -0.3924536 -0.063134655 -0.25042745 0.27370918 -0.4109184
0.501286 0.2117866 -0.09075479 -0.03547823 0.104062326 0.008771848 0.413365 0.090826765
-0.32448876 0.26273668 0.44835386 0.008030231 0.115884915 -0.10877933 -0.37197655 -0.15465967
0.10625532 -0.21217202 -0.4134289 0.30902886 0.10767208 -0.27521855 0.32212666 -0.013498069
-0.043721285 -0.3614603 0.33468157 0.35988298 -0.24705112 0.15198268 0.26788932 0.34387544
-0.25383502 -0.16767624 -0.26773655 0.28222844 -0.36477906 -0.43539828 -0.12617883 -0.29758096
-0.29219246 -0.4151908 -0.17546818 0.319674 0.28262198 -0.07671559 0.060676314 -0.29401362
-0.006075943 0.2498013 -0.10793997 -0.4302574 -0.3840644 -0.37708977 -0.44196334 -0.14680564
0.24672215 -0.09061335 -0.26319408 -0.33449915 -0.38276634 -0.448076 0.23372543 -0.10448507
0.46516228 0.2971365 -0.23349689 -0.46161434 -0.16893263 -0.088191144 0.3756523 -0.40825236
-0.008952029 -0.12795967 0.14833194 0.28405327 0.11527907 0.63819456 -0.057168387 -0.0057909195
-0.30186334 -0.2928326 0.15288028 -0.1525394 -0.49749312 -0.050679985 0.07640053 -0.16587785
0.15466999 -0.20970929 -0.1823674 -0.60478073 -0.025504485 -0.3843881 0.011318488 0.15528841
-0.025239281 -0.30657566 0.3420275 -0.43722087 0.081274934 -0.12738813 -0.4101746 -0.25199714
-0.62737435 0.16396382 -0.21518457 0.28003547 0.0867122 -0.16588342 -0.13401897 -0.34806666
-0.44195443 0.25950897 -0.31376797 0.36260653 0.2634755 0.23192133 0.19121808 -0.12516113
-0.48473486 -0.43475914 0.049228106 -0.26406705 -0.19516577 -0.23695348 0.4199567 -0.33017707
0.054808002 0.26934424 -0.08341099 -0.14189902 0.06685858 -0.30756265 0.15930416 -0.29997945
0.4389529 0.089936085 -0.3233877 -0.26185498 -0.42061114 -0.054867174 -0.4144376 0.3388507
-0.05739478 0.19907683 -0.11942237 0.4714036 -0.1521877 -0.35372105 -0.120278545 0.34555948
0.29981905 0.3548164 -0.10618864 -0.14434819 0.07682071 -0.32713866 -0.20426412 -0.24739984
0.24844506 0.023886098 0.2089669 -0.32232144 -0.25143605 0.30230933 -0.13429612 0.23235224
0.43079725 -0.5329503 -0.131737 -0.35613346 -0.3058197 0.37324384 0.2564809 -0.257886
-0.20307091 -0.3579465 0.3579257 -0.46488333 0.14925206 -0.11057173 0.045100477 -0.1752629
0.29310352 0.2874616 -0.41260928 0.066230744 0.08005269 0.17753041 -0.38849926 0.23667707
0.10315109 -0.36307302 -0.20976023 -0.116672434 -0.37416488 0.03546019 0.13771386 0.24508335
-0.17299272 0.29919687 0.23780435 -0.32086036 -0.32610723 0.20819162 0.29472634 -0.2698236
0.24497944 0.23337667 -0.08428344 -0.18526624 -0.19149588 0.33230972 0.14563318 0.33724177
0.47631177 0.045037072 -0.25920966 -0.15221208 0.054652356 0.0074991263 0.264726 0.18094714
-0.375821 -0.32493117 -0.30761322 0.36668444 -0.012802306 0.10034798 0.3866413 0.38093373
0.42648008 0.21614 -0.36157638 -0.14824352 0.048744965 -0.37897092 -0.30604854 -0.28142837

model.0.bias f4 [256]
00000000: f0fe 753e 6e16 583e b629 1d3d b77d dc3e
00000010: 17f1 fd3c 9f60 c4bd b5ce b63d 6622 1fbd
00000020: ab33 a2be 9b18 993e b498 513e 88f2 ad3e
00000030: 5d5b 25be 86e0 0dbe c144 d2be 02fc debe
00000040: e767 b5be 658e a8be 87b8 113e f3c0 8f3e
00000050: e8cf 5e3e 8af4 74bd 4bed ddbe d24b 1b3e
00000060: f1d1 febc 1a93 c3bd 6d30 233e 71f2 18bd
00000070: 377e e43e edb6 ea3d a2a7 bdbe 8ba4 5dbd
00000080: 4c41 053e dc19 a3be 5bd7 c03e 4cdf 7abe
00000090: a857 573d 79dd db3d ef3b 6fbd 972f 1cbd
000000a0: c311 53be 14d8 aa3e c6f4 963d f547 7d3e
000000b0: e3ae ca3e e2a5 bcbe cc4d b83d 9e80 993d
000000c0: cf80 723e c233 a6be 470e 753e 3751 95be
000000d0: 3427 d2be 0513 a7be a2e9 943e 84f1 88be
000000e0: 9536 a4be 33c8 3e3e d62d 033c 716b af3d
000000f0: 3ba1 583e c6a5 d7be bf4e 843e 0fd3 2c3d
00000100: 1d28 d9bd c923 7b3b a597 13be 756d 833c
00000110: 6635 aabe d5c8 b9be 2453 203d 98f4 2f3d
00000120: 7a72 c4be c7db 2c3e 107e 023e d3d8 c6be
00000130: be8c c9be fbc0 09be 6461 bdbd 57b1 5cbe
00000140: fa22 61bd 0729 49bd 2bd7 0bbd f534 bc3e
00000150: 582e 64be e627 90bd 1eb7 e13e d78d 54bc
00000160: 4d3c bc3d fb83 083e ede6 943d 03f5 8e3e
00000170: 83e2 cfbe e3d5 8a3e 70e5 043d 173e 64be
00000180: b3f0 d73d be49 17be fb1a d1be 2ff0 17be
00000190: 8ece 84be 247d c03e 53f7 ffbc 3d3d 6b3e
000001a0: 99b0 99bd 0daf 803e 90b3 9dbe 728b cb3e
000001b0: cd84 803e 0f2c adbe 4648 eb3d 9ff4 06be
000001c0: d2e7 a7be eca8 6a3e 018d b33e 1306 893e
000001d0: 3532 293e b20c c83e 06f8 a73e a617 c0bd
000001e0: ef43 65be 0641 ac3e 00de 713e 0818 c2be
000001f0: ae51 ca3e 0dac 4b3e 39dc 19be 1cd8 863e
00000200: e42a d83e 62c7 08be 3271 8d3e 3605 fd3d
00000210: 93bc e83d 6604 ebbd 98e7 c1be f8f0 4e3e
00000220: d45b d6be b579 833e 0d68 5cbd 7275 1ebe
00000230: 4dd8 ccbd 3fef 8fbe 61b3 cc3e 25dd 33be
00000240: bf47 4c3d 7619 ecba 1b08 d5bd 5c35 40be
00000250: 7fe4 803d cbb4 1cbe fb4a 353e aeee 2a3e
00000260: d631 143e 322e afbe d0ba 003e becc d83e
00000270: 93c5 9c3e 3b15 cd3e a47b 7abd 71ad 693e
00000280: 860e d33e 6b7e c23e 3fe3 f83d 266e 063e
00000290: 4e92 b73c 1aac 1f3e 1fdb 83be b115 0fbe
000002a0: 1d77 e23e 0df3 9e3e f619 e4be c6c0 e3be
000002b0: 446f 8b3e 287b 6bbe fae4 c53d a332 ab3e
000002c0: adcd aa3c a478 8abd d70b b33e 86d9 453c
000002d0: 29ae ac3e 0132 3e3d 1fdf e93d 13a6 db3e
000002e0: 562b d23e a9a1 be3e 113b b1be bd53 693e
000002f0: 32ee 48bd f54f b8bc 308b bd3e d600 5c3e
00000300: 40f8 2a3d 06f5 ca3e 6c20 f6bd 2331 863e
00000310: 49d5 94be 040d 913e e3fc 03be 6083 7fbc
00000320: 120d 443d 57ed dcbd 2ca6 303e 7356 cebd
00000330: 318a 8ebe 2d86 903d 3e1a a53e 0435 dfbd
00000340: d3c2 dd3e f9cf d4be cf88 64be 7540 263e
00000350: 6ea3 03be 01c1 3d3e 489d 693e 7c58 033d
00000360: 0598 283d 849e dd3e d5b6 b7be d72b 97be
00000370: e0b7 debd b2d5 98be b516 8d3e 4308 d63e
00000380: c103 943e 39cc 47be 30ce b53e 8b1f 2abe
00000390: bfcc a53e 4233 78be e80f ed3d 2488 473e
000003a0: 2e6c db3d 6232 28be 56fe df3e 2c40 393e
000003b0: c9de f5bd 28ea 913e 7e6c 66be ad12 863e
000003c0: 5312 553e b6b9 853e 890e aebe 967c b13c
000003d0: 291c 89be 458c a0bd 7d9e a4be 7638 61be
000003e0: 7bc4 dcbe 6eec d4be a763 893d 6b20 27be
000003f0: 636b 033e 0ab0 873e 51d5 d93e 4126 88bd
0.24023032 0.21102306 0.038369857 0.43064663 0.03099875 -0.095887415 0.08926145 -0.038851164
-0.31680045 0.29901585 0.20468408 0.339741 -0.16148134 -0.1385518 -0.4106808 -0.43551642
-0.35430834 -0.32921138 0.14230548 0.28076896 0.21758997 -0.059803523 -0.43345103 0.15165642
-0.031105967 -0.09549542 0.15936442 -0.037340585 0.44627544 0.114606716 -0.37041956 -0.054112
0.1301319 -0.31855667 0.37664303 -0.24499243 0.05257383 0.10735602 -0.058406767 -0.038131323
-0.20612244 0.3336798 0.073709056 0.2473448 0.39586553 -0.3684531 0.089992136 0.07495235
0.23681949 -0.32461363 0.23931228 -0.29163525 -0.41045535 -0.32631698 0.29084498 -0.26746762
-0.32072893 0.18631057 0.008006534 0.08565415 0.21155255 -0.42118663 0.25841329 0.04219347
-0.10603354 0.003832089 -0.14413317 0.016043404 -0.33243865 -0.36286035 0.03914179 0.042957872
-0.3836859 0.16880713 0.12743402 -0.388373 -0.3936519 -0.13452522 -0.092470914 -0.21552025
-0.054964997 -0.049111392 -0.034140747 0.36759153 -0.22283304 -0.0703886 0.4408502 -0.01297327
0.09191189 0.13331597 0.07270608 0.27921304 -0.40602502 0.27116308 0.03244537 -0.2228931
0.105439566 -0.14774224 -0.40840897 -0.14837717 -0.2593884 0.37595475 -0.031245863 0.2297258
-0.075043865 0.25133553 -0.30801058 0.39754826 0.2510132 -0.33822677 0.114883944 -0.13179253
-0.32794052 0.22916001 0.35068515 0.26762447 0.16523059 0.39072186 0.32806414 -0.093795106
-0.22389196 0.3364336 0.23619843 -0.3790896 0.39515442 0.19889851 -0.15025415 0.26336753
0.42220223 -0.13357309 0.27625424 0.123545095 0.11364093 -0.11475448 -0.37872005 0.2020911
-0.41866934 0.25678793 -0.053810168 -0.1547449 -0.100021936 -0.28112218 0.39980605 -0.17564829
0.04987311 -0.0018012959 -0.104019366 -0.18770355 0.06293582 -0.15303342 0.17704384 0.16692612
0.14472136 -0.34214932 0.12571263 0.42343706 0.30619487 0.4005526 -0.06115307 0.22820069
0.41222018 0.37987074 0.12152719 0.13127956 0.02240863 0.15592995 -0.25753114 -0.13973118
0.442315 0.31044808 -0.44551057 -0.44483012 0.27233326 -0.22996199 0.096628144 0.3343707
0.020850027 -0.067612916 0.3496997 0.012075787 0.33726624 0.046434406 0.1141951 0.42900142
0.41048688 0.37232712 -0.34615377 0.2278585 -0.049055286 -0.022499064 0.37020254 0.21484694
0.041740656 0.39640063 -0.12017903 0.26209363 -0.29068974 0.28330243 -0.12889437 -0.015595287
0.047864027 -0.107874565 0.1725089 -0.10075083 -0.27839807 0.07056842 0.32246584 -0.10898784
0.43312702 -0.4156492 -0.22317813 0.16235526 -0.12855312 0.18530656 0.22813904 0.032066807
0.041160602 0.43285 -0.35881677 -0.29525635 -0.10874915 -0.29850537 0.27556387 0.41803178
0.28909114 -0.19511499 0.3550887 -0.16613595 0.3238277 -0.24238303 0.115752995 0.19485527
0.10713993 -0.1642547 0.4374873 0.18090886 -0.120053835 0.2849896 -0.22502324 0.26186123
0.20807771 0.2611825 -0.33995464 0.021665853 -0.26779297 -0.07839254 -0.32152167 -0.21994194
-0.43118653 -0.41586632 0.0670846 -0.1632096 0.12833934 0.26501495 0.4254556 -0.06647921

model.1.weight f4 [256]
00000000: 0464 643f 8cf6 6d3f 2b54 873f 7fe9 793f
00000010: f1b6 763f bd86 603f 5138 823f 797f 873f
00000020: 9654 813f 6bae 7b3f 9ea7 7f3f 2ece 813f
00000030: db00 813f 8934 853f caa5 6a3f df2a 6e3f
00000040: 93c9 843f 44b3 823f 3a5b 613f 7361 823f
00000050: 0b99 913f a4ef 853f 1380 6f3f 794e 733f
00000060: 09d5 723f 7cc5 6f3f a5d7 873f 7f7b 803f
00000070: cfc0 693f 2aac 653f 97ed 863f 8305 713f
00000080: 3172 823f 7798 8b3f 8050 6b3f 7e5b 843f
00000090: 713c 873f c721 763f e46c 863f ce64 893f
000000a0: 3d90 793f 98b3 753f 88e0 703f 5b60 8a3f
000000b0: d6f0 8b3f 9d5a 5d3f 9c56 653f 0fc2 873f
000000c0: 001b 873f 4b9b 793f 9311 6f3f 43e4 6b3f
000000d0: 58ce 813f 9793 623f 17af 6c3f c614 5a3f
000000e0: 6b17 843f 14ec 783f 93c8 743f 7fdf 863f
000000f0: c7ef 813f 4798 893f 733f 713f c72a 8e3f
00000100: f72c 833f b849 6d3f 804c 8d3f e204 7f3f
00000110: 399c 843f 5268 633f e8a0 6e3f f5c9 713f
00000120: 84d2 8a3f 977f 533f ce50 843f 8b9e 953f
00000130: 2d30 743f b43a 883f 5d00 8c3f 126a 7d3f
00000140: dc77 803f 953a 8c3f 9962 703f dcc1 793f
00000150: b7eb 9d3f ac2f 3e3f d583 763f ca74 853f
00000160: 2560 6f3f 0acd 6c3f 855a 843f 6709 693f
00000170: 2320 863f 9a99 753f b23a 893f aefd 883f
00000180: 9af9 853f 7a8f 893f 50c2 6e3f 7bea 893f
00000190: 1e91 853f aa13 7b3f 457b 863f 21da 663f
000001a0: cc1f 723f 4143 6a3f 7e89 6a3f 8c00 883f
000001b0: 0367 843f ad13 8a3f 84fe 833f e5c8 803f
000001c0: 4cdd 853f 51dd 8a3f df6b 723f e1fe 8e3f
000001d0: 5c3b 643f 6bef 823f 79cc 883f 9411 743f
000001e0: ab24 6d3f fa4e 6f3f 61cf 5d3f 4673 863f
000001f0: 23c2 6d3f e073 873f 37ab 883f 2498 873f
00000200: a24e 873f 33f9 7d3f 9ca1 833f f656 833f
00000210: 7fff 6f3f a2b5 6c3f ed7b 5c3f 3a18 853f
00000220: 1cef 7f3f 2195 693f 670d 863f 038a 863f
00000230: b27d 843f 6495 813f 2ada 883f fd25 843f
00000240: ef78 733f e1fd 6d3f cc13 853f 266f 8b3f
00000250: 1351 6f3f 7c5e 843f a235 893f 92b0 5e3f
00000260: 7235 813f 4321 733f b109 753f 497b 773f
00000270: 1cc7 573f 12d9 533f 29d3 7b3f 691e 6d3f
00000280: 39ce 853f 581f 9d3f c6f1 743f a18f 823f
00000290: bcaa 7e3f 6967 6d3f edf7 833f 6cb3 6e3f
000002a0: 17cd 833f 601a 8a3f 4b32 7a3f 22b9 813f
000002b0: 66bf 853f a45a 843f f0fe 6e3f 7ff8 843f
000002c0: 7435 6a3f 2786 9a3f 75ca 8a3f 793d 853f
000002d0: 7237 6e3f 217a 823f e3cc 883f 0622 773f
000002e0: 3921 923f 3fcc 713f ad21 723f 31aa 6c3f
000002f0: eb52 773f adcb 703f eb9c 703f ad59 973f
00000300: b239 7f3f a6d2 743f 2838 693f 79b1 9f3f
00000310: 385f 703f 5196 6d3f 83be 623f c266 9a3f
00000320: 7267 843f 5a08 733f 9978 5d3f 7748 853f
00000330: fb32 733f 5a75 893f 5c8d 673f 32ae 743f
00000340: d256 633f e1d4 853f 85b2 893f d4d5 593f
00000350: 08f4 863f 146c 863f 5854 803f be9f 843f
00000360: c2c8 803f c1d3 763f e89b 893f e939 743f
00000370: 6f28 823f fc73 693f 72f0 6f3f c518 8d3f
00000380: d2c8 883f a808 713f d202 703f e9a6 7b3f
00000390: c461 613f 2096 853f de57 853f 4d4b 873f
000003a0: 8459 743f 980c 8b3f 193b 663f 7282 693f
000003b0: 5f29 5d3f 9a8e 543f a80c 873f edac 8b3f
000003c0: 233f 653f 5cce 873f 2955 913f 97bd 863f
000003d0: ac89 713f 32c1 9e3f 0ce3 713f 0b53 853f
000003e0: 08d5 773f 0479 873f a1b3 853f 64c6 703f
000003f0: 89ef 6d3f fc1c 873f d282 763f 19bd 873f
0.8921511 0.92954326 1.0572561 0.9762191 0.96372896 0.87705594 1.0173436 1.0585777
1.0103939 0.98313016 0.9986514 1.0141046 1.0078386 1.0406657 0.91659224 0.93034166
1.0374016 1.0210958 0.88029826 1.0185989 1.137483 1.0463758 0.935548 0.95041615
0.94856316 0.9366071 1.0612684 1.0037688 0.9130983 0.89715827 1.0541257 0.94149035
1.0191098 1.0905904 0.9191971 1.0340421 1.056532 0.9614529 1.0501981 1.0733888
0.97485715 0.95977163 0.9409261 1.0810655 1.0932872 0.8646639 0.8958528 1.0606097
1.0555115 0.97502583 0.9338619 0.92145175 1.0141096 0.88506454 0.92454666 0.8518795
1.0319647 0.97235227 0.9561855 1.0536956 1.0151299 1.0749596 0.9423744 1.1106805
1.0248097 0.9269061 1.1038971 0.99616826 1.0360175 0.88831055 0.93214273 0.94448787
1.0845494 0.8261656 1.033716 1.1689008 0.9538601 1.0642915 1.0937611 0.98989975
1.0036578 1.0955378 0.9390045 0.9756143 1.233756 0.7429149 0.9629491 1.0426266
0.9350608 0.92500365 1.0340124 0.9102997 1.0478557 0.959375 1.0721037 1.0702417
1.0466797 1.074691 0.9326525 1.0774683 1.0434911 0.9807688 1.0506369 0.9017659
0.9457977 0.9150887 0.91616046 1.0625167 1.0343937 1.0787255 1.0312047 1.0061308
1.045816 1.084879 0.9469585 1.1171533 0.89153075 1.0229315 1.06874 0.9533932
0.92634076 0.93479884 0.8664456 1.0503929 0.92874354 1.0582237 1.0677251 1.0593305
1.0570872 0.9920837 1.0283694 1.0260913 0.9374923 0.9246465 0.86126596 1.0398018
0.99974227 0.9124318 1.047284 1.0510868 1.0350859 1.0123715 1.0691578 1.0324093
0.95106405 0.92965513 1.0396667 1.0893295 0.93483084 1.0341334 1.0719492 0.86988175
1.0094435 0.9497263 0.9571791 0.96672493 0.8428819 0.827531 0.9836908 0.9262453
1.0453559 1.227519 0.95681417 1.0200082 0.9947927 0.92735916 1.0310036 0.93242526
1.0296963 1.0789299 0.9773299 1.0134623 1.0449035 1.0340161 0.93357754 1.0388335
0.91487813 1.207219 1.0843035 1.0409385 0.9305335 1.0193521 1.0687526 0.9653629
1.1416389 0.9445228 0.94582635 0.9244719 0.966109 0.94060785 0.9398944 1.1824242
0.9969741 0.95633924 0.9110131 1.2476035 0.9389529 0.9280749 0.8857195 1.2062609
1.0344069 0.9493462 0.8651214 1.041274 0.94999665 1.0738938 0.9045007 0.955783
0.8880435 1.045559 1.0757605 0.850919 1.0543222 1.0501733 1.002574 1.036125
1.0061266 0.9641686 1.0750704 0.95400864 1.0168589 0.91192603 0.93726265 1.1023184
1.0686285 0.94153833 0.93754303 0.9830156 0.88039804 1.043644 1.041744 1.0569855
0.9544909 1.0863218 0.89933926 0.9121467 0.8639125 0.8303009 1.0550737 1.0912148
0.89549464 1.0609851 1.1354114 1.0526608 0.94350696 1.2402709 0.9448707 1.0415968
0.96809435 1.0583806 1.0445443 0.9405272 0.92943627 1.055572 0.96293366 1.0604583

model.1.bias f4 [256]
00000000: 70cf 0dbe e090 21be 6e53 bcbb bb30 18bd
00000010: 1e8a 1bbe 20e5 8bbd a20d f53d b4c4 0fbe
00000020: 6c94 96bd 552f 47bd 9326 b8bc 28bb 03be
00000030: a5f8 c3bd 9f05 043d 7d5d fabd 04ae 18be
00000040: ba07 073d 9851 aa3c ff23 05be 2ee2 f43c
00000050: 7331 06be 8277 403d 2462 9bbe b7e7 4ebd
00000060: f3c9 13be 2316 0abe 43e5 1abd 3080 223d
00000070: c437 a6bd 8681 aebd 48cc 8b3b a992 9abd
00000080: 2140 e6bd 6b73 ccbd 43d8 c1bd 5504 e93c
00000090: a6ba 26be 6ece d3bd 799f f03c 25f7 8dbe
000000a0: 7cc7 acbd df06 5fbd 33ce bbbd de8b 0abe
000000b0: 19ff 77bc 8e80 b0bd 0727 10bc d2e1 74bc
000000c0: 901d 87be c49b 41bc ed80 6dbd 9587 a1bd
000000d0: d65f c7be 14ac c0bd 535f 20be 0668 f1bd
000000e0: d722 85be 0855 9ebd 5b7c cdbd be8b 853c
000000f0: 052f 9b3c a818 b6be 37e9 7abd 2381 33be
00000100: 3a87 583c 900c 91bd 271c 833d 5fc1 35bd
00000110: 7e6e 07bd 59ff 15be fb55 8bbd c56c 9f3a
00000120: 7f73 80be 79eb 3f3e cd70 dbbd 29a1 debd
00000130: b7ba 9cbd 3143 773d 7fc3 96be 88af 44be
00000140: 50d1 ab3d 309d 093b 4d15 b2bd 2cb2 d2b9
00000150: 59b6 dcbe 8261 7e3d fff5 0abe e8a4 153d
00000160: 564c 21be 0ced abbd 5b45 87be 9fcc a63d
00000170: 6af4 453d 2ef2 553d da86 4fbc 8be1 13bd
00000180: 876b 7dbd 67bb 07bd 6a2a 85bd 6b42 c8bc
00000190: 237f 6a3c 2107 4bbe d670 46be 5e94 98bd
000001a0: 23ee dcbd 3cfe 01bd 08a6 703d 1f36 67bd
000001b0: 87de 9cbd a73a d5bd 4d86 06be 92e7 35be
000001c0: 9447 dd3c 2855 89bc 20bf 02be 07b5 7bbe
000001d0: 7c35 d5bd a715 d0bc 36f8 63be 90df 82be
000001e0: 783f 00bd b155 acbc 7871 0ebe dc82 2f3d
000001f0: 3d4a 493d 52df e63c aa60 3cbe 501e 5a3d
00000200: c026 e9be b2cb 4f3d f167 2a3d 275f d6bc
00000210: 9db6 acbd 5597 a5bd 2002 01be 8882 e93b
00000220: ecbb f93a 7c38 adbd e546 513d 997d a0bd
00000230: e2b6 5e3d a368 45bd 6761 3ebe dae3 5d3d
00000240: a688 95bd 355d bdbd 381e 69bc 575e 2cbe
00000250: cc43 afbd d7a4 253d d186 5cbd a7f2 ecbd
00000260: 4adc 0cbe f7fa 99bd 21c2 d7bd 960a dd3c
00000270: 1af2 a8bd e29e fabd 03fa c1bd 49e5 cdbb
00000280: 8097 8c3d 293f 2abe d540 9bbe f783 19be
00000290: af27 16bd 5305 a4bd 7763 4c3c 0212 1cbe
000002a0: 7ea0 3cbd 5aab b23d 469d 8cbd f24c 403d
000002b0: 3545 d63c 0e61 c13c 06c8 39be 2a5e eabd
000002c0: 66ba 2dbe caf1 42be 4582 a1bd ba5d 303d
000002d0: 2c46 1ebd a964 803d 834e 41bc 962d 99bd
000002e0: 1a60 e0bc 58f6 f8bd 058d 03be 8ba0 c5bd
000002f0: 22b0 b0be 4283 8dbd e6ca 34be 3ff5 36bd
00000300: f82a 963d ab3a 27be 3e5a eabd 9b61 7abc
00000310: 257d 59bd 7906 e4bd 58de dcbd e86c 40be
00000320: 444c dc3c 279e 60bd 32b3 1cbe 53cf d23c
00000330: 4107 62be 337c 91be 2177 ca3b 13f3 eabd
00000340: 4d44 103d 5f34 4b3d 8f09 a6be 87c9 d5bc
00000350: 8d86 353d 2c23 ae3c 1538 30bb 7832 1d3d
00000360: a710 bebd b6b8 3fbe 10b5 b0bd 42d2 9abd
00000370: dd77 843d d63c 83bd 3814 7fbd bd31 bfbd
00000380: 4b85 aabb 7681 08be 8e95 b1bd e62d 6dbe
00000390: ab2d 8ebd b25c 0abf 7cab 193d 7d51 8b3d
000003a0: 39c2 eabd ea92 513d f3ff 3ebe 9f9d 87be
000003b0: 7659 e13b 053b eb3c ead7 efbd 24a1 cf3c
000003c0: f89b eabd 69eb 1bbd aa27 f53d 7994 6f3d
000003d0: ad59 29bd b4ce 89be d5c0 47bc 45fb 8bbe
000003e0: b8e7 473c 9399 aa3d 3a7f 553d c9e3 d2bd
000003f0: 7b9c 77bd 692a 163d 2d09 e3bd a1b3 f93c
-0.13848662 -0.15777922 -0.0057472503 -0.037155848 -0.15189406 -0.068308115 0.11965491 -0.1403988
-0.07352528 -0.048629124 -0.022479331 -0.12864363 -0.095689096 0.032231923 -0.12224863 -0.14910132
0.032966353 0.02079086 -0.13002013 0.029893007 -0.13104801 0.04698897 -0.30348313 -0.05051395
-0.14432506 -0.13485007 -0.037816297 0.03967303 -0.08116105 -0.085207984 0.0042662956 -0.075475045
-0.112427 -0.09982952 -0.09465077 0.028444448 -0.16282138 -0.10342108 0.029372917 -0.2772762
-0.08436486 -0.054449912 -0.09170189 -0.13529918 -0.015136504 -0.0861827 -0.008798367 -0.014946418
-0.26389742 -0.011816923 -0.05798428 -0.07887188 -0.38940305 -0.09407821 -0.15661363 -0.11787419
-0.26003143 -0.07731062 -0.100334845 0.016301986 0.01894332 -0.35565686 -0.061257567 -0.1752973
0.013215834 -0.07082474 0.06401854 -0.044373866 -0.033064358 -0.14648189 -0.06803509 0.0012163153
-0.25088117 0.1874217 -0.107148744 -0.108705826 -0.076528005 0.060366813 -0.29446027 -0.19207585
0.083895326 0.0020998232 -0.08695469 -0.0004018707 -0.4310787 0.06210471 -0.13570403 0.03653422
-0.15751776 -0.083948225 -0.26420102 0.08144497 0.048328795 0.052232914 -0.012666428 -0.036103766
-0.061870124 -0.033137705 -0.065022305 -0.024445733 0.014312538 -0.19826938 -0.19378981 -0.07450174
-0.107876085 -0.031736597 0.05875209 -0.0564481 -0.07659631 -0.10411578 -0.13137169 -0.17764118
0.02701167 -0.016764238 -0.12768221 -0.24580775 -0.10410592 -0.02540095 -0.22262654 -0.2556119
-0.03131053 -0.021036955 -0.13910472 0.042849407 0.049143065 0.02818266 -0.1839625 0.053251565
-0.45537376 0.05073137 0.041603032 -0.026168419 -0.08433268 -0.08085505 -0.12598467 0.0071261562
0.0019053197 -0.08458039 0.051093 -0.07836456 0.05437363 -0.048195492 -0.18591844 0.054172374
-0.07301454 -0.092462935 -0.014228396 -0.16832863 -0.08557853 0.040440407 -0.05383951 -0.1156972
-0.13755909 -0.07518571 -0.10535074 0.026982587 -0.08249302 -0.12237336 -0.09471514 -0.0062834364
0.06864834 -0.16625656 -0.303229 -0.14991747 -0.03665894 -0.08008828 0.012474886 -0.15241244
-0.046051495 0.08724089 -0.06865935 0.04694838 0.026156047 0.02360585 -0.18142709 -0.114437416
-0.16965637 -0.19037548 -0.07886175 0.043058135 -0.03864114 0.062691994 -0.011798504 -0.07479398
-0.027389575 -0.12156361 -0.12846763 -0.09649762 -0.3450938 -0.06909801 -0.17655525 -0.04466748
0.073324144 -0.16330974 -0.114429936 -0.01528206 -0.053097863 -0.11134047 -0.10784596 -0.18791544
0.026891835 -0.054838326 -0.15302733 0.025733626 -0.2207308 -0.2841507 0.006178752 -0.11472144
0.035221387 0.04961049 -0.32429168 -0.026097072 0.04431777 0.021257006 -0.0026888896 0.03837821
-0.0928052 -0.18722805 -0.08628285 -0.07559635 0.064681746 -0.06408088 -0.06227514 -0.09335659
-0.005203878 -0.13330635 -0.086711034 -0.2316204 -0.06942304 -0.5404769 0.037517056 0.06802652
-0.11462826 0.0511655 -0.18652324 -0.26487443 0.0068771197 0.028714666 -0.11711104 0.025345393
-0.1145553 -0.0380663 0.11970456 0.058491204 -0.041345287 -0.26915514 -0.012191971 -0.2734014
0.012201242 0.08330073 0.052123286 -0.10297353 -0.060451966 0.03666154 -0.110857345 0.030481162

model.1.running_mean f4 [256]
00000000: 2afb 753e b107 583e b625 1d3d 1882 dc3e
00000010: eae8 fd3c 0259 c4bd 61c7 b63d cb65 1fbd
00000020: 8732 a2be a017 993e 65a4 513e 45f3 ad3e
00000030: 1459 25be 22db 0dbe 913f d2be 10fb debe
00000040: f466 b5be 658d a8be a8b5 113e a0bc 8f3e
00000050: 11b0 5e3e 5cd7 74bd abed ddbe ea5b 1b3e
00000060: befe febc 418f c3bd 832b 233e 99ea 18bd
00000070: 197d e43e 37b3 ea3d f1a6 bdbe 7e96 5dbd
00000080: ee49 053e 771b a3be 76d5 c03e d3e5 7abe
00000090: f662 573d 1dec db3d ea3a 6fbd 0298 1cbd
000000a0: 211a 53be c8d7 aa3e 14f0 963d 3349 7d3e
000000b0: e1af ca3e 4ea6 bcbe 7256 b83d d857 993d
000000c0: 707b 723e 9632 a6be e30b 753e d24e 95be
000000d0: 9c25 d2be f40f a7be 9fe6 943e 1bf3 88be
000000e0: a735 a4be f7c3 3e3e 3ad0 023c 0e59 af3d
000000f0: 02a0 583e a3a4 d7be 4a4e 843e 4afd 2c3d
00000100: 6f32 d9bd 9b85 7b3b 459a 13be cc5a 833c
00000110: 8431 aabe 60c7 b9be a74f 203d 61f7 2f3d
00000120: 2263 c4be c0dd 2c3e da7d 023e f4e0 c6be
00000130: bf8b c9be 02ba 09be 655d bdbd d2ae 5cbe
00000140: 3816 61bd 2a1f 49bd ceb2 0bbd 4733 bc3e
00000150: 212a 64be 422e 90bd f8ae e13e ea63 54bc
00000160: 3341 bc3d 2e7e 083e 99f2 943d e1f4 8e3e
00000170: 31e0 cfbe 8ad2 8a3e adca 043d a834 64be
00000180: 91ef d73d f94a 17be c419 d1be 90e5 17be
00000190: a9cd 84be 0079 c03e ec24 00bd fb3f 6b3e
000001a0: 81a4 99bd fdb1 803e e9b2 9dbe 228c cb3e
000001b0: 7084 803e 1425 adbe f559 eb3d 16f3 06be
000001c0: 73e6 a7be 9da9 6a3e cb8a b33e 9410 893e
000001d0: 9c32 293e 530d c83e 59f6 a73e b41e c0bd
000001e0: 1942 65be 1740 ac3e 76dc 713e 6d17 c2be
000001f0: a950 ca3e dca8 4b3e 88c6 19be bed6 863e
00000200: 4f2b d83e d6c2 08be 9371 8d3e 91f9 fc3d
00000210: 56c0 e83d 92f9 eabd ffe4 c1be 1700 4f3e
00000220: 465a d6be fc78 833e dd73 5cbd 5873 1ebe
00000230: e7de ccbd e0ea 8fbe 7ab4 cc3e a4dd 33be
00000240: 6742 4c3d 2d15 ecba 2b06 d5bd 362d 40be
00000250: c2d5 803d 92a9 1cbe ce50 353e eeed 2a3e
00000260: 5e33 143e 982b afbe bbb1 003e f5c9 d83e
00000270: 1ec5 9c3e d112 cd3e 587d 7abd cfb0 693e
00000280: 220e d33e d57e c23e c3e6 f83d 1980 063e
00000290: 16a3 b73c d5ab 1f3e 59d9 83be 9011 0fbe
000002a0: 5371 e23e 98f2 9e3e 2b19 e4be 8ebf e3be
000002b0: 5b6e 8b3e 537c 6bbe f7e8 c53d a631 ab3e
000002c0: 57d1 aa3c ba66 8abd ea0a b33e 4daf 453c
000002d0: b5aa ac3e a222 3e3d 51d5 e93d e7a5 db3e
000002e0: 5220 d23e 00a1 be3e ba39 b1be c153 693e
000002f0: 78f7 48bd bc58 b8bc d688 bd3e db06 5c3e
00000300: 2b03 2b3d 8dee ca3e f51e f6bd 5e3a 863e
00000310: 6dd4 94be de0d 913e fafc 03be 17c1 7fbc
00000320: 8412 443d 3adf dcbd 9ba2 303e 2856 cebd
00000330: 4d89 8ebe cc6f 903d cb1d a53e 4528 dfbd
00000340: cbc2 dd3e 98d9 d4be bf7b 64be 5c3a 263e
00000350: 64a7 03be a3be 3d3e e099 693e 0b5d 033d
00000360: 7d8e 283d 2a98 dd3e cebc b7be 8e28 97be
00000370: 59ba debd b7d5 98be 5713 8d3e 9008 d63e
00000380: 5303 943e 3fc5 47be 8ecd b53e cc1d 2abe
00000390: 48ca a53e 3833 78be 540f ed3d 2577 473e
000003a0: 1868 db3d b835 28be 52fb df3e 9144 393e
000003b0: 74d9 f5bd 1fea 913e a756 66be b610 863e
000003c0: 1616 553e 3cbd 853e 1d0f aebe 2477 b13c
000003d0: ae17 89be ac79 a0bd 349a a4be 3638 61be
000003e0: d1c2 dcbe 2feb d4be 7260 893d 8d1d 27be
000003f0: 006b 033e 27b0 873e 9fd4 d93e da1d 88bd
0.24021593 0.21096684 0.038366042 0.43068004 0.030994851 -0.095872894 0.08924747 -0.038915437
-0.31679174 0.29900837 0.20472868 0.33974662 -0.16147262 -0.13853124 -0.41064122 -0.4355092
-0.3543011 -0.32920375 0.14229453 0.28073597 0.21746852 -0.059775695 -0.4334539 0.15171781
-0.03112733 -0.09548808 0.15934567 -0.037333105 0.44626692 0.11459964 -0.3704143 -0.0540986
0.13016483 -0.31856892 0.37662858 -0.24501733 0.05258461 0.107383944 -0.058405794 -0.038230903
-0.20615436 0.33367753 0.0737001 0.24734955 0.3958731 -0.3684563 0.09000863 0.07487458
0.236799 -0.3246047 0.23930316 -0.29161698 -0.4104432 -0.3262936 0.290822 -0.26747975
-0.32072183 0.18629442 0.007984215 0.08561908 0.21154788 -0.42117795 0.2584098 0.042233743
-0.106053226 0.0038379196 -0.14414318 0.016034506 -0.33240902 -0.36284924 0.039138462 0.04296053
-0.38356882 0.16881466 0.12743321 -0.388435 -0.3936443 -0.13449863 -0.09246329 -0.21551064
-0.05495283 -0.049101986 -0.03410607 0.36757872 -0.22281696 -0.07040073 0.44078803 -0.0129632745
0.09192123 0.13329384 0.07272834 0.27921203 -0.40600732 0.27113754 0.03241985 -0.22285712
0.105437405 -0.14774694 -0.4083997 -0.14833665 -0.25938156 0.37592316 -0.03128521 0.22973625
-0.0750208 0.25135794 -0.3080056 0.3975535 0.25101042 -0.3381735 0.11491767 -0.13178667
-0.32793006 0.22916265 0.35066828 0.2677046 0.16523212 0.39072666 0.32805136 -0.09380856
-0.22388496 0.33642647 0.23619255 -0.37908497 0.39514664 0.19888633 -0.1501714 0.2633571
0.42220542 -0.13355574 0.27625713 0.123522885 0.1136481 -0.11473383 -0.37870023 0.20214878
-0.41865748 0.2567824 -0.053821433 -0.15473688 -0.10003453 -0.28108883 0.39981443 -0.17565018
0.049868014 -0.0018011682 -0.10401567 -0.18767247 0.06290771 -0.15299061 0.17706606 0.16692325
0.1447272 -0.34212947 0.12567799 0.4234158 0.30619138 0.40053418 -0.061154693 0.22821353
0.4122172 0.3798739 0.12153389 0.13134803 0.022416633 0.15592892 -0.2575176 -0.13971543
0.44227085 0.3104446 -0.44550452 -0.44482082 0.27232632 -0.22996645 0.09663575 0.33436316
0.020851774 -0.06757875 0.34969264 0.012065721 0.3372399 0.046419747 0.1141764 0.4290001
0.41040283 0.37232208 -0.34614354 0.22785856 -0.04906413 -0.02250325 0.3701846 0.2148699
0.041751068 0.39635125 -0.12017623 0.26216406 -0.29068318 0.28330892 -0.12889472 -0.015610001
0.04786922 -0.107847646 0.17249529 -0.10075027 -0.27839127 0.070525736 0.32249293 -0.10896353
0.43312678 -0.4157226 -0.2231283 0.162332 -0.12856823 0.18529753 0.22812605 0.032071155
0.041151512 0.43280154 -0.35886234 -0.29523128 -0.10875387 -0.2985055 0.27553818 0.41803408
0.28908786 -0.19508837 0.35508388 -0.16612929 0.3238089 -0.24238288 0.11575189 0.19479044
0.10713214 -0.16426742 0.4374643 0.18092562 -0.120043665 0.28498933 -0.22493993 0.26184624
0.20809206 0.26120937 -0.33995906 0.021663256 -0.2677588 -0.07835707 -0.32148898 -0.21994099
-0.43117383 -0.4158568 0.067078486 -0.16319866 0.12833786 0.2650158 0.4254503 -0.06646319

model.1.running_var f4 [256]
00000000: 737b 6a3e 9ae4 3d3e 0e08 e63e bf0b 1d3f
00000010: 9937 8c3e 473c 403e 5cab 043e fc73 913d
00000020: 6284 403e 9d5b e13e 9ed2 0c3e 439b fb3e
00000030: 1665 ac3e 0df2 963f 8c4c cb3d 913c 293f
00000040: ac58 6e3f 7c0e e53d 3ccf e23e 60f8 a13e
00000050: ef1f 793e 252f 2a3f a353 003e 7557 853d
00000060: f098 773f dec6 913e 967e 7e3f 3827 443f
00000070: 1608 0d3e 6c60 9e3e 2022 a23e e0e2 893e
00000080: 550f 8a3e 310e 633f dd90 1d3e 1e3a 4b3e
00000090: b6bd 5f3f a3f6 f13e 4117 d33e 6814 613e
000000a0: eea3 fc3d eb67 c33e 56c1 8b3e 4e8d 673e
000000b0: 015f cc3e 991a 2e3e b032 0b3f 3623 9e3e
000000c0: b5cf 243f b7cf 5c3f b5c0 103e 74a4 773e
000000d0: a101 403f fcc2 6f3e ad3a 503e 0fb6 4e3e
000000e0: eef4 8a3e 14b6 af3d fc68 043f 43c8 363e
000000f0: 3207 0c3f 316a fc3e ab02 283f d366 4a3e
00000100: 0d3b a03e 5b88 fa3d d0b7 883f 44b1 003e
00000110: 2825 803e c0fe 283e 07ba 893f a1cc 033f
00000120: 2637 ea3d 5dd6 d83e 1dfd a23e aad3 f23e
00000130: a65b 143f ea52 9a3e 6622 a23f d8e1 063e
00000140: 45ef 363e 5bf0 093f 77d7 333e a7ad b23d
00000150: 14cb e23e 36b8 9e3e eb62 d93e 3b25 f13e
00000160: 3fa0 ec3e eafb 2e3e 110f 203f e539 943e
00000170: 547e 513e 35be 063e 70f0 893e dee8 5a3f
00000180: 67bc 3e3e 76ba 2b3f 690a 4d3f 35af c93e
00000190: f2bc 383e d6e7 433f b6b4 e83e 4856 ab3d
000001a0: 10db 623f 1a2e f53d 9992 673f 77b3 193e
000001b0: 3017 283e 934d c13e f1fb 8d3f 6f83 9d3e
000001c0: 1570 ad3e 08c9 ac3d 9d84 393e 2445 a93e
000001d0: 1a90 f53e b08a 9f3e 8de1 5e3f b223 633f
000001e0: e54d ea3e 4f99 6a3e 5bfb a23e b4cb d33e
000001f0: cb7b d53e 2cf0 833e 7ae6 b23e e527 9b3f
00000200: e67b db3e f798 6c3f 961e 313f e3e2 073e
00000210: aece 3e3e 7a41 7b3e 8e9e 253e f987 cf3e
00000220: c257 c43e 0db7 793e 0c43 283e 8470 2b3f
00000230: 282f ac3e cb39 ed3d d471 dc3d 243d 183e
00000240: ab56 153f e03a ae3e e330 0b3f 4d90 ce3e
00000250: 958e 4b3e c447 743e 41fb bc3e 5bf9 863e
00000260: 21d0 993e bb2e 803d 583d 153e fcc2 453f
00000270: 7e63 333e 97c1 c03e cc25 323e 3f19 293d
00000280: 02e6 3e3f 78eb 243e 484f 293f 54d4 b53e
00000290: 117b 733e dac3 443f b8a9 973e 317e 153f
000002a0: ea12 6d3e 5db5 173e fe79 2c3e 2b25 313f
000002b0: a68a a13e 58a0 c63e 7938 463d 4def 5d3e
000002c0: 6b76 a63e e8fc a13d 9323 3b3f 0127 243f
000002d0: d4bb fc3e ba60 063e eede 363f 3fcb 593e
000002e0: a748 d73e ea7e d33e d249 4e3f 3baf d73d
000002f0: 9cf3 723f b636 3f3f c176 9e3f 6543 873e
00000300: 8982 373e a181 b73e 340f 243e 0e74 2e3d
00000310: aafd 223f ef19 f23d da0e 463e 229c 2f3f
00000320: 812d 4b3f 5cbb 863e 419c 463e acd3 8d3e
00000330: 701d 0c3f a788 303f 7855 9e3e 931f cf3d
00000340: e5d3 a13e 6f37 f93d 53b5 9d3e 00f2 b23e
00000350: bd8e 973e aea3 4f3e 2121 453f 133e 4a3f
00000360: 0829 d63e 075e 6a3f 9d47 973d 62bb 273e
00000370: 0ab2 093f 51d0 0f3e c870 253e 854e 543f
00000380: ee66 b33f 4748 0f3f 2497 983e af2c d13e
00000390: 065f 3b3e f8b5 443f 3369 403f 07a1 803d
000003a0: 8932 4a3e e104 033f 367f b33e 21d7 793e
000003b0: 023b 113e 9aac 673e bdc2 1b3e bdb7 073f
000003c0: 8938 403f b1bf 9e3e f6c5 f83d a1f7 de3e
000003d0: 2a2f 8a3e 62cd eb3e b1b6 1f3e 444d ad3e
000003e0: 351c 763e ecc8 f63e b38c 3f3f 4b43 243e
000003f0: 1b70 e13e 5b6d 4a3f c9f5 d83d 6f36 e83e
0.22898655 0.18544236 0.4492802 0.6134605 0.27386168 0.18772994 0.12955993 0.071022004
0.188005 0.44015208 0.13752219 0.49141893 0.33670872 1.1792618 0.099267095 0.6610804
0.9310405 0.11184403 0.44298732 0.31634808 0.24328588 0.66478187 0.12531905 0.06510822
0.9671774 0.28472036 0.99411905 0.76622343 0.13772616 0.3093294 0.3166666 0.26930904
0.26964822 0.8869353 0.15387292 0.19846389 0.8739885 0.4725848 0.4122868 0.2198044
0.123359546 0.3816522 0.2729594 0.22612497 0.39916232 0.17002334 0.5437422 0.3088624
0.64379436 0.8625445 0.14136012 0.24183828 0.75002486 0.23414224 0.20334883 0.20186637
0.27139992 0.085796505 0.51722693 0.17849831 0.5469848 0.49299768 0.6562907 0.19765787
0.31295052 0.12233039 1.0681095 0.12567621 0.25028348 0.1650343 1.0759896 0.51484114
0.114363 0.42351046 0.31833735 0.47427112 0.57952344 0.30141383 1.2666748 0.1317209
0.17864712 0.5388238 0.17562662 0.08724528 0.4429556 0.30999917 0.4245828 0.47098717
0.46216008 0.17088285 0.6252299 0.2895042 0.20458347 0.13158496 0.26941252 0.8551158
0.18626557 0.6708139 0.8009401 0.39391485 0.18040827 0.7652563 0.45450372 0.08366066
0.8861551 0.11971684 0.90458065 0.15009867 0.16415095 0.37754497 1.1092511 0.30764338
0.33874574 0.08436781 0.18116994 0.33060563 0.47961503 0.31160498 0.87062913 0.8872634
0.45762554 0.22910045 0.31832394 0.4136635 0.4169601 0.25769174 0.34941465 1.212155
0.42867965 0.92420906 0.69187295 0.13270144 0.1863353 0.24536696 0.16173765 0.40533426
0.38348204 0.24386235 0.16431826 0.6696856 0.33629727 0.11583289 0.107638985 0.14867073
0.5833537 0.34029293 0.5437147 0.40344468 0.1987861 0.23855501 0.36910442 0.26362118
0.30041602 0.06258913 0.14574182 0.7725065 0.17518422 0.37647697 0.17397231 0.041283842
0.74569714 0.16105449 0.661366 0.35513556 0.23777415 0.76861346 0.29621673 0.5839568
0.23151746 0.14815278 0.16843411 0.6919734 0.31551093 0.38794208 0.0483937 0.21673317
0.3251222 0.07909566 0.73101157 0.64122015 0.4936205 0.13122836 0.71433914 0.21268938
0.42047617 0.41307765 0.8058139 0.105314694 0.9490297 0.7469286 1.2379991 0.26418605
0.17920889 0.35841087 0.16021425 0.042591147 0.6366831 0.11821353 0.19341603 0.68597615
0.7936631 0.2631482 0.19395544 0.27700555 0.5473242 0.68958515 0.30924582 0.10113444
0.31606975 0.12168776 0.30802402 0.34950256 0.29601088 0.20277283 0.77003676 0.7900097
0.4182818 0.91549724 0.07386706 0.16380075 0.5378729 0.1404431 0.16156304 0.8293231
1.4015787 0.5596966 0.2980281 0.40854403 0.18297967 0.7684016 0.7516052 0.062807135
0.1974584 0.5117932 0.35057992 0.24398471 0.14182666 0.22624436 0.15211006 0.5301474
0.75086266 0.31005624 0.12147133 0.435483 0.26989108 0.46055132 0.15597035 0.33848011
0.24034198 0.48200166 0.74824065 0.16041295 0.44030842 0.79073113 0.10593755 0.4535403

model.4.weight f4 [64, 256]
00000000: 45fc d63d 9478 2bbd 8bda 15bb 0866 04bd
00000010: 6dfa c3bd a722 ef3a 067d 153e aba9 0bbb
00000020: 8bc2 933d c52d c6bd 8a94 09bd 664a e93c
00000030: 8a40 aa3d 633f 973d ba8a c6bd 1482 c5bd
00000040: fe3d 1a3d 157e f0bd dac4 b2bd 2734 ff3c
00000050: 68c7 4bbd c014 3bbc 27bd 8b3d e12e f03d
00000060: 931f 86bc b446 e43c 818e abbc d7c9 113e
00000070: c295 a63d 0988 833d 4f8a 193d 0259 c13d
00000080: 04a0 0abd db61 c8bc b812 d03d 194b 52bd
00000090: 8ad0 9bbd cb53 453d 748d 863d 86a0 43bd
000000a0: f087 323c f905 df39 3441 80bc d513 ba3d
000000b0: 7fd8 b4bd b0c6 d63c a115 bcbd 5666 58bc
000000c0: ed4c eebd be81 623d 5b1f e83d bc66 e9bc
000000d0: d30b bebb 501a 083c 5635 57bc 5305 933c
000000e0: c245 95bd e8e2 2bbc b0ab b5bd 8e0c 65bd
000000f0: d61c eebd 212e ed3d 9018 90bd eed5 5f3d
00000100: 1a08 1e3d 1b36 bd3c c104 a63d b3e5 b4bd
00000110: cf80 e6bb 40d3 993d 8825 5d3d 5253 ac3d
00000120: 87a5 de3d 441e 373d 9c15 38bd f65a 01be
00000130: 7c1f deb8 6595 b23d cde4 27bd 6e43 4e3c
00000140: 451c 283c 03ae f6bb 2242 f5bc f7ab b03d
00000150: e6c9 90bc 4642 643d 9b65 153c 83b1 5e3c
00000160: a325 a03d 4a50 053d 5bb6 40bd f2b0 acbc
00000170: c6d9 603d 061e bdbc 0639 febd e1d4 82bd
00000180: db0e c5bd 3982 78bd 7146 2d3c 5a10 fcbc
00000190: fd52 cebc 5331 a63c 237f 6a3d 32ac a9bd
000001a0: 2c8f 3ebb bfde 9dbc de39 77bc f2ce b0bd
000001b0: 0d2e e63d 1231 79bd a1e8 b63d eff5 b1bc
000001c0: 7d71 d1bd 5aba d63d 5ab2 973d 0260 76bd
000001d0: 52a7 373c 6c6e 90bd 47bb cdbc c6d3 b3bd
000001e0: 6eff c7bc df94 d3bd 4fff ae3d 4997 f33d
000001f0: 965d e93d d03b 31bd c73e 9b3b 821f 793c
00000200: 72ac 8e3d 5172 ac3c 7d3e 88bd ef7d 83bd
00000210: 09a7 6abd 68d9 bb3c 16b2 0b3c 9910 95bd
00000220: c994 013e 2db1 7dbd f20b 973c 1440 7cbd
00000230: a85f 98bd 1fb0 c9bd 5f90 b43d 828f 51bd
00000240: ac0b d63d 3908 03bd 4b58 10bc 5aaa 08bd
00000250: 20ad 6b3d f230 26bd 16e0 94bd ef7a 103d
00000260: 5ee0 ba3d 9e73 c2bd cdc6 da3c 2436 c43c
00000270: 0fe8 8ebd fd10 fe3d 7a55 d7bd c446 bf3d
00000280: ccd2 803c 53e0 e8bd dc6a b23a 3d8d e13d
00000290: 4060 0b3d b883 d33c 6fab be3d e712 773d
000002a0: 4ed7 b93d b471 073d 2817 de3c d102 df3d
000002b0: fa9d 203d e247 5e3c 4352 8ebd d24a 7fbc
000002c0: 9115 1cbc 425a 97bd 5f98 8d3c 49aa db3d
000002d0: 548e 87bd 21cf 893d 3198 03be 448a 863c
000002e0: c5f3 63bc eecc e93d 203f 903d becc a93c
000002f0: 2e56 0ebc 1749 5bbd 2511 a13c 619f a6bd
00000300: be04 9b3d e67e ddbc 3720 303d dba1 c53b
00000310: 425a 883d e1f6 d53d 678b 14bc ce43 e4bd
00000320: b890 0b3e ec39 37bd edde 57bd 770c df3d
00000330: 51bf a5bd 3076 dabd 49d0 cbbd cde1 d4bd
00000340: 2f09 833d c5c8 fdbc e838 623d a4ad b43d
00000350: bdc2 c73d de60 803c 24c6 2f3d f7a4 f03d
00000360: 9e9d be3d 0047 d0bd 42da e0bc cebc 813d
00000370: dc7a 873d cc28 c0bc c092 1dbd c0fa ea3d
00000380: fadb 5dbd 0da9 313b 328c 803c 7310 f73c
00000390: 10c0 92bb 38bc b83d 87e9 d13d af2f 013e
000003a0: 728b 303c e342 7c3d fdc1 d53d ddf8 2c3c
000003b0: c219 49bd 1724 8b3c 197f ad3c 4f47 b43b
000003c0: ad61 eb3d fbe2 193d 2578 c73d f905 7bb9
000003d0: af40 2a3d 40b5 8abd 09a0 d73d 7897 e6bd
000003e0: 58d4 bf3d f4d7 b93d 09df e73d a970 25bd
000003f0: 5674 f7bd 431f 803d fa11 4fbc c68b 843c
0.10497335 -0.04186304 -0.0022865857 -0.032323867 -0.09569249 0.001824458 0.14598474 -0.0021310847
0.072148405 -0.096766986 -0.033588924 0.028477859 0.08313091 0.07385137 -0.09694429 -0.09643951
0.037656777 -0.11742798 -0.08728953 0.031152798 -0.049750715 -0.011418521 0.06823187 0.117276914
-0.016372478 0.027865745 -0.020941975 0.14237152 0.08134033 0.06422431 0.037485417 0.09440805
-0.03384401 -0.024460724 0.1015982 -0.05134115 -0.07608135 0.048175614 0.06569949 -0.04776051
0.010896668 0.00042538324 -0.015656091 0.09085814 -0.08830356 0.026217788 -0.09183813 -0.013207993
-0.11635766 0.055299513 0.113341056 -0.02849137 -0.0057997494 0.008307055 -0.013135275 0.017946875
-0.07288696 -0.01049111 -0.088706374 -0.055920176 -0.11626594 0.11581064 -0.07035935 0.05464738
0.038581945 0.023097089 0.081063755 -0.08832874 -0.007034398 0.07510996 0.05399087 0.084143296
0.108714156 0.044706598 -0.044942483 -0.12632355 -0.00010591649 0.08719901 -0.040989686 0.012589319
0.010260646 -0.007528068 -0.029938761 0.0862655 -0.017674398 0.055727266 0.009118463 0.013592127
0.07819679 0.032547273 -0.047048908 -0.021080468 0.054895185 -0.023085605 -0.1241322 -0.0638826
-0.09621974 -0.060671065 0.010575877 -0.030769516 -0.025186056 0.020287191 0.057250153 -0.08284797
-0.0029077036 -0.019271253 -0.01508948 -0.08633222 0.11239252 -0.060837813 0.08931089 -0.021723716
-0.10226724 0.104847625 0.07407065 -0.060150154 0.011209326 -0.07052311 -0.025113715 -0.08780627
-0.02441379 -0.10331129 0.0854479 0.1189409 0.11394803 -0.043269932 0.0047377083 0.015205266
0.06966485 0.021050604 -0.06652544 -0.06420504 -0.057288203 0.022930816 0.008526346 -0.072785564
0.12654413 -0.061936546 0.018438313 -0.061584547 -0.0744012 -0.098480456 0.08816599 -0.05116225
0.10451445 -0.031990264 -0.008810113 -0.033365585 0.05753815 -0.04057402 -0.072693035 0.03527349
0.09124826 -0.094947085 0.026706124 0.023951598 -0.069778554 0.12405584 -0.1051435 0.09339669
0.015725516 -0.113709114 0.0013612169 0.11013267 0.034027338 0.025819644 0.09310042 0.06032076
0.09074269 0.03306742 0.027110651 0.10889209 0.03921316 0.013566943 -0.06949284 -0.015581803
-0.009526626 -0.07390262 0.01728457 0.10725839 -0.06618944 0.0672896 -0.12851025 0.016423352
-0.0139131 0.1141604 0.0704329 0.020727511 -0.008687539 -0.0535365 0.019661495 -0.08135868
0.07569264 -0.027038049 0.042999472 0.0060312576 0.0665784 0.10447479 -0.009066439 -0.11145745
0.13629425 -0.044732973 -0.052702833 0.10891049 -0.08093131 -0.10667074 -0.099518366 -0.103946306
0.06398236 -0.030979523 0.05523005 0.08822182 0.0975394 0.01567119 0.04291357 0.117502145
0.09307407 -0.10169792 -0.027447823 0.0633484 0.066152304 -0.023456953 -0.03847003 0.11473608
-0.054164864 0.0027108819 0.01569185 0.03015921 -0.004478462 0.09020275 0.1024962 0.12615846
0.010775434 0.061587226 0.10437391 0.0105573805 -0.04909683 0.016984982 0.021178769 0.0055016647
0.114932396 0.03756998 0.097397126 -0.0002393945 0.041565593 -0.06772852 0.10528571 -0.11259359
0.09366673 0.09074393 0.113218375 -0.040390644 -0.12082736 0.06255963 -0.012638563 0.01617993

model.4.bias f4 [64]
00000000: ffea 803d acaf af3c ffb7 53bd e0ca 693d
00000010: 6073 15bd cba7 cebb c32a 61bd 6c08 cc3b
00000020: fe45 b43c 785c 033d e4d1 83ba 1952 373d
00000030: 4303 04bd c5c0 13bd c444 063c f8ee 403d
00000040: 9121 523d c3dc aebc c852 8e3c e67d 603d
00000050: 3962 ba3a d02a 7ebd 9bcb 23bd c2d3 85bd
00000060: bbb2 2bbd f46f db3b f7fb d7ba 0b2c 82bc
00000070: 27d3 2a3d cbff 663c a7b8 83bd 09b1 95bc
00000080: 63e6 753c c4bf ca3c 0847 353d 019b 5abd
00000090: 221b 5ebc f078 733d 934a 20bd 43fd ea3c
000000a0: 068f 033d 9fa6 a63c 2eb5 ac3b 8958 ec3a
000000b0: 39b5 2c3d 4f66 103d 28b1 ea3c 2776 6eba
000000c0: 3fcb 873c 8e9d 1abd 7ed3 a0bc bf39 48bd
000000d0: be03 39bc 7377 4e3d ff89 163b d9e0 643b
000000e0: 45ff 62bd fe75 523d d98b e3bc 080b 643d
000000f0: 212f bd3b 2ac2 543b 7686 783d cb49 09bd
0.06294822 0.021446072 -0.051689144 0.057078242 -0.036486983 -0.0063066236 -0.05497242 0.00622659
0.022006031 0.032070607 -0.0010057059 0.04475603 -0.032229673 -0.03607251 0.008195106 0.0471029
0.051301543 -0.021345502 0.017373458 0.054807566 0.0014219946 -0.062052548 -0.039989095 -0.0653453
-0.041918498 0.0066966955 -0.001647829 -0.015890142 0.041705277 0.014099072 -0.06431704 -0.018272894
0.015008542 0.024749644 0.044257194 -0.05337048 -0.013556274 0.059441507 -0.03913362 0.028685218
0.03211882 0.020343123 0.0052706217 0.0018031757 0.042165015 0.03525382 0.028648928 -0.00090965856
0.016576407 -0.037747912 -0.019632097 -0.048883196 -0.011292396 0.050406884 0.0022970436 0.0034924059
-0.055419225 0.051382057 -0.027776645 0.055674583 0.0057734405 0.0032464364 0.060675107 -0.03351764

model.5.weight f4 [64]
00000000: 2229 7c3f a85c 673f bb51 773f 7e39 573f
00000010: 571c 893f 2437 8c3f 58a3 7b3f 5613 843f
00000020: 6e81 913f b4ef 6b3f cfc8 803f 612b 6b3f
00000030: 92ad 873f f9d9 583f 8ace 663f 92fe 8d3f
00000040: 19f2 6c3f 086b 723f 0f6f 823f d5d3 803f
00000050: dae0 703f aed3 893f 3f9f 7b3f d69d 673f
00000060: 6cd3 813f 12ea 893f 788e 9f3f 279a 6d3f
00000070: b13f 673f ef33 843f 68b0 803f c71c 6a3f
00000080: 2cc3 7a3f 45c8 8f3f 1b96 673f c6c7 8d3f
00000090: 74fc 6c3f 1d75 5b3f 8650 853f fdc3 7c3f
000000a0: 1a8c 783f 1e2c 843f 43cd 893f f38f 523f
000000b0: 0d5c 853f ecc2 703f 031a 743f 7c94 8c3f
000000c0: 354e 7a3f 097a 523f d519 6d3f 9dac 863f
000000d0: a588 683f cf9d 8c3f 1d6c 853f f8c5 8a3f
000000e0: f15b 863f 07cb 743f 46eb 923f 28a7 733f
000000f0: 38f0 8b3f 72e8 883f 986b 823f 9794 673f
0.98500264 0.9037576 0.96609086 0.840721 1.0711774 1.0954328 0.9829612 1.0318401
1.1367624 0.9216263 1.0061282 0.91863066 1.0599844 0.847076 0.90158904 1.1093314
0.9255691 0.94694567 1.0190142 1.0064646 0.94093096 1.0767725 0.98289865 0.90475214
1.0142646 1.0774558 1.2465353 0.9281334 0.9033156 1.0328349 1.0053835 0.9145016
0.9795406 1.1232992 0.9046342 1.1076591 0.9257271 0.85725576 1.0415199 0.98736554
0.9708878 1.0325963 1.0765766 0.822509 1.0418717 0.9404743 0.9535219 1.0982814
0.97775584 0.8221746 0.9261754 1.0521427 0.90833503 1.0985659 1.0423619 1.0841665
1.0496808 0.95622295 1.147805 0.95176935 1.0932684 1.0695937 1.0189085 0.90461105

model.5.bias f4 [64]
00000000: 4c5f 0cbd e16f 16be 9e44 073d 69c3 a9bd
00000010: e898 8dbd ae8f dcbd 95ca 48be 0335 34bc
00000020: d953 3ebe bc34 88bd d684 68bd 7677 cebd
00000030: 2f0d 2ebe e909 57be 3ad5 18bd 2e9c 45bd
00000040: 7248 d0bd 6650 ffbc 1361 ea3a f7bf 403d
00000050: 1247 9bbe 361d 87be f72e 04bd 9542 36be
00000060: c6b1 6fbe d51d 9c3d 4361 97be 43a9 95be
00000070: ab20 79be 7468 663c 51c2 60be ff41 77be
00000080: c23e 773c 4ae1 dabd e6f3 1fbe 3652 ca3d
00000090: f5aa 413c fe0a 0abe 139b 35bd ea47 cebc
000000a0: e73b 09be 074b 483d 39b9 5b3a 2dc8 94bd
000000b0: 92bb f43c 956c a3bd 585e 3cbd 2210 a6bd
000000c0: a9f1 8bbb a2f8 0dbe ffa3 d2bd 0b87 8dbe
000000d0: cac9 21be 4215 98be b494 07bd 53cb 36be
000000e0: 6ff0 98bd 6844 0ebb df42 96be 8de3 963d
000000f0: 3153 91bc 8b4e 45be 3553 a13c 021c b2bd
-0.03427057 -0.14691116 0.033024423 -0.08289225 -0.0691393 -0.10769592 -0.19608529 -0.010998967
-0.18586673 -0.06650683 -0.056767307 -0.10081379 -0.16997217 -0.20999874 -0.037312724 -0.048244648
-0.10170068 -0.031166267 0.0017881714 0.047058072 -0.3032766 -0.26389474 -0.03227135 -0.17798837
-0.23407659 0.076228775 -0.29566392 -0.292307 -0.24328868 0.0140629895 -0.21949126 -0.2414627
0.015090646 -0.10687502 -0.15620384 0.09878962 0.0118205445 -0.13480756 -0.044337343 -0.025180776
-0.13401757 0.048899677 0.00083817873 -0.07264743 0.029874597 -0.07979695 -0.04598841 -0.08108546
-0.0042707515 -0.13864377 -0.10285186 -0.27642092 -0.15799633 -0.29703718 -0.0331008 -0.17851
-0.07467734 -0.0021708254 -0.29347894 0.073676206 -0.017739864 -0.19268243 0.019692997 -0.08696748

model.5.running_mean f4 [64]
00000000: f4b6 333f 16dd 413f b4ff cebe 961b 55bf
00000010: ad02 903e c442 2240 fab1 84bf 7207 20bf
00000020: 06c8 6240 38bb fdbf 3f8d 1ac0 57db 9a3d
00000030: 3d1c 943f edef 02bf ef5f bdbf a93c 2c40
00000040: 982b 1a3e d08c ce3e e3a7 4a3f c6e5 5c40
00000050: b8a2 9a3f 40ef 323f 6ead a3bf d2fc 07c0
00000060: aac4 ec3e 0afa 09bf e5ed 2040 3436 01be
00000070: e02f 13c0 4b5a 373f 90e6 dfbe 0d50 a13e
00000080: 9789 ebbc 2739 813f 3af4 8bbf eedc ff3e
00000090: 9e4f 0cc0 63ea 46bf 38fe e03e fa1f babf
000000a0: 8437 0cbf 19de 89bf 90f6 05bf df3c 18c0
000000b0: 3f1a 3cbf f0d2 46be 8004 e6bf 35f6 4d3f
000000c0: dc94 25bf 30fe 4ac0 c991 3bbe df39 8a3f
000000d0: a3f5 8cbf bc8c 3640 b902 6abe ee43 013f
000000e0: 71d1 623e c50f 9fbe d475 1a40 9c12 ba3e
000000f0: d1fc c43f d1fe 173f 302e 513d 5be4 253f
0.7020104 0.75727975 -0.4042946 -0.8324522 0.2812704 2.535325 -1.0366814 -0.6251136
3.5434585 -1.982276 -2.414871 0.07561367 1.1571118 -0.5114735 -1.4794902 2.6912024
0.15055692 0.40341806 0.79162425 3.4515243 1.2080908 0.69896317 -1.2787302 -2.124806
0.46243793 -0.53897154 2.51452 -0.12618333 -2.299797 0.7162215 -0.43730593 0.31506386
-0.028752131 1.0095567 -1.0933907 0.49973243 -2.1923594 -0.77701396 0.43943954 -1.4541008
-0.5477221 -1.0770904 -0.5232935 -2.3787153 -0.7347755 -0.19416404 -1.7970123 0.8045381
-0.64680266 -3.1717644 -0.18317331 1.0798911 -1.1012462 2.8523397 -0.22852601 0.5049428
0.22150208 -0.3106672 2.4134417 0.36342323 1.5389653 0.59373194 0.05106944 0.6480157
