saved_models/model.pth (torch, 101746 bytes, 37 tensors)

model.0.weight f4 [256, 5]
00000000: b930 f63e 183d 873d bff9 96be edc4 863e
00000010: 4a7e b0be 8029 c3be 64fe 943e 7718 97be
00000020: d5c9 b3be eae4 c73d a334 6b3d c190 343c
00000030: a821 fb3e 6432 8bbc 3e80 a9be 2f44 d4be
00000040: 6d91 b3be 17a8 d6be 3a12 e5be 8c11 ccbe
00000050: 1aa7 8e3e 6cbe afbd a419 d8be 5000 553d
00000060: 9f7c 9dbe c2b3 7c3d 3611 3c3e dba5 05be
00000070: 4a66 b93e bd48 1bbe 821c 1f3d 7186 dd3e
00000080: 3081 5c3e 1b44 a1be 4ff2 91be 7008 023e
00000090: c949 c1bd 7d18 a73e 301e a83d af55 c6bd
000000a0: 4d8c babd 862d a1bd ff39 3bbe f7db f9be
000000b0: 87d3 843e 6ece 22be d987 b23e 000a bc3e
000000c0: a9bc 353e 2311 97be 5c84 ab3d 20f1 cc3e
000000d0: 6cd1 40be 7b8b af3c ba03 acbe 2205 7b3e
000000e0: 56f0 8f3d ff7f cbbe 19ed 1a3b 3969 36be
000000f0: 7119 0cbe 38b2 cd3e 2740 d93e b4ea 493e
00000100: aaec 903e 363a 8f3e e1b6 dabc 5724 4d3e
00000110: 602a e6bd e83f 19bf 3a78 dbbe 1d74 963e
00000120: dcd8 8bbe 163e 72be 593d 2f3e d49e ff39
00000130: d67e bebd 82f5 6b3e 2f3b 87bd be22 f6be
00000140: 2485 cd3e 6d92 16be a419 b1bd 0d9e 10be
00000150: 79ab 42be 49a0 2a3e ec5c 9bbe 06ae ab3e
00000160: be49 c33d ecff 01bf 5a5b c3be dfd4 e63d
00000170: c24c 92be 19b1 013d 731a 87be 3711 e13e
00000180: 76a3 ecbe 113f 8f3e cf9d b63e d9b2 043e
00000190: 2f57 d2be fdf5 f9bd 2103 fe3d 1626 32be
000001a0: e27f b33e 4f25 033f f2b1 afbe 6c0e 103e
000001b0: ec61 443e 51a3 a0be 8ede 23be 50be a33e
000001c0: 2f18 ed3d d403 3bbd f4a6 783e 41d6 9ebe
000001d0: 6a71 9b3e e51d 7dbe 00b3 e6bd bcff ff3e
000001e0: 85c3 acbe 931d ddbd 0a7a 223c 00d8 8f3e
000001f0: 26a2 bf3e 701a 823e b5bc 2dbe 8c91 663e
00000200: d145 3c3e be25 41be 065c cebe 1d70 b4be
00000210: bc46 6d3e 7959 6f3e 1e90 bc3d 0c69 6fbd
00000220: 6c65 c9be c159 213e 88ba 63bd 6abc 22bc
00000230: 909a eb3d 49c3 8a3e 66e2 02bf 839e eebd
00000240: a744 9abd 20dc 21bd 25a1 ab3e 4541 ccbd
00000250: ffc6 08be 464a 8fbe bdea a7be 4782 ba3e
00000260: f215 9e3c 5985 3a3e e2e1 35bd 58db a5be
00000270: b4a1 02bd e2fa 993e d152 ddbe 2b7d cf3e
00000280: 5648 a13e b73e c6be 9212 493e 7815 f53e
00000290: 0b92 b7bc 0b8e aebe 68b8 8b3e 44c4 debd
000002a0: 260b ba3d dcfd d1bd 2588 f2be b50e debd
000002b0: 7d3f 50be dafa 183b 980d 6a3d cb37 12bd
000002c0: 8ce8 1a3e 5d8b a33d 2baa e53e 724c a23e
000002d0: f45f a7be f6e7 88be fd23 88be 04b8 fa3e
000002e0: 6e85 823d 4ca0 d33d 38c4 4fbe 6d18 863e
000002f0: a296 743d c59b 9bbe d67f 97be 70e7 9bbe
00000300: 455f 4d3e 1673 c7be bba2 20bf 953b b9be
00000310: a7a7 21be e924 4e3e 51bd aabe ee00 c6bd
00000320: faba 81bd c64f 473e 4b6b f8be ec43 83be
00000330: 96b8 c8bc b2ae babe a103 583e 0a71 db3b
00000340: ef1f 6ebe 03f2 4d3e 5cc1 c83e 977e 913e
00000350: 206e 5bbd e330 e43e 2581 8cbe 4417 313d
00000360: 61aa f13e a044 9abe ecf9 ecbd 142a 92be
00000370: 34b9 0a3e 6998 b53e f310 5b3e ae0d c93e
00000380: f969 a03e 5261 ef3b 145c e83e d8d1 053e
00000390: 86b3 dd3a cdfd 203e 7e3f 91be 775e 04be
000003a0: bb31 26bd c023 773e 4e66 643e a5c6 603e
000003b0: 9798 e2bd 5825 d03e a820 af3e aa20 8abe
000003c0: 149e 023c c04a 8e3e feef 6cbe 9cf1 72be
000003d0: bdd4 91bd 8990 f3bd bf93 96bd bc81 a4be
000003e0: 6e20 dc3d 9ec7 79bd fd6c c13e cfcb bebe
000003f0: c0f8 70be c207 8b3e 34d3 cd3e 7721 88be
0.48084047 0.066034496 -0.29487416 0.26322117 -0.3447135 -0.381176 0.29100335 -0.29510853
-0.35114923 0.09760459 0.057423245 0.01102084 0.49049115 -0.016991802 -0.33105654 -0.4145827
-0.3507189 -0.41925117 -0.44740468 -0.39857137 0.27861863 -0.08581242 -0.42207062 0.05200225
-0.3075914 0.061694868 0.1836594 -0.1305155 0.36210853 -0.15164466 0.038845547 0.43266633
0.21533656 -0.31497273 -0.2850518 0.12698531 -0.094379015 0.3263587 0.08208883 -0.096843116
-0.091087915 -0.07870011 -0.18283843 -0.48800632 0.25942633 -0.15899059 0.3486927 0.3672638
0.1774775 -0.29505262 0.08374855 0.40027714 -0.18829888 0.021428814 -0.33596593 0.24513677
0.07028262 -0.3974609 0.0023639856 -0.17813577 -0.1368158 0.40175033 0.42431757 0.19718438
0.2830556 0.279741 -0.026698532 0.20033394 -0.11238551 -0.5986314 -0.42865163 0.29385462
-0.27313888 -0.23656496 0.17113246 0.00048755726 -0.09301536 0.23042873 -0.06603085 -0.4807338
0.4014064 -0.14704295 -0.08647469 -0.14122792 -0.19010724 0.16662706 -0.3034433 0.33531207
0.095355496 -0.5078113 -0.38155633 0.11271071 -0.28574187 0.031663034 -0.26387367 0.43958446
-0.4621846 0.27977803 0.35667273 0.1295885 -0.4108214 -0.12205122 0.124029405 -0.17397341
0.35058504 0.51228803 -0.3431545 0.14068002 0.19177979 -0.313746 -0.16002867 0.31981134
0.11576878 -0.045657948 0.24282438 -0.31022838 0.30359966 -0.24718435 -0.1126461 0.49999797
-0.3374292 -0.107966565 0.009916792 0.28094482 0.37428397 0.25410795 -0.16966517 0.22516459
0.18386008 -0.18862054 -0.40304583 -0.35241786 0.23171514 0.23373975 0.09207176 -0.05844979
-0.3933519 0.15756895 -0.055597812 -0.009932617 0.1150409 0.27102116 -0.51126707 -0.116513275
-0.07532626 -0.03951657 0.3352138 -0.09973387 -0.13357161 -0.27986354 -0.3279628 0.3642752
0.019297574 0.1821493 -0.04440487 -0.32393909 -0.031892493 0.3007422 -0.43227246 0.40525183
0.315005 -0.38719723 0.1963599 0.47867942 -0.022408506 -0.34092745 0.27289128 -0.108772784
0.09084158 -0.10253498 -0.47369495 -0.10842649 -0.20336719 0.0023342879 0.05714187 -0.03569774
0.15127772 0.07985566 0.4485639 0.31698948 -0.32690394 -0.26739472 -0.26589957 0.48968518
0.06373106 0.103333086 -0.20289695 0.2619051 0.059713967 -0.3039228 -0.2958972 -0.3045001
0.20055874 -0.3895499 -0.62748307 -0.3617827 -0.1578661 0.20131268 -0.33347562 -0.09668146
-0.06334491 0.19464025 -0.48519358 -0.25637758 -0.02450208 -0.36461407 0.21095134 0.006696825
-0.23254369 0.20111851 0.39210021 0.28416893 -0.05357182 0.44568548 -0.2744228 0.04323508
0.472003 -0.30130482 -0.11571106 -0.28547728 0.13547212 0.35467842 0.21393184 0.3926825
0.3133085 0.0073053027 0.4538275 0.1306833 0.0016914464 0.15721817 -0.28368753 -0.1292666
-0.04057477 0.24134731 0.22304651 0.21950777 -0.110642605 0.4065349 0.34204602 -0.26978046
0.007972259 0.27791405 -0.23138425 -0.23724979 -0.07120655 -0.11892802 -0.07352399 -0.3213023
0.10748373 -0.060981385 0.37778464 -0.3726487 -0.2353239 0.27154356 0.40200198 -0.26588032

model.0.bias f4 [256]
00000000: d8a2 193e b43c e93d fa94 5c3e 7bef 4abe
00000010: 21a3 073d 18ee 103e 3317 babe cd3a 7cbe
00000020: fa53 5cbe 85c6 26be b1c5 bb3e 6f22 083e
00000030: b029 bfbd 693b c5be 1b56 b4be 5dcd 9b3e
00000040: 1c4c bcbe 0885 d2bc cbe6 ca3e 36ec 05be
00000050: 3a32 8e3e ebc1 c6bc bace 13be 4d90 303e
00000060: ae83 293d 7859 03be a8ad 2e3c 0914 2d3e
00000070: 72b5 4b3e f30f 43bd 44de a9be c9b8 9ebd
00000080: 88df 873e a554 de3e 2f9d c23e 9719 2f3e
00000090: 6fdf d6bd e992 78be a5c2 d9bb 25b2 94be
000000a0: 1daa 813c e551 d43d cc8a 7fbe 6526 603e
000000b0: b77c c93e af4b 75be f661 97bd a729 c6be
000000c0: 8418 bf3e 9f7b 973e 90c8 9f3c fbc4 16be
000000d0: 5e81 8abe cfe5 533d 7e85 d4be 7b37 10be
000000e0: a605 af3c d332 d1be 1bbc 04be 80c0 cd3e
000000f0: e356 c23e 6eed 2ebe 80ac aa3e b21c a33e
00000100: ba1e 4ebd 346f 05be d184 b93e 281d c63e
00000110: 7653 55be 6bca a2bc eab0 da3e 1d8b 9abe
00000120: 5a6f a93e 2a16 ab3e 8d19 c83d aae2 19be
00000130: e043 b23e 56de 563c 4b92 bf3e f199 a1bd
00000140: f6f4 11be bc54 73bd 10ec 873e cd8e 1abe
00000150: 4156 84be 1810 d4b9 f101 a5bd bc64 663e
00000160: 1967 cf3d 287d 073e 5e6b 9c3e 535e 263e
00000170: ae75 debe 5688 c9be 996e 3b3e c764 9ebe
00000180: a5b8 563e 6315 413e 4de4 7b3e aab5 8abe
00000190: 06ab 4fbd f9f1 efbd 7472 87be 5cf7 2b3e
000001a0: a9c8 753e ba93 8ebc 05c2 61be 1d10 eb3d
000001b0: dcbc 27be 60a1 a2be 734f 5d3d e130 c33e
000001c0: 7787 d73e acc7 8cbe 1772 383d 6114 a13e
000001d0: f7ae 633b fabc debe 1823 993e 9998 71be
000001e0: 537c 9c3e 96b8 8d3d 2819 df3e 759d d4be
000001f0: 37a1 53be 5974 96be fac0 debe 6b22 d5be
00000200: 744e c23e 441a df3d bd32 90be 03c4 aebe
00000210: 65fe bb3e 6a1c 823e 4f91 8e3e 8530 5abe
00000220: db26 70be 15f9 993e be72 913e c50d 8f3d
00000230: 1443 7c3d 43a0 dbbe be91 d0be a9f4 2dbd
00000240: 172b 8bbd 1abb 7cbe 372f 253e bd18 b03b
00000250: c03c 54be 91f9 27be b687 9ebe 71dd a9bd
00000260: 0be5 2e3d 13b5 62be 5831 2c3e 34bf 7bbe
00000270: 5136 c4be ef5e ab3d ba1b 07be d95a bbbe
00000280: 4fc6 9fbb ae3a 22be cdf7 833e df44 c6be
00000290: 42d2 b3be 3e9c c83e 7492 34be 9ae8 35be
000002a0: 4420 b53e 5666 dabe bceb 613e 2957 1f3e
000002b0: 1e12 023e d97a d2be 72aa dabe 7bdb 103d
000002c0: d1e0 8b3e 50a1 383e e428 ed3d b63d d73e
000002d0: 0ff9 dbbd 807c db3c 1c74 86be 0870 883d
000002e0: 4cfe 833e 7516 22be 86a1 12be 6753 3a3e
000002f0: 7945 0dbe bcc0 b0be ae36 c2bb 6375 913e
00000300: 82a7 753e 20e4 b13e 5fc9 d93e e09f 03bd
00000310: ccbe 35be d8c3 9abe c826 803e 51f3 8abe
00000320: 4bad e4be 5732 d43e c57d c3be 97fc 4b3e
00000330: d0f5 b3be 0b70 7ebe ffd7 23be 06e6 973e
00000340: db97 cdbd 80fe 1dbe 7c45 a43d 0235 c5be
00000350: 7327 17be 4d49 3fbe 3184 ad3e a63a 94be
00000360: c42c 943e 192d abbe 9f0c 7abe 2c8e 0e3e
00000370: 7a1d debe fe43 a9bc 3996 35bd 0b9f d9be
00000380: 2daa 803e 1084 4b3e 3add a93e c4c8 873e
00000390: 006c 12bd 5d39 1e3e 83a4 b4be 66ba ba3e
000003a0: c46a 98be 1d4b 9cbd 40f6 213e bee3 06be
000003b0: 6662 f83b a813 793d d9c1 cbbe 9cef ea3d
000003c0: d08d 9bbe 82d8 b43e 1b60 8b3e 5a1f 09be
000003d0: 5156 8fbe 5c0f 4cbe 17d6 82be 43d5 68be
000003e0: accb 953e 0b47 9c3c 9e7d 903e 352d d23d
000003f0: 6df8 74be 7568 dc3e 6d8a d33c f722 11be
0.15003526 0.11388531 0.21541205 -0.19817917 0.033114556 0.14153326 -0.36345825 -0.24631806
-0.2151641 -0.16286667 0.36674264 0.13294385 -0.09334123 -0.3852189 -0.35221943 0.30430117
-0.36776817 -0.0256982 0.39629206 -0.13078389 0.27772695 -0.02426239 -0.14434329 0.17242546
0.041385345 -0.12827098 0.01066152 0.16902174 0.19893435 -0.047622632 -0.33177388 -0.07750089
0.26537728 0.43423954 0.38010547 0.17099606 -0.10491835 -0.24274792 -0.006645518 -0.29042163
0.015828187 0.10367183 -0.2495529 0.21889646 0.39352962 -0.23954652 -0.073917314 -0.38703653
0.3732339 0.29586503 0.019504815 -0.1472358 -0.27051824 0.051732834 -0.41508096 -0.14083664
0.021364998 -0.40859088 -0.12962382 0.40185928 0.37956914 -0.1708276 0.33334732 0.3185783
-0.050322272 -0.13030702 0.36234143 0.3869412 -0.20832619 -0.019871911 0.427131 -0.3018426
0.33092767 0.33415347 0.097704984 -0.15027872 0.3481741 0.013114532 0.374163 -0.0789069
-0.14253601 -0.05940698 0.2654729 -0.15093537 -0.25847057 -0.00040447782 -0.08057011 0.22499365
0.10127086 0.13231337 0.30550665 0.1624692 -0.43449157 -0.3936183 0.18303908 -0.30936262
0.20968874 0.18855815 0.24598809 -0.27091724 -0.05070021 -0.117160745 -0.26454508 0.16793579
0.24002327 -0.017404426 -0.22046669 0.11477683 -0.16380638 -0.31763744 0.054030847 0.3812323
0.4209554 -0.27496088 0.04503068 0.3146086 0.0034741738 -0.43503553 0.29909587 -0.23593368
0.30563602 0.069199726 0.4357388 -0.4152638 -0.20666967 -0.2938564 -0.43506604 -0.4162782
0.3795048 0.10893682 -0.2816371 -0.3413392 0.36717525 0.25412303 0.27845237 -0.21307571
-0.23452322 0.30072847 0.28407854 0.06985048 0.06158741 -0.42895707 -0.40736192 -0.042469654
-0.06795328 -0.24680749 0.16131292 0.005374043 -0.207263 -0.16403796 -0.30962914 -0.0829419
0.0426989 -0.22139387 0.16815698 -0.24584657 -0.3832269 0.083677165 -0.1319417 -0.3659275
-0.004875935 -0.15842697 0.25774994 -0.3872442 -0.3512135 0.39181703 -0.17633992 -0.17764512
0.3537618 -0.426562 0.22062582 0.15560593 0.12702224 -0.4110935 -0.42708164 0.035365563
0.2731996 0.18030286 0.11580065 0.4203927 -0.107408635 0.026792765 -0.2626046 0.06661993
0.2577995 -0.15828879 -0.14319429 0.18195878 -0.13796033 -0.34522045 -0.0059269285 0.2840987
0.2398968 0.34744358 0.42536446 -0.03213489 -0.17748564 -0.30227542 0.25029588 -0.2713876
-0.44663462 0.41444656 -0.38181892 0.19920574 -0.35148478 -0.24847429 -0.16000365 0.2966768
-0.1003873 -0.15429115 0.080210656 -0.38517004 -0.14761142 -0.18680306 0.33889917 -0.28950995
0.28940403 -0.33432844 -0.24418877 0.13921422 -0.43381864 -0.020662304 -0.044332717 -0.42504153
0.25129834 0.19874597 0.33176595 0.2652036 -0.035747528 0.1545157 -0.35281762 0.36470336
-0.29768956 -0.07631514 0.15816593 -0.13172814 0.0075800894 0.06080976 -0.39796332 0.11471483
-0.30381632 0.35321432 0.2722176 -0.13390866 -0.27995542 -0.19927734 -0.25553963 -0.22737603
0.29256952 0.019076845 0.28220838 0.10262529 -0.23922892 0.43048444 0.025822842 -0.14173494

model.1.weight f4 [256]
00000000: fd62 513f b319 753f e346 673f 2f9b 493f
00000010: 7a8d 673f 8be1 863f 430e 853f 2ac2 583f
00000020: 949b 753f 061f 853f d7e3 753f dba7 6d3f
00000030: 4f47 853f 8d51 783f c7ef 6f3f e1b6 7a3f
00000040: 2651 843f 52de 6e3f 53d0 6d3f 0ccd 823f
00000050: b68c 933f 4993 623f e519 753f aa6a 843f
00000060: 2b2c 8a3f 93ba 693f 57ce 693f b288 7b3f
00000070: 1f4f 8a3f 20a4 6c3f 92dd 843f 793b 893f
00000080: 4feb 8a3f 4f33 893f 3a9d 823f 18e8 6c3f
00000090: da38 8d3f e8a0 5d3f 1078 823f c557 873f
000000a0: 4d2e 923f fd4c 863f 96d4 8c3f 0b9e 8b3f
000000b0: 9818 703f dc05 893f 0eef 723f 02ee 743f
000000c0: dc80 873f 7d1a 803f dd0a 863f 09c4 883f
000000d0: 1cd7 653f 6494 893f d192 833f def6 703f
000000e0: 8db2 7d3f 38d6 963f d5cc 8f3f 83f7 693f
000000f0: 2afc 973f 0dd8 713f 5c91 553f 5a25 853f
00000100: cd4f 7f3f 5814 8a3f bbd6 7a3f c5cf 8b3f
00000110: 57df 8f3f 6160 8f3f 4743 733f d213 673f
00000120: c77d 883f 9f31 5c3f 2bef 6b3f 9732 6b3f
00000130: 76e4 7f3f d4f8 5b3f e1b2 863f abf3 663f
00000140: 12dd 833f bf51 8a3f 37f6 6c3f 913d 813f
00000150: 584e 563f f02e 943f 10e2 8c3f b04f 873f
00000160: 96a5 6c3f faf5 6f3f 4eb1 813f ec00 673f
00000170: f224 773f ab34 863f 3795 6c3f 2ad8 863f
00000180: 18e9 553f 2068 6a3f a9bc 833f eb16 773f
00000190: 4a12 893f 4307 823f 9549 733f f187 733f
000001a0: 5abf 873f 99d0 703f 980e 6e3f 91a4 863f
000001b0: d9d9 6d3f 4602 a53f 5b20 8a3f 5d18 893f
000001c0: 0e72 733f c53d 473f 4b69 753f d8d6 6e3f
000001d0: fcb4 7d3f 707c 773f 1b3b 7a3f a5d5 763f
000001e0: aa64 873f 4049 853f f462 833f 8788 843f
000001f0: ca93 873f 0fdf 723f c42b 893f 8e54 853f
00000200: 1143 8a3f b255 853f 16c2 4f3f 5176 823f
00000210: 1d5a 883f 0760 753f f4fe 793f 3aa5 563f
00000220: 6f21 873f 09ba 643f 3a7b 523f 7bd7 6c3f
00000230: 9a1d 893f 4fe2 633f cb18 873f 4a7f 943f
00000240: 772a 733f 9e0a 733f 40c9 643f 7476 853f
00000250: 6221 853f 424e 843f 2b50 7c3f 26b3 7f3f
00000260: f0bd 893f df39 873f d328 713f 5b95 873f
00000270: bf8a 693f d82f 5e3f 11bd 823f c878 6f3f
00000280: ddc1 6d3f 7524 833f 95ff 8a3f 690f 853f
00000290: 407c 6e3f f993 813f 6998 663f 2cbe 6d3f
000002a0: 10eb 883f 6378 853f f55e 7b3f 83a4 873f
000002b0: 62c9 783f e3fb 623f 40b3 733f ab79 853f
000002c0: 498e 6c3f a928 643f ee82 4c3f 4eaf 723f
000002d0: fddf 843f d645 7f3f 9df4 6f3f fa3a 873f
000002e0: 16be 683f 5254 693f b50d 813f 4ec1 8a3f
000002f0: 629d 873f b154 873f 3771 833f a531 833f
00000300: e589 7b3f 668a 6c3f 9373 833f 5833 883f
00000310: 9565 703f 669c 603f 6ede 783f ef40 793f
00000320: b27d 813f 5653 883f 3575 833f f980 863f
00000330: ca65 643f b951 873f 03b6 6c3f 12f9 703f
00000340: 40df 843f 9a64 853f d2c0 833f f0b2 773f
00000350: c60e 6b3f 74af 6e3f deab 6f3f fe7c 853f
00000360: 8731 663f 37c3 743f 2e43 773f 5222 7b3f
00000370: d172 873f 124b 863f 4c8d 6f3f 7545 883f
00000380: 7f11 853f 3903 843f 6b00 863f 6fbd 733f
00000390: 0b2a 813f 8dbe 8c3f fa2d 603f 4edb 713f
000003a0: 0e02 7d3f 3f9f 883f 9207 8b3f 6098 683f
000003b0: 1519 8a3f e402 7d3f c5ed 663f 8c6d 8d3f
000003c0: 6a14 533f 789b 643f 112c 8c3f 0030 6a3f
000003d0: 5e88 7b3f 3eb7 723f 9e82 513f f750 873f
000003e0: 5c87 703f beae 703f 0400 813f 9398 823f
000003f0: d701 a33f f45b 8f3f e33b 613f 3000 853f
0.8179167 0.9574234 0.9034254 0.78752416 0.9045025 1.053758 1.0394977 0.8467127
0.9594052 1.0400093 0.9605078 0.9283425 1.0412387 0.96999437 0.93725246 0.979353
1.0337265 0.93307984 0.92896 1.0218825 1.1527317 0.8850599 0.95742637 1.0345051
1.0794729 0.91300315 0.91330475 0.98255455 1.0805396 0.92437935 1.0380118 1.0721275
1.085306 1.0718783 1.0204232 0.92541647 1.1032975 0.8657365 1.019289 1.057366
1.142038 1.0492245 1.1002376 1.0907606 0.9378753 1.0704913 0.9489602 0.9567567
1.05862 1.0008084 1.0472065 1.0684825 0.89781356 1.074841 1.027918 0.9412669
0.9910057 1.1784124 1.1234385 0.913933 1.1873829 0.9447029 0.83424926 1.0402024
0.9973114 1.0787458 0.979839 1.0922781 1.1240033 1.1201288 0.9502453 0.9026462
1.0663384 0.86013216 0.92161816 0.9187407 0.9995798 0.85926557 1.052334 0.9021556
1.030184 1.0806197 0.92563194 1.0096914 0.83713293 1.1576824 1.1006489 1.0571194
0.92440164 0.93734705 1.0132234 0.9023578 0.9654075 1.0484823 0.92415184 1.0534718
0.835588 0.9156513 1.029195 0.96519345 1.0708706 1.0158466 0.9503415 0.95129305
1.0605271 0.94068295 0.9299102 1.0518972 0.92910534 1.2891319 1.0791124 1.071056
0.9509591 0.7782863 0.9586379 0.93296576 0.99104285 0.9667425 0.9774644 0.96419746
1.0577595 1.0412979 1.0264573 1.0354165 1.0591977 0.9487161 1.0716481 1.0416429
1.0801717 1.0416777 0.81155527 1.0192357 1.06525 0.9584965 0.9765465 0.83845866
1.0557078 0.8934637 0.8221928 0.925163 1.0712159 0.89017195 1.0554441 1.1601346
0.9498667 0.94938076 0.89369583 1.0426774 1.0400813 1.0336382 0.98559827 0.99882734
1.0761089 1.0564536 0.9420292 1.0592455 0.91227335 0.86791754 1.0213948 0.9354367
0.92873937 1.0245501 1.0859247 1.0395328 0.9315834 1.0123283 0.9007631 0.92868304
1.0696735 1.0427364 0.9819177 1.059708 0.97182286 0.886656 0.9519539 1.0427755
0.9240461 0.8912454 0.7988728 0.94798744 1.0380856 0.99715936 0.93732625 1.0564873
0.9091505 0.9114429 1.0082308 1.0840242 1.0594904 1.0572721 1.0268925 1.0249525
0.98257285 0.9239868 1.0269645 1.0640669 0.93905 0.87738645 0.972144 0.97364706
1.0116484 1.0650432 1.0270144 1.0508109 0.8921782 1.0571815 0.9246523 0.9413005
1.038063 1.0421326 1.0293219 0.9675741 0.9181942 0.9323647 0.93621624 1.042877
0.8991932 0.95610374 0.96586883 0.98099244 1.0581914 1.049166 0.93574977 1.0646197
1.0395964 1.0313483 1.0468878 0.9521093 1.0090955 1.0995651 0.87570155 0.9447526
0.9883126 1.0673598 1.0861685 0.90857506 1.0788904 0.98832536 0.9020656 1.1049056
0.82453024 0.89299726 1.0950948 0.9147949 0.98254955 0.94810855 0.8183993 1.0571584
0.9395654 0.94016635 1.007813 1.0202812 1.2734936 1.1199937 0.87982005 1.0390682

model.1.bias f4 [256]
00000000: 125e 50be 2b6f 4e3c a22b d9bd 96f1 47be
00000010: e3ce 8fbe 2899 3b3d 4e72 47bd ab01 17be
00000020: ac95 3b3d b6cd 89bc 57f1 3f3b 27c4 70be
00000030: c8a1 aabd c899 503d 48b9 c8be bbc5 36be
00000040: d810 693d 3801 0bbe cbe0 02bd ab19 c2bd
00000050: 78bd 39be 7aa7 02be 94fe 3bbe 88cb 5ebe
00000060: 8e46 edbc 07b7 8abe 4fc8 a1bd f705 88ba
00000070: baa8 cbbd b4cf 79be e668 89bd c7dc f7bd
00000080: d034 323d 8d06 6a3c 6bfd 0abe b89e 23be
00000090: db3e f1bd 6d7d 90be a0e3 4dbd 8311 a4bd
000000a0: 9da6 2a3e 4d32 54be 8aa9 e2bd 8d49 f13d
000000b0: 73ed 91bd 6dbe 293d 4e3e 1fbe 7b94 b3bd
000000c0: ba34 31bd 6ab7 223d 3810 d73c adb9 763c
000000d0: 0632 b1bd 04c6 84bd d3e9 3ebe d4c0 2abe
000000e0: 3705 46be df10 67be b14a c0bb ca0a cbbd
000000f0: 901e 5ebe aec0 2bbe 405e a5be f1ab f4bd
00000100: 52d1 84bd 8389 2f3d 7c0d afbd ae3b 32be
00000110: 8e0b 2cbc 8a86 6abd b1cb 3abe e150 e9bd
00000120: 6f05 fdbd 539a 5fbd d5de 21be ad54 d7bd
00000130: 6ee1 88bc ddce 93be 27ee 54be 0296 07be
00000140: 50af 333d 8d10 c23d 821e 2bbe cdef 96bc
00000150: e0b3 95bd cae2 4abe 17bd 23be 250c 80bd
00000160: 71aa 58bd 2e8b 51be 8c66 dfbd 95a7 a2be
00000170: 669f 62be 074d ddbc 5201 32be c848 dabd
00000180: 5b9b d2bc 53b0 efbd b87e 8e3d 9c89 d1bd
00000190: 62fa 853b afdf ffbd 76d8 18bd ea7b 05be
000001a0: a1dd 00be 0097 a1be 867f bebd a273 72be
000001b0: 3783 073e 0e0c 17be 795a 2ebe 664d 8f3d
000001c0: c624 c9bd 1128 eebc 6cff 25be fc34 eebd
000001d0: 5f14 fdbd f257 563d cfa1 d8bd 2b4c 2dbe
000001e0: 5d82 7cbd 110c 12be ee2d 2dbd d51c 66be
000001f0: cd15 0b3d ddeb ce3b fec7 073d 2298 063d
00000200: 566d a7bd 1948 3abd df8f 9abe 1421 a03c
00000210: 0cea 773d 6e39 dbbd 9684 00bd f154 49be
00000220: 160a 233c eabc ddbd 1493 85bd 310e d3bd
00000230: db96 cdbd 9f77 45be 08a8 4cbd 1f4d aabe
00000240: c532 d1bd 4121 c1bd 8a0b 22be ceb8 f93d
00000250: 725b 94be 3569 39be 8244 2dbe b74c 653d
00000260: ea6a 35be fdd0 823c 0fe8 e9bd 1b21 a2bc
00000270: 010e d0bd e725 48be 4867 89bd d004 debd
00000280: 0960 37be b7ee c0bd 6eab 3bbc 35e7 113d
00000290: 17d7 97bc 6c21 b939 f556 5fbd 5695 e43c
000002a0: 279e 113e af29 3dbd cc47 06be 6149 5e3d
000002b0: de53 6ebd 53ef 4ebe be4c 94bd fe1c 23be
000002c0: 3eb0 a1bd dfda 85bd cf3d 2ebe 6af4 7cbd
000002d0: b7b3 933d d363 c9bc 5fa5 a53c 3df4 383d
000002e0: fe38 b8bd 8ba6 cebd 044d 2a3e aa49 c53c
000002f0: 3891 7cbe 8911 cbbd 9f6a 33be 3feb f4bd
00000300: 3b98 8cbc 5a1c 1fbe 0ebc d73c 606e a93b
00000310: 3458 f3bd 7d8b d2bd 9e0e c4bd c8d1 5ebc
00000320: 1b2f 843d 34ad 7a3d 6b55 d5bd d3b6 863c
00000330: 64db b6bd ab9b 61be 769a 4fbc e229 ebbd
00000340: baa9 383a db0d c7bc 3669 bfbe 7faa 91bd
00000350: 256f 89bd 2b18 62bd eb8e a9bd 9bcd 83bc
00000360: 0b03 25be 28e8 16be 9564 5f3c 2b2a 87bd
00000370: c802 c2bc 4042 cebd 7da1 0dbd abe7 f9bc
00000380: 43cb 39be c365 953d 805e 88be c387 93bd
00000390: 5a8b 903c 702a babd 50c8 4bbc d9f5 c9bd
000003a0: bab4 2dbc 2911 67be f05c 64bd d40e cebd
000003b0: f16b 043e 2a51 9b3d 7aae 21be b16e 123e
000003c0: 9287 64bd 6690 3fbe a42a b0be 8986 3dbc
000003d0: 6cb9 08be 3488 e8bd 2f55 0fbe 9dc5 323d
000003e0: 278b dbbd 37a8 ccbd 46c6 05be 2089 9fbe
000003f0: 634e 31bd 3540 83be 3cee cabd ad01 29bd
-0.20348385 0.012599747 -0.106040254 -0.19525751 -0.2808753 0.045800358 -0.048692994 -0.1474673
0.045797035 -0.016821723 0.0029288137 -0.23512326 -0.083316386 0.050927907 -0.39203858 -0.17848866
0.05690083 -0.13574684 -0.03195266 -0.09477552 -0.18138683 -0.127592 -0.18358833 -0.21757329
-0.028964307 -0.27092764 -0.07899534 -0.0010377754 -0.099442914 -0.24395639 -0.06709461 -0.12102657
0.043507397 0.014283788 -0.13573234 -0.15978515 -0.11779567 -0.28220692 -0.05026591 -0.080111526
0.1666512 -0.20722313 -0.11067493 0.11781607 -0.07125368 0.04144137 -0.15551111 -0.08768555
-0.043263175 0.0397257 0.02625285 0.015058917 -0.08652119 -0.06483081 -0.18643884 -0.1667512
-0.19337927 -0.2256503 -0.005868279 -0.09914167 -0.21691346 -0.1677272 -0.3229847 -0.11946858
-0.06485237 0.04285575 -0.08547494 -0.17405578 -0.010500802 -0.057257213 -0.18241765 -0.113923796
-0.12354552 -0.054590534 -0.1580766 -0.105141975 -0.016709056 -0.28868762 -0.20793973 -0.13240817
0.043868363 0.09475813 -0.16710857 -0.018424893 -0.07309699 -0.19813076 -0.15990101 -0.062523164
-0.05289692 -0.20463249 -0.10908231 -0.3176848 -0.22131118 -0.027014269 -0.17383316 -0.10658413
-0.025708845 -0.11703553 0.069577634 -0.10231325 0.004088686 -0.12493836 -0.03731581 -0.1303555
-0.12584545 -0.31560516 -0.09301667 -0.23676923 0.13233648 -0.14750692 -0.170267 0.069971845
-0.09821467 -0.02907184 -0.16210717 -0.116312 -0.12357401 0.052329965 -0.105777375 -0.16923587
-0.06164776 -0.14262415 -0.04228013 -0.22471936 0.033956338 0.006314738 0.03314971 0.03285993
-0.08175151 -0.045478914 -0.3018789 0.019547023 0.06052594 -0.10704313 -0.031376444 -0.19661309
0.009951135 -0.10827048 -0.065221936 -0.10305441 -0.10038539 -0.19283913 -0.049964935 -0.33261964
-0.10214762 -0.09430171 -0.15824714 0.12193452 -0.28976017 -0.1810654 -0.16920665 0.055981364
-0.17716566 0.015968794 -0.11421215 -0.019791177 -0.10158921 -0.19545709 -0.067091525 -0.10840762
-0.17907728 -0.09420531 -0.011454446 0.035620887 -0.01853518 0.0003531085 -0.054526288 0.02790324
0.14220487 -0.04618233 -0.13113326 0.0542692 -0.05818545 -0.20208482 -0.072412 -0.15929028
-0.07894944 -0.06535887 -0.17015766 -0.06175653 0.07212012 -0.024583733 0.020220457 0.0451548
-0.089952454 -0.10090359 0.16630942 0.024082977 -0.24664772 -0.09915454 -0.17521141 -0.11958932
-0.017162433 -0.15538159 0.026334789 0.0051706284 -0.11882058 -0.102805115 -0.095731005 -0.01359982
0.06454297 0.061200336 -0.10416683 0.0164446 -0.08928564 -0.22032039 -0.012671104 -0.11482598
0.0007044334 -0.024298599 -0.37384957 -0.07112598 -0.06710652 -0.05519883 -0.082792126 -0.016089251
-0.16114442 -0.14736998 0.0136348205 -0.0659984 -0.023682967 -0.1007123 -0.034577835 -0.030505976
-0.18143944 0.072948 -0.26634598 -0.07203629 0.017644573 -0.090901256 -0.012437895 -0.09861345
-0.010602171 -0.2256514 -0.055752695 -0.10061422 0.12931801 0.0758384 -0.15789214 0.14300038
-0.055793352 -0.18707427 -0.34407532 -0.01156772 -0.13351983 -0.11354104 -0.13997339 0.04364549
-0.107199006 -0.09993022 -0.13063917 -0.31159306 -0.043287646 -0.25634924 -0.09908721 -0.041261364

model.1.running_mean f4 [256]
00000000: 20a3 193e 8e44 e93d 0796 5c3e deed 4abe
00000010: 8c9c 073d b6e8 103e 0316 babe 383e 7cbe
00000020: 5950 5cbe b8c6 26be 40c3 bb3e 8321 083e
00000030: 7d23 bfbd 303a c5be bd50 b4be 78cc 9b3e
00000040: 7d49 bcbe e46b d2bc 97e6 ca3e d5e8 05be
00000050: fe30 8e3e ffbf c6bc 9dce 13be 0a8f 303e
00000060: a793 293d f652 03be df95 2e3c 900f 2d3e
00000070: 28b4 4b3e c90a 43bd a0de a9be 62b5 9ebd
00000080: d2db 873e 3558 de3e 619f c23e 4917 2f3e
00000090: 0de1 d6bd fb91 78be 0eda d9bb 30b0 94be
000000a0: 4e89 813c e642 d43d b485 7fbe b61b 603e
000000b0: c97b c93e d140 75be b460 97bd 1429 c6be
000000c0: 3018 bf3e 2a7c 973e 7bc1 9f3c 89c1 16be
000000d0: f17f 8abe 93e4 533d 9483 d4be dd36 10be
000000e0: 22ec ae3c ea2e d1be 59bc 04be a6bf cd3e
000000f0: 1a5d c23e 7fe7 2ebe 7aab aa3e 9418 a33e
00000100: 0a21 4ebd d764 05be 3383 b93e 281f c63e
00000110: 4e4c 55be 3bed a2bc aeae da3e 6f8a 9abe
00000120: f96e a93e 6c14 ab3e 6418 c83d 79e1 19be
00000130: 8c43 b23e 69e4 563c f98f bf3e ab95 a1bd
00000140: 23f5 11be f05a 73bd d0ed 873e 128c 1abe
00000150: b754 84be 8763 aab9 d202 a5bd 2459 663e
00000160: f464 cf3d be7b 073e 3a6a 9c3e 415f 263e
00000170: bb73 debe e487 c9be 1168 3b3e fc63 9ebe
00000180: 8bb8 563e ca16 413e 4fe8 7b3e 65b4 8abe
00000190: eba5 4fbd 7aee efbd 2f72 87be 3dfb 2b3e
000001a0: d2cb 753e 8893 8ebc 97c2 61be a410 eb3d
000001b0: 07bb 27be d7a0 a2be 6457 5d3d cb2f c33e
000001c0: 2985 d73e e6c6 8cbe 5664 383d 0d12 a13e
000001d0: 2b8d 643b b6ba debe 9c20 993e e99a 71be
000001e0: 0178 9c3e 5dbb 8d3d 1618 df3e b99c d4be
000001f0: ef9d 53be 8873 96be 33c3 debe 2122 d5be
00000200: 784b c23e 1914 df3d fc31 90be 8fc4 aebe
00000210: 7afd bb3e fb1b 823e cc8f 8e3e f630 5abe
00000220: 4c28 70be cbf7 993e c171 913e 3d0b 8f3d
00000230: cc52 7c3d 959e dbbe 8d8f d0be face 2dbd
00000240: 5b28 8bbd 47b1 7cbe 2a2e 253e 0c3f b03b
00000250: 463d 54be 6ff6 27be c688 9ebe 92e2 a9bd
00000260: 88ff 2e3d 1ab3 62be cc2a 2c3e babd 7bbe
00000270: 1435 c4be 545d ab3d 4f1a 07be 1359 bbbe
00000280: de19 a0bb 9539 22be 85f3 833e b243 c6be
00000290: 23d1 b3be 4d9b c83e 9092 34be e4e7 35be
000002a0: dd1e b53e cd63 dabe 71ea 613e 2659 1f3e
000002b0: ab0e 023e 8f77 d2be 93a7 dabe fedb 103d
000002c0: addf 8b3e de9f 383e 3d28 ed3d b93a d73e
000002d0: 79f3 dbbd 4f48 db3c 7076 86be 7660 883d
000002e0: 48fb 833e 4217 22be 7e9f 12be 8351 3a3e
000002f0: 0544 0dbe 2aba b0be 2902 c2bb 1473 913e
00000300: 69a5 753e 5ee2 b13e d5c4 d93e fd9f 03bd
00000310: 98c1 35be 75c0 9abe 6128 803e e2f3 8abe
00000320: 43ab e4be ef2f d43e b67c c3be 10ff 4b3e
00000330: 35f4 b3be c264 7ebe cbd6 23be 85e7 973e
00000340: 039f cdbd cbfd 1dbe ab43 a43d 7433 c5be
00000350: a61a 17be 4548 3fbe 6f83 ad3e 6038 94be
00000360: 162d 943e 132b abbe 5009 7abe 349b 0e3e
00000370: ee1c debe b089 a9bc f891 35bd 609d d9be
00000380: 66a7 803e 3c84 4b3e 4edf a93e 72c8 873e
00000390: 7e75 12bd d232 1e3e 03a1 b4be c2b7 ba3e
000003a0: e469 98be 5d4a 9cbd cbf5 213e aedf 06be
000003b0: a243 f83b d813 793d bec1 cbbe d4f9 ea3d
000003c0: 098c 9bbe b0d7 b43e e159 8b3e 0c1e 09be
000003d0: 6b55 8fbe af0a 4cbe 55d5 82be 29d4 68be
000003e0: c6c5 953e 505d 9c3c 7276 903e 5f28 d23d
000003f0: 94f0 74be a966 dc3e a177 d33c 1023 11be
0.15003633 0.11390029 0.21541606 -0.19817302 0.03310828 0.14151272 -0.3634492 -0.2463311
-0.21515025 -0.16286743 0.366724 0.13294034 -0.09332941 -0.38520956 -0.35217848 0.30429435
-0.36774817 -0.025686212 0.3962905 -0.130771 0.27771753 -0.024261473 -0.14434285 0.17242065
0.041400578 -0.12824616 0.010655849 0.16900468 0.19892943 -0.047617707 -0.33177662 -0.0774944
0.26534897 0.43426672 0.3801222 0.17098726 -0.10492144 -0.24274437 -0.0066483086 -0.2904067
0.015812542 0.10364322 -0.24953347 0.21885571 0.39352253 -0.23950507 -0.073914915 -0.38703215
0.3732314 0.29586917 0.019501438 -0.14722265 -0.27050737 0.051731657 -0.41506636 -0.14083429
0.021352831 -0.40856105 -0.12962474 0.4018528 0.37961656 -0.17080496 0.3333395 0.3185469
-0.050324477 -0.13026749 0.3623291 0.38695645 -0.20829889 -0.01988851 0.42711395 -0.3018374
0.33092478 0.33414018 0.09770277 -0.15027417 0.3481716 0.013115981 0.3741453 -0.07889875
-0.14253668 -0.059412897 0.26548624 -0.15092495 -0.25845882 -0.0003249908 -0.080571786 0.22494942
0.10126677 0.13230798 0.30549794 0.16247274 -0.4344767 -0.3936149 0.18301417 -0.30935657
0.20968835 0.1885635 0.24600337 -0.27090755 -0.05069534 -0.11715408 -0.26454303 0.16795059
0.24003533 -0.017404333 -0.22046886 0.11477783 -0.16379939 -0.31763336 0.05403842 0.381224
0.4209378 -0.27495497 0.045017563 0.31459084 0.0034874182 -0.43501824 0.2990769 -0.2359425
0.30560306 0.06920502 0.43573064 -0.4152582 -0.20665716 -0.29385018 -0.435083 -0.416276
0.37948203 0.10892505 -0.28163135 -0.34134337 0.36716825 0.25411972 0.27844083 -0.2130774
-0.23452872 0.30071864 0.284071 0.069845654 0.0616024 -0.42894426 -0.4073452 -0.042433716
-0.067948066 -0.24677001 0.16130891 0.0053786095 -0.20726499 -0.164026 -0.30963725 -0.08295168
0.042724162 -0.22138634 0.168132 -0.24584094 -0.38321745 0.0836741 -0.1319363 -0.36591396
-0.004885896 -0.15842278 0.25771728 -0.38723522 -0.35120496 0.39180985 -0.17634034 -0.1776424
0.3537511 -0.42654267 0.22062089 0.15561351 0.12700908 -0.4110684 -0.42705974 0.03536605
0.2731909 0.18029734 0.115799405 0.4203699 -0.10739798 0.026767878 -0.26262236 0.066590235
0.2577765 -0.15829185 -0.14318654 0.18195157 -0.13795479 -0.34517032 -0.0059206677 0.2840811
0.2398888 0.34743017 0.42532983 -0.032135 -0.17749631 -0.30224958 0.25030807 -0.27139193
-0.44661912 0.4144282 -0.38181084 0.19921517 -0.35147253 -0.24843124 -0.15999906 0.29668823
-0.10040095 -0.15428846 0.08020719 -0.38515818 -0.1475626 -0.18679912 0.33889338 -0.2894926
0.28940648 -0.334313 -0.24417615 0.13926393 -0.43381447 -0.020695537 -0.04432866 -0.4250288
0.25127715 0.19874662 0.3317818 0.26520115 -0.03575658 0.15449074 -0.35279092 0.3646832
-0.29768288 -0.07631371 0.15816419 -0.13171265 0.007576422 0.06080994 -0.3979625 0.11473432
-0.30380276 0.35320807 0.2721701 -0.13390368 -0.27994856 -0.1992595 -0.25553384 -0.22737183
0.29252452 0.019087464 0.28215367 0.102616064 -0.23919898 0.43047073 0.02581388 -0.14173532

model.1.running_var f4 [256]
00000000: ecb3 d93e 260c 0f3e 2f26 ba3e 5217 4b3f
00000010: ab46 123f 2f30 c93d 19f7 f83e db08 d03d
00000020: 788e 403e 347c fa3e e9e6 193e 3059 a63e
00000030: d750 853f 5b23 633f 530b 8d3e a8b9 b83e
00000040: 9e00 103f cf78 ff3e 9e04 113e 7262 213e
00000050: bd99 923e 86aa 1c3f 067c af3e 395f 223f
00000060: 9772 413f 8065 0c3e a9cb d63e de87 c93d
00000070: fb61 4b3e 00cf f23d 5ad8 ec3e a191 9e3e
00000080: 1edb 053e d3ed 6f3e bbe4 953e cfcb 1c3f
00000090: ac65 3d3f 0790 3f3e 2347 223f 8484 433d
000000a0: f936 4d3e 8e57 5c3e fcb5 133e 99e8 2e3e
000000b0: 849f 293f f4fe be3e b6e4 da3e 4c5e 593e
000000c0: 9aaa be3d d0bc 263e d38f a53e 9880 903e
000000d0: 53ed 023f d165 843d 48b5 073f 242e 913e
000000e0: bbbc 663f 8743 9e3e 44fb 8e3e 2b80 233e
000000f0: 9463 153e 201d 833e 2492 8e3e c892 893e
00000100: 5545 433f 79c1 b43d 260f d33e 0ecd 443e
00000110: 5d2c 0f3f 732f 913e 774c 993f c152 a73e
00000120: 284b db3e c524 ab3e 78dc 973e 11f1 6b3f
00000130: 5fee 0f3f 95d5 db3e d7ce 873f ea82 1f3e
00000140: 75f1 423f 8d6a 493e a7fa 7e3f f6ea ef3d
00000150: 6be0 713e 3792 dd3c 4dc2 8c3f 3314 163e
00000160: d9fb 063f 8866 073f e08d 373d 2da4 7f3e
00000170: 0baa 293f dece 9e3e 6086 923e 9086 443f
00000180: 6fe5 023f bac3 a83e 1638 0c3e b7ba 5c3e
00000190: 6071 a23f f99a 943e 01c2 843d 073a ab3e
000001a0: 9b7a 9c3e d433 093f d065 943e 1a1c 623f
000001b0: a675 eb3e db2d 303e 3890 9c3f f2d9 2d3e
000001c0: 3014 b83f 0740 c63d 5fec bb3e adbe 983d
000001d0: 5725 353f 295c 7e3f 0cc8 af3d 4927 723f
000001e0: 99d3 b13e 72f1 303e bceb 053d 35f9 ee3d
000001f0: fd5f 363e 3d11 013f 1c16 8c3d 217c b73e
00000200: e870 403e 6e87 843e fa58 8e3e a9a9 893e
00000210: 0ec9 973e c150 633e ecaf 1d3e b7fb 5e3f
00000220: 4c26 b33e 0907 403f c44b 8a3e d2b1 923e
00000230: ecf2 963e a8df 253f 110f 823e 1431 633e
00000240: 084f b33e b07e 9f3e db09 e63e fd77 793e
00000250: 0e82 843f 288c 403f 288a fe3d a2a0 1a3e
00000260: 4fc4 d33d f26c 453f e756 db3e 61b7 5d3e
00000270: 6313 663e d17d bb3e 2694 ef3e bf5b 323f
00000280: eda3 bc3e db0f bd3d ee4a 5e3e d986 923f
00000290: 7388 b43d b9ce d13e 85ef 4c3e 8c71 783e
000002a0: a7cc 293e cdd5 f13e 518b 383e 9033 a33e
000002b0: 5183 c23e eed0 483e 3e8c a23e 2dd6 753e
000002c0: 4f9d 8c3e e607 e73e e78c d73e d05a bd3e
000002d0: ff53 e03d a0c8 1f3e db35 0d3e 2884 b93d
000002e0: 8b9a 923e 6c0c 553f c0c5 c83d 62d4 8e3e
000002f0: bbcd 903e 471f 283e 9550 8b3e 9879 283e
00000300: 2b48 7b3d 1035 2d3e a28f 0e3d 7abb 313e
00000310: 39be 363f 84af 413e c326 393e a1c1 563e
00000320: d6f3 473e c34f 143e 7bb4 173f 26a6 533e
00000330: 4be2 4b3f 5ea7 923e 1445 853e 0235 d43e
00000340: 8e97 403f c4f4 913e b2bb 073e cfaf 503e
00000350: 3e48 183e 98fa 0f3e 54ce 0440 33d3 fc3e
00000360: c7ba 523e 830c 3d3f 1b65 863f 3bdd 183d
00000370: d1eb 3a3e de37 663d d82b 503e 47ee 653e
00000380: d2eb 703d 4a1f 143f d790 273e ffcb 2a3e
00000390: 46d9 653e b29e d63e 0f37 3e3e b517 823e
000003a0: 35a7 7a3e 302b 7c3e b910 6d3f 9a06 743e
000003b0: 9326 bb3e 63a6 513e 98dc 883e 348a 7e3d
000003c0: 275b e73e e26d 2e3e 3e1a 053d df29 903e
000003d0: 239a cc3e dc1d 083f 5fcc 033f 3ba4 8c3e
000003e0: 6b15 ca3d c283 6d3e a5c1 233e f3ca 3b3f
000003f0: 0bb2 223d 3a25 203f 1e5d db3e 2645 0c3e
0.42520082 0.13969478 0.36357257 0.7933246 0.5713908 0.098236434 0.4862602 0.10157939
0.18804348 0.48922884 0.15029491 0.3248992 1.0415295 0.88725823 0.27547702 0.36079144
0.5625094 0.49896857 0.14161918 0.1576021 0.28632918 0.611977 0.3427431 0.6342655
0.75565475 0.13710594 0.41952255 0.09840368 0.19861595 0.11855888 0.46258813 0.3097048
0.13071868 0.23430566 0.2927607 0.6124849 0.73983264 0.18707286 0.63389796 0.0477338
0.20040502 0.21517774 0.1442489 0.17080916 0.66259027 0.3730389 0.42752618 0.21227378
0.093098834 0.16282964 0.32336292 0.2822311 0.5114338 0.064647324 0.5301099 0.28355515
0.9013173 0.30910894 0.27926075 0.15966861 0.14588767 0.25608158 0.2784587 0.26869798
0.7627767 0.088259645 0.41222495 0.19218847 0.5592707 0.28356513 1.197646 0.32680324
0.42830777 0.3342649 0.29660392 0.92164713 0.562231 0.42936388 1.0609998 0.15577284
0.76149684 0.19669552 0.99601215 0.11714737 0.23620765 0.02704726 1.0996796 0.14656143
0.5272804 0.52890825 0.044813037 0.24964972 0.6627509 0.31017202 0.28618145 0.76767826
0.5113134 0.32961828 0.1369327 0.21555601 1.2690849 0.29024485 0.06482316 0.3344271
0.3056229 0.5359471 0.28983927 0.8832413 0.45988196 0.17204992 1.2231512 0.16977671
1.4381161 0.09680181 0.36703774 0.074582435 0.707601 0.99359375 0.08583078 0.94591194
0.3473175 0.17279604 0.032695517 0.11668626 0.17810054 0.5041693 0.068401545 0.3583689
0.1879307 0.25884575 0.2780226 0.26887253 0.2964558 0.22198774 0.1539914 0.87102836
0.34990156 0.75010735 0.2701093 0.2865129 0.2948221 0.647944 0.2540212 0.2218669
0.35021234 0.31151342 0.44929394 0.24362178 1.035219 0.7521386 0.12428695 0.15100339
0.10340177 0.7711936 0.4283974 0.21651985 0.22468333 0.36619428 0.46792716 0.69671243
0.36843815 0.0923154 0.21708271 1.1447402 0.08815088 0.4097803 0.20013244 0.24262065
0.16581975 0.4723343 0.18021895 0.31875277 0.3799081 0.1961095 0.3174762 0.24007483
0.27463767 0.45123214 0.42099687 0.36983347 0.10953521 0.15603876 0.13790075 0.0905841
0.28633532 0.8322208 0.09803343 0.2789641 0.2828196 0.16418181 0.27209917 0.16452634
0.06134812 0.16914773 0.034804948 0.17356673 0.71384007 0.1891461 0.18081193 0.20972301
0.1952661 0.14483552 0.59259766 0.2066885 0.7964217 0.28643316 0.26029265 0.41446692
0.75231254 0.28507054 0.13255194 0.20379566 0.14871308 0.14060438 2.0750933 0.49379882
0.20579062 0.73847216 1.0499605 0.037320357 0.1825402 0.056205623 0.20329225 0.22454177
0.058818646 0.57860243 0.16363846 0.16679381 0.22446164 0.4191795 0.1857569 0.25408712
0.24477847 0.2462585 0.9260364 0.23830643 0.36552867 0.20473628 0.267308 0.06214352
0.4518673 0.17034104 0.03249573 0.28156945 0.39961347 0.5317056 0.5148372 0.27469048
0.098673664 0.23194793 0.15991838 0.7335655 0.039720576 0.62556803 0.4284448 0.13698253

model.4.weight f4 [64, 256]
00000000: 4c93 dabd 94e8 b83c 77d8 4cbc 572a 7ebd
00000010: d16c f1bd c192 90bb 4179 40be 9558 92bc
00000020: a70e 663d 56f0 3b3d 3cfd 383c dca6 cdbd
00000030: 593a 1d3c a9f1 bbbd c918 b73d 11ae 13bc
00000040: 1359 19bc 612f a4bc d6be cc3c 2fdb f1bd
00000050: 5346 383c b432 43bd 4acc da3c bf44 b93d
00000060: 6047 7c3d 362c cebd 1e3c aa3c caf8 b03d
00000070: f0fb 9bbd f608 883c 6e43 893d e419 cb3d
00000080: fc1e 6fbd 43c5 b23d 4fba 5e3d c9e5 5e3c
00000090: 0ed7 173e 0391 e1bd 1122 3cbd 9de1 12bc
000000a0: f670 10bc 5527 553d bd76 c8bd eb20 f2bd
000000b0: 2fdf f53a 97a3 b83d 5cc5 533d 8262 fbbd
000000c0: 802e 65be b8a3 4d3c 03cc b2bd 8134 b5bc
000000d0: f9f7 1ebd 08f2 a13d c4d1 e63d 6b84 163d
000000e0: b649 653d e762 a93d 9fcc 073e 2d38 9cbd
000000f0: 0916 803c 2789 9d3d 495c e1bd b475 903d
00000100: 2ea6 c0bd f7bb 55bd 3581 6e3c 2abc eb3d
00000110: d456 02be 9099 d0bd 8fbc f83d 3ecd ad3a
00000120: ceea e03d e838 c13c ff4d febc b10a 11bc
00000130: c7a9 f33d 49ac abbd 9d68 493d 5ea9 a3bd
00000140: 7f68 09bc 394f 833d 6bd9 b23d 85fc 3abc
00000150: 8ecb 98bd bbe5 46bc 0651 0d3d e34f feba
00000160: c7c9 c0bd 5e5d cd3c c536 9ebc d67e cf3c
00000170: a210 223e a5bb 8a3d 2650 953c efbb e43c
00000180: 2a27 7fbc 7646 df3c de25 acbb 3be4 8cbd
00000190: 0c3a ab3d 3497 0abb 9bc0 af3c a056 a93d
000001a0: 2868 8bbb 37f9 9b3c 6b0e 753c 537e 393c
000001b0: e65d 1fbd 5009 98bd 022f a63d 3679 f1bd
000001c0: 1525 013d 2a40 e5bd c15b df3c 996d 873d
000001d0: 19d2 a73d a8dd b13c 9a42 e5bd 3409 973c
000001e0: c036 d43d be4b 31bd 29a3 25bd fc68 c63d
000001f0: 3dd9 b6bd beee 773c 1c16 95bb b2c8 e2bd
00000200: 0fb9 de3d 0696 cabd 1494 3d3d 4f45 823d
00000210: 3043 53bd 54e9 d33c 76d2 b1bb 4024 1dbb
00000220: 42b0 8b3d e9a9 93bd e9e7 23be a725 523d
00000230: 7a00 123d adda d5bc 9b69 a23d 0847 083e
00000240: 63f1 a7bd 2a8d debc ddd2 cdbc 665f 943b
00000250: 03e2 4b3d 64fc 193d 6638 ffbc c0b4 84bd
00000260: 3579 84be 1ae0 c63d 447d 4f3d 63f5 a1bd
00000270: 9e3c 96bd 332b d8bd aaba 833d 7775 2b3d
00000280: be6c 633d ad73 633d 3865 d03c fd8c c0bd
00000290: 6ecb 17bd 9773 dabd 446d a93c f40e 903d
000002a0: e047 8f3d a6b6 f9bd 6cbe a03d ab20 063c
000002b0: ae6c 823d a3c7 fa3d 2d4f 903d c4cf 813d
000002c0: 330d c0bd 9ac4 5ebd 9555 81bb be64 bc3c
000002d0: 3a17 a5bd 67a2 9cbd f6c0 083c dc3c 963c
000002e0: a09c abbd 6442 dd3c de9c 21bc e9a2 62bc
000002f0: 0daa b03b 5cbb f63c 3bca be3d 891c 7bbd
00000300: ade5 883c 9638 70bd 1b89 9bbd 86ee 15ba
00000310: decd a73d f536 653d 962a 2abe d7a6 e23d
00000320: 16d7 36ba d8cf 00be f44f cabd 3c8b 46bd
00000330: 6ce6 bcbd 394f 8dbd 2b21 8fbb 82f4 593c
00000340: 54c0 443a e350 c83d 71cc 0a3d 0027 ef3d
00000350: 7b8a 43bd b4c2 e93d ad0e a83d d16a d53d
00000360: dc91 83bd ca33 593d 5fa7 e8bd e83c 30bd
00000370: 3dcb 5fbd ed7f 413e 1d22 963d 8acb cebd
00000380: e830 34bc 173d ca3d 02f7 843d ee1d 2e3d
00000390: 1878 a13d 740f 873c 94d5 d53d 5826 d03a
000003a0: 57ef acbd 77b4 2e3e f738 de3d aef3 1fbc
000003b0: 46c5 76bd 6388 45bd cef9 96bd 2cbf d8bd
000003c0: cea4 d53b d5ad 0cbd aa06 873d 84f3 89bd
000003d0: 465c 9b3d 0617 26bd 12a0 8bbd 8f1e da3d
000003e0: ef83 b1bd 5720 203d 3dd5 dc3d 8731 b53d
000003f0: 1709 9bbc d8a4 e03d 4d6c 73bd 12e4 05be
-0.10672626 0.02257184 -0.012502781 -0.062052097 -0.11788333 -0.0044120257 -0.18796255 -0.017864505
0.056166317 0.0458835 0.0112908445 -0.100415915 0.009596431 -0.091769524 0.08940274 -0.009013669
-0.009359616 -0.020042123 0.024993341 -0.11809384 0.011247235 -0.047655776 0.02670874 0.090463154
0.061591506 -0.10067026 0.02078062 0.08641203 -0.07616413 0.016605835 0.06702314 0.099170476
-0.05837916 0.08729031 0.054376896 0.01360459 0.1482813 -0.11013987 -0.045930926 -0.008964923
-0.0088159945 0.052039463 -0.097882725 -0.11822685 0.001875853 0.09015577 0.05170189 -0.12274648
-0.2238102 0.012551241 -0.087303184 -0.022119762 -0.038810704 0.07907492 0.11270478 0.036747377
0.0559785 0.08270817 0.1326165 -0.07627902 0.015635507 0.07692175 -0.1100393 0.070537
-0.09406696 -0.05218121 0.014557173 0.11510499 -0.12728435 -0.1018554 0.1214534 0.001326002
0.109822854 0.023586705 -0.03104305 -0.008852647 0.11897617 -0.0838247 0.049172033 -0.079912886
-0.00838673 0.06411595 0.087328754 -0.011412744 -0.074607 -0.012139733 0.034501098 -0.001940247
-0.09413486 0.025068935 -0.019313226 0.025329035 0.15826657 0.067740716 0.018226694 0.027921645
-0.015573302 0.027255278 -0.0052535376 -0.06879469 0.08360681 -0.0021147253 0.021454146 0.082684755
-0.0042543598 0.019039733 0.014957051 0.011321622 -0.038907908 -0.07423651 0.08114435 -0.11790697
0.031529505 -0.11193879 0.027265431 0.06612701 0.0819437 0.02171214 -0.11194344 0.018437006
0.10362005 -0.043285124 -0.040438805 0.09687993 -0.08928154 0.015132604 -0.004549755 -0.11073436
0.10875141 -0.09891896 0.046283796 0.06360876 -0.051577747 0.025868095 -0.0054267 -0.0023977906
0.06820728 -0.07210142 -0.16006435 0.05130544 0.035644986 -0.02610525 0.07930299 0.13308346
-0.08200338 -0.027166922 -0.025124962 0.004527974 0.04977609 0.037594214 -0.031154823 -0.06479788
-0.25873724 0.09710713 0.050656572 -0.07908132 -0.073357806 -0.105551146 0.06432088 0.04186007
0.055523627 0.05553024 0.02543889 -0.094018914 -0.03705924 -0.10666578 0.020681985 0.07034102
0.06996131 -0.121930405 0.0784882 0.0081865 0.06368385 0.12245109 0.070463516 0.06338456
-0.093775176 -0.054386713 -0.0039469698 0.022997256 -0.08061071 -0.07648163 0.008346787 0.018339567
-0.08379483 0.027009197 -0.00986406 -0.013832786 0.0053913654 0.030118637 0.09315916 -0.06130651
0.01671108 -0.058647715 -0.0759451 -0.00057194417 0.08193563 0.055960614 -0.16617808 0.110669784
-0.00069747993 -0.12579286 -0.09878531 -0.048472628 -0.09223637 -0.06899876 -0.0043679676 0.013302924
0.0007505466 0.09781053 0.033886377 0.116773605 -0.047739487 0.1141409 0.08205924 0.10420764
-0.06424305 0.053027906 -0.113600485 -0.043026835 -0.054637183 0.18896456 0.07330725 -0.10097416
-0.010997988 0.09874933 0.064924255 0.042509012 0.07884234 0.01648686 0.104411274 0.0015880568
-0.08444088 0.1706103 0.10850709 -0.009762688 -0.06024673 -0.04822577 -0.07371865 -0.10583338
0.0065198904 -0.034345467 0.06593068 -0.067359 0.07585959 -0.0405493 -0.0681764 0.1065036
-0.086677425 0.03909334 0.107828595 0.08847337 -0.018925233 0.109689415 -0.059429456 -0.13075283

model.4.bias f4 [64]
00000000: f91f 123b d704 63bd d9c4 663d 181d a1bc
00000010: f233 573d ca8d 543d 6500 223d 216a bbbc
00000020: 0ef8 923c 6bc2 4abc 0604 89bc d992 e4ba
00000030: aac1 773d f10e 743c 0b7e dcbc 0db1 72bb
00000040: 349a 2abd 2bb3 5f3d e988 163d 9cdc 92bc
00000050: 6f65 18bd 745c 6fbc c049 093d 2a2a 3e3d
00000060: 37e9 423c e188 f23c 591b 453d 9674 4b3c
00000070: 6cbf 6ebd 708f 77bd fa48 20bd 53ca e1bc
00000080: cdc7 c9bc 936b 563c f8ca c53c f320 b43c
00000090: e918 283d 0b82 763d f61e 68bc 8100 5cbd
000000a0: a35c 6f3d e64b fb3b c2da 713d 7feb 11bd
000000b0: cd69 61bc 9eb6 11bd e9c5 61bd 0eeb 573d
000000c0: a27f 1f3c bbf7 2c3c 4148 12bd 69b1 ce3b
000000d0: 2657 663d dfba 7f3d 88f7 27bd 57ac 2fbd
000000e0: ac53 02bd 28cc f43c 62ce 25bc 0af2 0cbc
000000f0: 748b 4b3d f8b6 e7bc f46d 303d b12c 1f3b
0.002229689 -0.055424538 0.056340072 -0.019667193 0.052539773 0.051893033 0.039551158 -0.022877755
0.017940547 -0.012375454 -0.016725551 -0.0017438784 0.060487427 0.01489614 -0.02691557 -0.00370318
-0.041650966 0.054614227 0.03675166 -0.01792746 -0.03720611 -0.014609445 0.0335176 0.04642693
0.011896423 0.029606285 0.048121784 0.012417933 -0.058288023 -0.060439527 -0.039132096 -0.027562296
-0.024631405 0.013087171 0.024144635 0.021988368 0.04103938 0.060182612 -0.014167538 -0.053711418
0.058437955 0.00766896 0.059046514 -0.035624977 -0.013758135 -0.035574548 -0.055120382 0.0527144
0.00973502 0.01055711 -0.035713438 0.00630777 0.056235455 0.062434074 -0.04100755 -0.042888965
-0.031818077 0.029882506 -0.010120006 -0.0086026285 0.04969354 -0.028285488 0.04307361 0.0024288113

model.5.weight f4 [64]
00000000: 91fe 853f 12e5 903f 9a4f 7f3f d186 843f
00000010: a95c 863f 8150 653f cd2f 843f 99d1 623f
00000020: fa62 893f 4066 6b3f cd2d 873f 2ed4 893f
00000030: ce2f 893f 0c8d 893f c285 643f eda2 7a3f
00000040: 8e50 863f bbe5 723f 45d4 8b3f bccb 7f3f
00000050: e7a0 6a3f 85f2 883f 4805 7a3f 252b 7b3f
00000060: 87bc 8e3f 665b 7e3f 3905 673f 2474 853f
00000070: 2256 863f 2fc8 813f 6618 873f 40c2 873f
00000080: 9577 693f 6135 863f 1cd4 7a3f 13bd 813f
00000090: d448 833f 2dc2 873f c5f1 653f 1788 6e3f
000000a0: b160 683f a140 833f bdd2 673f d7af 863f
000000b0: 9dc3 6c3f 4e62 633f 4439 673f 8396 8b3f
000000c0: 40fe 6d3f 160d 703f 6b17 853f 0328 883f
000000d0: 48b4 883f 3f1f 843f ef04 873f 53d8 703f
000000e0: 107d 673f b94f 8e3f f0b9 773f 9c9f 933f
000000f0: 2855 6c3f 7205 883f 445b 8f3f 1c73 6d3f
1.0468313 1.1319907 0.9973084 1.0353643 1.0497028 0.89575964 1.0327088 0.8860107
1.073333 0.91952896 1.0560852 1.0767877 1.0717714 1.0746169 0.892666 0.97904855
1.0493333 0.9488179 1.0924155 0.9992025 0.9165177 1.0699011 0.9766431 0.9811271
1.1151284 0.9935821 0.90242344 1.0426068 1.0495036 1.0139216 1.0554321 1.0606155
0.9119809 1.048504 0.97979903 1.0135826 1.02566 1.0606133 0.89822036 0.93176407
0.9077254 1.0254098 0.90555936 1.0522412 0.9248598 0.88821876 0.90321755 1.0905308
0.9296608 0.9376997 1.0397772 1.0637211 1.0680017 1.0322036 1.0548381 0.94080085
0.90425205 1.111808 0.96768093 1.1533084 0.9231744 1.0626662 1.1199727 0.9275377

model.5.bias f4 [64]
00000000: efc1 d9bd 84ff 7bbe 4da7 26be 9d53 2a3c
00000010: 1a55 1cbc 29d3 34be 0e5d 32bc eb9a 74bd
00000020: fbbd 56be d9a5 7bbe 7a8b a13d dfa4 8dbc
00000030: c118 49be ac95 823d e738 ccbd c6f7 2ebb
00000040: b99f b0be f5ca 9e3d 8c38 b0be 19d1 6dbe
00000050: a027 f6bd 56c5 2abe 12eb 33be 93c0 56bd
00000060: 437c 9ebd f80d b4bd 5c8e 58be 8cb5 d33d
00000070: 7c36 a23b adfe 97be 21e3 28bd cb53 23be
00000080: 5c51 adbd 8e54 b8bd f4d5 a6bb 2208 0fbe
00000090: 8988 a0bd b6c4 95bd 1c97 1ebd 8cc6 f2bd
000000a0: e07c e1bd 799d f8bd 9ff7 f2bd 4ecb 353c
000000b0: 1205 48bd f0d9 19be 73e7 01be d20b ccbd
000000c0: 8b30 dabd 05e0 4ebd f72b 99bd 74ac 54bd
000000d0: 2796 cdbc ae74 ddba 4010 04be e313 e7bd
000000e0: 6fb2 52be a711 323d 0d9d 21be a4fd 98be
000000f0: aa14 5dbd d777 95bd 5480 01be 4243 30be
-0.10632693 -0.2460919 -0.16274758 0.0103959115 -0.009541774 -0.17658676 -0.010886444 -0.059718054
-0.2097091 -0.24574985 0.07887931 -0.01729053 -0.19638349 0.06376204 -0.09971791 -0.0026697977
-0.3449686 0.07753555 -0.34418142 -0.23224296 -0.120192766 -0.1667684 -0.17570141 -0.052429747
-0.07738545 -0.08791727 -0.21148056 0.10337362 0.0049503427 -0.2968649 -0.041232232 -0.15949933
-0.08462784 -0.090005025 -0.005091423 -0.13967946 -0.07838542 -0.0731291 -0.038718328 -0.11854276
-0.11010146 -0.121394105 -0.11863636 0.011095835 -0.04883296 -0.15024543 -0.12685947 -0.09963192
-0.1065379 -0.05050661 -0.07479089 -0.051922277 -0.025096012 -0.0016895735 -0.12896824 -0.1128309
-0.2057588 0.043473866 -0.15782566 -0.29881012 -0.053974785 -0.07298248 -0.1264661 -0.17213157

model.5.running_mean f4 [64]
00000000: 53dd 693e a519 eb3f 60d0 d83f a229 0bc0
00000010: 743e 7a3f da38 18be dabc 1f3e 07fc 56bf
00000020: 39e5 2f40 c61f dbbe ec33 6ebf c405 543f
00000030: ed82 1abf 0873 a3be 9255 05bf ed4d b9be
00000040: 081c b43f 1007 9d3f 23e3 3140 8557 f33f
00000050: 2256 9fbf 4a00 873f a489 3dbf fa17 123f
00000060: 5c0e 1d3c a92e 84be 9b74 c53e f46f 06bb
00000070: 55d7 553f 9050 0d3f 9931 3abe 6d87 0740
00000080: f6b3 a23e b419 6a3f 1103 f73e a9c4 fbbd
00000090: 504b dd3b f725 91bf 0193 72be a868 15bf
000000a0: c653 653f 9be1 883f ea72 60bf b7f9 a7be
000000b0: a8e1 ecbd d31a 91c0 c722 583f 7856 df3f
000000c0: 5811 44bf 6608 8dbd 8b5c a13f 7e31 563f
000000d0: 2019 383f 2614 703e 5162 bc3f 2447 88bf
000000e0: b632 00be 1063 26bf 5b47 ef3e 3b4a 58c0
000000f0: 6f37 2dbf e228 203f 3d30 703f 3002 b6bf
0.22838335 1.8367201 1.6938591 -2.174416 0.97751546 -0.14865437 0.15599385 -0.83978313
2.7483656 -0.4279768 -0.93047976 0.828213 -0.60356027 -0.319237 -0.52083695 -0.36192265
1.4071054 1.226778 2.7794883 1.9011084 -1.2448161 1.0546963 -0.7403815 0.57067835
0.009585943 -0.2581685 0.38565525 -0.0020513507 0.83531696 0.55201054 -0.18182983 2.1176407
0.31777924 0.9144547 0.48244527 -0.12293369 0.0067533627 -1.1339711 -0.2368889 -0.5836282
0.89580953 1.0693849 -0.87675345 -0.32807705 -0.11566478 -4.5345244 0.84428066 1.7448263
-0.76588964 -0.068863675 1.2606367 0.8366927 0.7191334 0.23445186 1.4717504 -1.064671
-0.12519345 -0.6499491 0.46734127 -3.3795307 -0.6766271 0.6256238 0.93823606 -1.4219418
