saved_models/model.pth (torch, 101746 bytes, 37 tensors)

model.0.weight f4 [256, 5]
0	0xbed638a4	-0.41840088
1	0xbd82647e	-0.063668236
2	0x3d76238f	0.060092505
3	0x3ea6feb3	0.32616195
4	0xbebd59c4	-0.36982548
5	0x3e3d1cbf	0.18467997
6	0xbc1bc6c8	-0.009507842
7	0x3e3be3af	0.18348573
8	0x3ed8be4c	0.42332685
9	0x3f0103db	0.5039651
10	0x3f051c6e	0.51996505
11	0xbdc4a797	-0.09602278
12	0x3da5b95e	0.080919966
13	0xbda8879b	-0.0822899
14	0xbea85bf7	-0.32882664
15	0x3d8b78e0	0.068101645
16	0x3e3cd0a0	0.18438959
17	0x3ed7eeb8	0.42174315
18	0x3e4cbd35	0.19994052
19	0xbed51782	-0.41619498
20	0x3ea0e29c	0.3142289
21	0x3eadd03a	0.33947927
22	0xbc921b5a	-0.017835308
23	0xbeec8e08	-0.4620211
24	0xbd99fe3a	-0.07519193
25	0x3e15255b	0.14565031
26	0x3dee99b9	0.11650414
27	0xbecf3c5e	-0.40475744
28	0x3dfa37b4	0.12217656
29	0x3d3593f5	0.044330556
30	0xbedf4cb4	-0.43613207
31	0x3e510756	0.20412955
32	0x3e0bf266	0.13666686
33	0x3e06b0d6	0.13153395
34	0x3edcc8c9	0.43121937
35	0x3ec40ccc	0.38291013
36	0x3ed4076e	0.41411918
37	0xbda5b64a	-0.080914095
38	0xbebd9f10	-0.37035418
39	0xbf00e9ef	-0.50356954
40	0x3e64bce9	0.22337689
41	0xbf069837	-0.5257601
42	0x3cba8f41	0.022773387
43	0xbef5041c	-0.47854698
44	0x3e5c9bc9	0.21543802
45	0x3eea2b9f	0.45736405
46	0xbe1912b8	-0.14948547
47	0x3de6a230	0.112614036
48	0x3e2ec385	0.17066772
49	0x3e981bc4	0.29708683
50	0xbe9fbdc2	-0.3119946
51	0x3e473fd8	0.19457948
52	0xbe910801	-0.2832642
53	0x3e57272d	0.21011038
54	0xbe175857	-0.14779793
55	0xbee7fe91	-0.45311406
56	0x3dd781a6	0.10522775
57	0x3eadbeda	0.3393467
58	0x3e7706e4	0.24123722
59	0xbdbb2da7	-0.09139567
60	0x3e4d576a	0.20052877
61	0x3dd4f588	0.10398394
62	0x3eb75854	0.35809577
63	0xbe4677c9	-0.19381632
64	0x3e345041	0.1760874
65	0x3e66b92e	0.22531578
66	0x3e3cba3d	0.1843042
67	0x3e5c2ad2	0.2150071
68	0xbce88cdb	-0.028387478
69	0xbe9d6d3a	-0.30747396
70	0xbe3645f3	-0.17800121
71	0x3eb62ab4	0.35579455
72	0x3d4a8e6b	0.049452227
73	0x3e7d01a9	0.24707665
74	0x3e98ba64	0.29829705
75	0xbd508392	-0.050906725
76	0xbe71a41a	-0.23597756
77	0x3cc20549	0.02368416
78	0xbd86608e	-0.06561385
79	0xbf18b7ea	-0.5965563
80	0xbe554e18	-0.20830572
81	0x3da1ab7a	0.07894035
82	0xba4b9b96	-0.00077670196
83	0x3ebc2495	0.3674666
84	0x3e59bf5f	0.21264409
85	0x3f00164e	0.50034034
86	0x3e915149	0.28382328
87	0x3ea5b64d	0.32365647
88	0xbdae050c	-0.08497056
89	0x3e359652	0.17733124
90	0x3e965e64	0.2936889
91	0xbeafe140	-0.3435154
92	0xbe8880e6	-0.26660842
93	0x3ea890e6	0.3292305
94	0xbdda0a07	-0.10646444
95	0xbe599999	-0.21249999
96	0x3ebe4e3a	0.37169057
97	0x3dc9b952	0.098498
98	0x3e190b8d	0.14945813
99	0x3e942079	0.28931025
100	0xbdc293b7	-0.095008306
101	0xbd9c2206	-0.07623677
102	0xbedae08f	-0.4274945
103	0xbeb8f588	-0.36124825
104	0xbe11381d	-0.14181562
105	0x3e508223	0.20362143
106	0xbd731efc	-0.05935572
107	0xbcbd47ee	-0.023105588
108	0xbc90501e	-0.017616328
109	0x3ed4065c	0.41411102
110	0xbe4b0650	-0.19826627
111	0xbdcd09ae	-0.10011612
112	0x3e8f0b0b	0.27938113
113	0xbd71e79c	-0.05905877
114	0xbe9d8a2e	-0.30769485
115	0x3ed430e0	0.4144354
116	0x3d98095e	0.07423662
117	0x3ea5aad1	0.32356885
118	0x3e1612d8	0.14655626
119	0xbed1218c	-0.40845907
120	0xbcf32e6c	-0.029685222
121	0xbec8258a	-0.3909114
122	0x3e888599	0.26664427
123	0xbe1cf363	-0.1532722
124	0x3e0b7209	0.1361772
125	0x3ee2d512	0.44303185
126	0x3e3afde7	0.18260919
127	0xbd4965bc	-0.049169287
128	0x3edf4f19	0.43615034
129	0xbe9869ef	-0.2976832
130	0xbe8bc27c	-0.27296817
131	0x3ef16098	0.47144008
132	0xbe479f99	-0.19494475
133	0xbee0b991	-0.43891576
134	0x3eed9f4d	0.464106
135	0x3e91066e	0.28325218
136	0xbed3a4b4	-0.41336596
137	0xbe56a708	-0.20962155
138	0x3dd93fb8	0.106078565
139	0xbe208c39	-0.1567849
140	0xbea4ddd5	-0.32200494
141	0xbef841e1	-0.48487762
142	0xbe8a0c8a	-0.26962692
143	0x3e02cbe2	0.12773088
144	0x3e21572c	0.1575591
145	0x3ef89491	0.48550847
146	0xbee16c48	-0.44027925
147	0xbe552fe3	-0.20819049
148	0x3e7c0b45	0.24613674
149	0x3ead08fc	0.33795917
150	0xbe4f21ff	-0.20227812
151	0x3ed5adfa	0.41734296
152	0xbe83742e	-0.25674576
153	0x3ee81f06	0.4533617
154	0x3ecd9275	0.401508
155	0xbe9f9409	-0.3116763
156	0x3e43d3e3	0.19123797
157	0xbbea385b	-0.0071478314
158	0x3d850d6b	0.064967
159	0x3e361809	0.17782606
160	0x3e8b940d	0.2726139
161	0x3e8e4257	0.27784988
162	0xbeae9b05	-0.34102646
163	0x3e52ec8e	0.20598051
164	0xbed2d60c	-0.4117893
165	0x3e962e7e	0.29332346
166	0x3e31315e	0.17303988
167	0x3e3b7644	0.18306834
168	0xbea78edb	-0.32726178
169	0xbe87c411	-0.26516774
170	0xbe00cc44	-0.12577921
171	0x3da4bb35	0.080435194
172	0x3eba0d49	0.3633826
173	0x3da644ec	0.081186146
174	0xbc5b13e4	-0.0133714415
175	0xbe3c304e	-0.18377802
176	0x3e8d3909	0.27582577
177	0xbe3894df	-0.1802554
178	0x3ec91e03	0.3928071
179	0x3eb7f09d	0.3592576
180	0xbd946444	-0.07245687
181	0x3e871abe	0.2638759
182	0xbcd5b78e	-0.026088502
183	0x3d04e08b	0.032440703
184	0x3ed3c88b	0.4136394
185	0xbe96538c	-0.29360616
186	0x3de9c723	0.114149354
187	0x3ed76319	0.42067793
188	0x3ebb778f	0.36614653
189	0x3ea02785	0.3128015
190	0x3dc4d213	0.09610381
191	0x3eb51877	0.35370228
192	0xbd7e4a21	-0.062082414
193	0xbdc1823a	-0.09448667
194	0x3e5a7ab5	0.21335872
195	0x3e332ffd	0.17498775
196	0x3d92a98d	0.071612455
197	0xbe9cc627	-0.30619928
198	0x3ec280ff	0.3798904
199	0xbe78e772	-0.2430704
200	0xbef7dc7a	-0.48410398
201	0x3ee5d9bd	0.44892684
202	0xbe422cb4	-0.18962365
203	0x3e411ed2	0.18859413
204	0x3e119b91	0.142195
205	0xbeb7cb2e	-0.358972
206	0xbd38be1c	-0.045103177
207	0x3dc7feac	0.09765372
208	0x3eea4ef4	0.4576336
209	0x3ed20d7e	0.4102592
210	0x3dc6f3cd	0.0971447
211	0xbe253611	-0.16133906
212	0xbecb55fa	-0.39714032
213	0x3e3e3dba	0.18578234
214	0x3dc2e5aa	0.09516461
215	0xbe978713	-0.2959524
216	0x3e168528	0.14699233
217	0x3e72cf22	0.23711827
218	0xbe8e24cd	-0.27762452
219	0xbe77736c	-0.24165124
220	0x3eb2a1ae	0.34888977
221	0x3d815ce6	0.06316547
222	0x3e622a0a	0.22086349
223	0x3f03073c	0.51182914
224	0x3ef722d0	0.48268747
225	0xbe4fccc5	-0.20292957
226	0x3e670bae	0.22563049
227	0x3eccba8c	0.39986074
228	0x3e95a7e3	0.2922965
229	0x3ea4871f	0.3213434
230	0x3d0c70c2	0.03428722
231	0x3f062a00	0.52407837
232	0xbeb12f4a	-0.3460639
233	0xbc8788ec	-0.016544782
234	0x3ec2f85a	0.38080102
235	0xbeaa734e	-0.33291095
236	0xbd46f854	-0.048576668
237	0x3eccd0a4	0.4000293
238	0x3ea4ced2	0.3218904
239	0x3ebf44a7	0.37357065
240	0xbe289bfe	-0.16465756
241	0xbec3a79b	-0.3821381
242	0x3e6a0c7a	0.22856322
243	0xbe865c7f	-0.26242444
244	0xbe11ce89	-0.14238943
245	0x3e5c1767	0.21493302
246	0xbceeb6a3	-0.029139822
247	0x3e709597	0.23494564
248	0x3e9f1abc	0.31075084
249	0xbe8c098a	-0.27351028
250	0x3e62c23a	0.22144404
251	0x3c8949ef	0.016758887
252	0x3e45852b	0.19289081
253	0x3e8c0299	0.27345732
254	0x3e9233c6	0.28555125
255	0xbe0cadde	-0.137382

model.0.bias f4 [256]
0	0xbe849798	-0.25896907
1	0xbde7af9b	-0.11312791
2	0x3ea1596e	0.31513542
3	0x3ec2785c	0.37982452
4	0x3e8ad0cf	0.27112433
5	0xbea87768	-0.329036
6	0xbea60d7a	-0.32432157
7	0x3dd54f13	0.10415473
8	0x3e86a320	0.2629633
9	0x3ed835ba	0.4222849
10	0xbe8408f2	-0.25788075
11	0xbece7250	-0.4032159
12	0x3e0ccd3b	0.13750164
13	0xbd9cf7cc	-0.07664451
14	0x3e5c2e2d	0.2150199
15	0xbe8e6c25	-0.27816883
16	0x3e761578	0.24031627
17	0x3ea6642a	0.32498294
18	0x3eca6947	0.39533445
19	0x3e218f7b	0.1577739
20	0xbed463b5	-0.4148232
21	0xbe319737	-0.1734284
22	0x3ec6ade4	0.38804543
23	0x3eb173e2	0.34658724
24	0x3e14abe6	0.14518699
25	0x3da3cacc	0.07997665
26	0xbe68807e	-0.22705266
27	0xbe6c1891	-0.23056246
28	0xbe2a5341	-0.16633321
29	0xbecb48e8	-0.3970406
30	0xbec81aeb	-0.39083037
31	0xbd82a23f	-0.06378602
32	0x3e3bcb2c	0.18339223
33	0x3cbcbefc	0.023040287
34	0xbd817af6	-0.06322281
35	0x3ecbc355	0.39797464
36	0x3ea289bc	0.31745708
37	0xbec712d1	-0.38881543
38	0x3eccf5a1	0.4003115
39	0x3e8301f8	0.2558744
40	0x3e6ce0dc	0.23132652
41	0xbe46662f	-0.19374917
42	0x3d40cac7	0.047068384
43	0x3e7723c0	0.24134731
44	0xbe95bfb3	-0.29247817
45	0xbdc1fdab	-0.094722115
46	0x3ed79fe8	0.42114186
47	0xbe0c987f	-0.13730048
48	0xbedddb22	-0.43331248
49	0xbe36d907	-0.17856227
50	0x3ec9a0c3	0.39380464
51	0x3c574483	0.013138893
52	0xbdf90e2b	-0.121609055
53	0x3eb556f7	0.3541791
54	0x3ebfdece	0.37474674
55	0xbecd4670	-0.40092802
56	0xbe5e8023	-0.21728568
57	0x3e5d8dca	0.2163612
58	0xbe94accf	-0.29038092
59	0xbc366cbd	-0.011134324
60	0xbc1a9ac2	-0.009436311
61	0x3e834f9c	0.25646675
62	0x3c7b1746	0.015325373
63	0xbeca5137	-0.39515087
64	0xbee34bb5	-0.44393697
65	0xbd094598	-0.033513635
66	0x3ba9b353	0.005178848
67	0x3ebfc20c	0.37452734
68	0xbcb39bf8	-0.021924958
69	0x3e34288a	0.1759359
70	0x3ec8e1ba	0.39234716
71	0xbe991fc1	-0.2990704
72	0xbe7474c1	-0.23872663
73	0xbe531cd9	-0.20616473
74	0x3e91290e	0.28351635
75	0xbed7139c	-0.42007148
76	0xbe3faaa9	-0.18717445
77	0x3e64f792	0.22360066
78	0xbcdbb10c	-0.026817821
79	0x3e5eaa91	0.21744753
80	0xbba27270	-0.0049574897
81	0xbed815bd	-0.42204085
82	0xbe440da0	-0.19145823
83	0xbe5799e8	-0.21054804
84	0xbe85eee5	-0.26158825
85	0x3da95b5c	0.082693785
86	0xbe11f5f9	-0.14253987
87	0x3e9cc3ec	0.30618227
88	0x3ed7ead7	0.42171356
89	0xbd62b21e	-0.055345647
90	0xbeb05e80	-0.34447098
91	0x3e586de6	0.21135673
92	0xbe8e9176	-0.27845353
93	0x3e258fa3	0.16168074
94	0x3ddc1927	0.10746985
95	0xbeaacb90	-0.3335843
96	0x3ed0e471	0.40799287
97	0xbda4e0c3	-0.080506824
98	0xbe308793	-0.17239217
99	0xbd3bb2e0	-0.045824885
100	0x3e2381f8	0.15967548
101	0x3ed3bd30	0.41355276
102	0x3ebe7b8c	0.37203634
103	0xbea5daa5	-0.32393375
104	0xbd096b86	-0.033549808
105	0x3dc0ac7b	0.09407898
106	0xbe14192b	-0.14462726
107	0xbeb669cf	-0.356276
108	0x3e5185b3	0.20461158
109	0x3e7223b4	0.23646432
110	0xbeba1822	-0.36346537
111	0x3e6b1101	0.22955705
112	0xbe6e7f91	-0.2329085
113	0xbebb73ea	-0.36611873
114	0xbee157bc	-0.4401225
115	0xbedc0399	-0.42971495
116	0x3eae7e14	0.34080565
117	0x3e3e35b3	0.18575172
118	0x3d0c17f7	0.034202542
119	0xbec916d7	-0.39275238
120	0x3e874a82	0.26424032
121	0xbe06d488	-0.13167012
122	0x3e88fd98	0.26755977
123	0xbe29a2ec	-0.16566056
124	0xbe8fb161	-0.28065017
125	0xbd8653e6	-0.06558971
126	0x3ee183fc	0.4404601
127	0x3c561935	0.013067533
128	0xbee0f78c	-0.43938863
129	0x3eb3c922	0.3511439
130	0xbd0d90fd	-0.0345621
131	0x3ed7c370	0.42141294
132	0x3e28e4ed	0.16493578
133	0x3e5f5484	0.21809584
134	0xbca88264	-0.020569988
135	0x3cc82bcb	0.024434945
136	0x3e3e265c	0.1856932
137	0x3e5b97f0	0.21444678
138	0xbec3bdd6	-0.3823077
139	0xbed82d0a	-0.42221862
140	0xbed8dc96	-0.42355794
141	0xbbf31dec	-0.0074193384
142	0xbe6a4228	-0.22876799
143	0xbd01fd49	-0.031735692
144	0x3e98a609	0.29814175
145	0xbea6819c	-0.3252076
146	0xbed24ace	-0.41072696
147	0x3ea0cbf2	0.31405598
148	0x3e27753d	0.16353317
149	0x3debc15d	0.115114905
150	0xbebd9eb9	-0.37035158
151	0x3e872e78	0.2640264
152	0xbeca87a7	-0.3955662
153	0x3dafa8ab	0.08577093
154	0xbeca9082	-0.39563376
155	0xbe96ebf3	-0.2947689
156	0xbe01e866	-0.12686309
157	0xbe4f1994	-0.20224601
158	0x3ee28837	0.4424455
159	0xbe36d9b4	-0.17856485
160	0x3ebb1a9c	0.3654374
161	0xbdbe7c84	-0.09301093
162	0xbe80c7fb	-0.25152573
163	0xbe178d70	-0.14800048
164	0x3e0c24b5	0.13685878
165	0xbec734d1	-0.38907483
166	0xbea2b4b4	-0.3177849
167	0xbe74fcd3	-0.2392457
168	0xbe12688c	-0.14297694
169	0xbea8088b	-0.32819018
170	0x3e910e48	0.28331208
171	0xbd83587d	-0.06413362
172	0xbe8e190f	-0.27753493
173	0xbeab258d	-0.33427086
174	0x3e82a355	0.25515237
175	0x3daf1a11	0.08549894
176	0x3e8bdc86	0.27316684
177	0xbed1f06e	-0.41003746
178	0x3ed4edd6	0.41587704
179	0xbebe972e	-0.37224716
180	0x3ea21773	0.31658515
181	0x3e6ed304	0.23322684
182	0xbda65905	-0.08122448
183	0x3e08f8d4	0.1337617
184	0xbe730104	-0.23730856
185	0xbed99a89	-0.42500713
186	0xbe74b86b	-0.23898475
187	0xbebc9af9	-0.36836985
188	0x3d648871	0.055794183
189	0x3e1878d1	0.14889838
190	0x3d0002e9	0.031252775
191	0xbedd3a11	-0.43208364
192	0x3d61e3ec	0.055149004
193	0x3e74d23b	0.23908322
194	0xbe18f080	-0.14935493
195	0xbdb63407	-0.08896642
196	0x3e0d2aae	0.13785812
197	0x3dbbe60c	0.09174737
198	0xbe945feb	-0.2897943
199	0x3dd90b22	0.105978265
200	0xbdb7cc43	-0.08974507
201	0x3ebc6e17	0.36802742
202	0x3dbc8d4e	0.09206639
203	0xbe89e117	-0.26929542
204	0x3db47014	0.0881044
205	0xbe0311bd	-0.12799735
206	0xbe605b63	-0.21909861
207	0xbe4d5ebe	-0.20055673
208	0xbeba0321	-0.36330512
209	0x3eda7fb5	0.42675558
210	0x3e7b2582	0.24526027
211	0xbe553005	-0.20819099
212	0x3e3df08b	0.18548791
213	0x3d8376bb	0.064191304
214	0x3ed0573e	0.4069156
215	0x3ec87623	0.3915263
216	0x3a56bee1	0.00081918953
217	0x3c3f4dad	0.011676234
218	0xbece80fb	-0.4033278
219	0x3eb501f5	0.35353056
220	0x3e99c382	0.30031973
221	0x3eda1878	0.42596793
222	0xbe2dc3a2	-0.16969159
223	0xbe6de479	-0.23231687
224	0x3eaf6c92	0.3426252
225	0x3d5dbbf1	0.054134313
226	0xbe0387ac	-0.12844723
227	0x3e8885c3	0.26664552
228	0xbeabc90a	-0.33551818
229	0x3e959219	0.29213026
230	0xbe4d3857	-0.20041023
231	0xbcfcca96	-0.03085832
232	0x3ce11ec5	0.027480492
233	0x3e2a01b9	0.1660222
234	0xbe8bcac7	-0.27303144
235	0x3e8c7fcf	0.2744126
236	0x3de5303d	0.11190841
237	0x3caa6698	0.020800874
238	0x3e012692	0.1261237
239	0x3ec7a314	0.38991606
240	0xbd533d63	-0.051572215
241	0xbed20f69	-0.41027382
242	0x3e81523c	0.25258052
243	0x3e9b6719	0.30352095
244	0x3de4737b	0.11154839
245	0xbda3713e	-0.079805836
246	0xbd8a18e1	-0.067430265
247	0xbd533302	-0.051562317
248	0x3edc3bff	0.43014523
249	0x3d23db1b	0.040003877
250	0x3e892977	0.26789448
251	0x3e6085f7	0.21926104
252	0x3ec46f17	0.38366005
253	0x3e109ae8	0.14121592
254	0xbe887fa4	-0.26659882
255	0x3ebbc48e	0.36673397

model.1.weight f4 [256]
0	0x3f70a416	0.94000375
1	0x3f649574	0.8929055
2	0x3f5fadac	0.8737438
3	0x3f88b15a	1.0679123
4	0x3f5c2d43	0.86006564
5	0x3f8acd0c	1.0843825
6	0x3f800152	1.0000403
7	0x3f807eb2	1.0038664
8	0x3f6cfbb5	0.92571574
9	0x3f70a38c	0.9399955
10	0x3f6a40d1	0.9150515
11	0x3f823ea6	1.0175369
12	0x3f7fc8bc	0.9991567
13	0x3f5f54e7	0.87238926
14	0x3f917371	1.1363355
15	0x3f796fb7	0.9743609
16	0x3f756830	0.958621
17	0x3f6c8ede	0.924055
18	0x3f7187ab	0.9434764
19	0x3f851139	1.0395881
20	0x3f868105	1.0508124
21	0x3f8898d9	1.0671645
22	0x3f86c1f3	1.0527939
23	0x3f874b73	1.05699
24	0x3f7ea5d8	0.9947181
25	0x3f9441da	1.1582596
26	0x3f8c9477	1.0982808
27	0x3f872550	1.0558262
28	0x3f73a880	0.95178986
29	0x3f6e3c50	0.9306078
30	0x3f8b799b	1.0896486
31	0x3f779e81	0.9672623
32	0x3f9fac62	1.2474482
33	0x3f69b004	0.91284204
34	0x3f80134f	1.0005893
35	0x3f70bb18	0.9403548
36	0x3f840457	1.0313824
37	0x3f71f288	0.945107
38	0x3f7f66e3	0.9976637
39	0x3f89941d	1.0748326
40	0x3f710f53	0.9416401
41	0x3f5dada3	0.86593074
42	0x3f6a6d6f	0.9157323
43	0x3f724cdd	0.94648534
44	0x3f8806d1	1.062708
45	0x3f8a1e46	1.0790489
46	0x3f71b70d	0.9441994
47	0x3f797774	0.97447896
48	0x3f5f456b	0.872153
49	0x3f86b8e1	1.052517
50	0x3f81f567	1.0153016
51	0x3f6d78c1	0.9276238
52	0x3f86fd7d	1.0546108
53	0x3f7a35c5	0.97738296
54	0x3f8f5b01	1.1199647
55	0x3f6dd405	0.9290164
56	0x3f8054f5	1.0025927
57	0x3f8e2a17	1.1106595
58	0x3f74ff98	0.95702505
59	0x3f5fb3ab	0.87383527
60	0x3f5975ef	0.8494558
61	0x3f78f752	0.9725238
62	0x3f8a8cdc	1.0824237
63	0x3f850c34	1.0394349
64	0x3f6fe4ac	0.937083
65	0x3f9fa31a	1.247165
66	0x3f885e2c	1.0653739
67	0x3f8482fd	1.0352474
68	0x3f9cc0e4	1.2246366
69	0x3f60c5a6	0.8780159
70	0x3f872f81	1.0561372
71	0x3f86c2e9	1.0528232
72	0x3f5eefce	0.8708466
73	0x3f83e5ab	1.0304464
74	0x3f73d55e	0.9524745
75	0x3f80372c	1.0016837
76	0x3f7f2d1d	0.9967821
77	0x3f94ffa5	1.1640517
78	0x3f81986a	1.0124638
79	0x3f6ed153	0.93288153
80	0x3f80180d	1.000734
81	0x3f885869	1.0651981
82	0x3f6e6015	0.9311536
83	0x3f70ef3e	0.94115055
84	0x3f6f2f46	0.9343151
85	0x3f72a2db	0.9477975
86	0x3f722a54	0.9459584
87	0x3f87cf4d	1.0610138
88	0x3f859573	1.0436233
89	0x3f680a95	0.90641147
90	0x3f6151e0	0.88015556
91	0x3f89904f	1.0747164
92	0x3f89b6d2	1.0758917
93	0x3f7e0bde	0.9923686
94	0x3f876ee2	1.0580714
95	0x3f769add	0.9633005
96	0x3f70a427	0.94000477
97	0x3f85470c	1.0412307
98	0x3f6abd5c	0.9169519
99	0x3f7fc65f	0.99912065
100	0x3f67d750	0.90562916
101	0x3f75c975	0.96010524
102	0x3f7a591f	0.9779224
103	0x3f869595	1.0514399
104	0x3f783f4e	0.96971595
105	0x3f6ed2fa	0.93290675
106	0x3f7d29fe	0.988922
107	0x3f6effe2	0.93359196
108	0x3f619cb4	0.88129735
109	0x3f92081a	1.1408722
110	0x3f803b4a	1.0018094
111	0x3f8706e0	1.0548973
112	0x3f83dadb	1.0301164
113	0x3f7631f9	0.9617
114	0x3f72d6f4	0.9485924
115	0x3f77428e	0.9658593
116	0x3f887263	1.0659908
117	0x3f88c402	1.0684817
118	0x3f6ad5e9	0.9173265
119	0x3f79177c	0.9730146
120	0x3f6a593d	0.91542417
121	0x3f7d7414	0.99005246
122	0x3f9c6c10	1.2220478
123	0x3f7ff061	0.99976164
124	0x3f7293a2	0.9475652
125	0x3f6c66ec	0.92344546
126	0x3f81f568	1.0153017
127	0x3f945c05	1.1590582
128	0x3f6e9548	0.93196535
129	0x3f72e893	0.9488613
130	0x3f73d76b	0.95250577
131	0x3f6dce9f	0.92893404
132	0x3f8d56a0	1.1042061
133	0x3fa9d7a4	1.3268933
134	0x3f40deb3	0.7533981
135	0x3f891b8d	1.0711533
136	0x3f8823fb	1.063598
137	0x3f7ca522	0.9868947
138	0x3f6e5b15	0.9310773
139	0x3f840221	1.031315
140	0x3f8842b2	1.0645354
141	0x3f85facb	1.0467161
142	0x3f6702b4	0.902385
143	0x3f86aa3f	1.0520705
144	0x3f4cd910	0.8001871
145	0x3f8b9299	1.0904113
146	0x3f8da769	1.1066715
147	0x3f87a010	1.0595722
148	0x3f817ace	1.0115602
149	0x3f7d558b	0.98958653
150	0x3f82e0f4	1.02249
151	0x3f90d7da	1.1315873
152	0x3f810f1a	1.0082734
153	0x3f719817	0.94372696
154	0x3f8359e7	1.0261811
155	0x3f817005	1.0112311
156	0x3f87d511	1.0611898
157	0x3fa6373b	1.2985605
158	0x3f85d191	1.045458
159	0x3f681565	0.90657645
160	0x3f8ec823	1.1154827
161	0x3f804251	1.0020238
162	0x3f743bef	0.9540395
163	0x3f71a777	0.94396156
164	0x3f8411b8	1.0317907
165	0x3f84e850	1.0383396
166	0x3f797170	0.97438717
167	0x3f80ee81	1.0072786
168	0x3f8af6be	1.085655
169	0x3f8acbc5	1.0843436
170	0x3f891ad8	1.0711317
171	0x3f9172d5	1.1363169
172	0x3f8892a6	1.0669754
173	0x3f8fa31b	1.1221651
174	0x3f7753de	0.96612346
175	0x3f857de1	1.042904
176	0x3f83bc2f	1.0291804
177	0x3f582679	0.84433705
178	0x3f863e57	1.0487775
179	0x3f6d1718	0.92613363
180	0x3f825458	1.018199
181	0x3f91b037	1.1381902
182	0x3f866875	1.0500628
183	0x3f886c30	1.0658016
184	0x3f85e833	1.0461487
185	0x3f79cd4c	0.97578883
186	0x3f7d13b5	0.98858196
187	0x3f863588	1.0485086
188	0x3f8462e4	1.0342679
189	0x3f81ad08	1.013093
190	0x3f78acb0	0.971385
191	0x3f7143bd	0.94243985
192	0x3f7717ba	0.9652058
193	0x3f825ab8	1.0183935
194	0x3f3fde23	0.7494833
195	0x3f650ef7	0.8947596
196	0x3f7bc93e	0.98353946
197	0x3f74375c	0.9539697
198	0x3f6911a7	0.9104256
199	0x3f7b3c39	0.9813877
200	0x3f86af72	1.0522292
201	0x3f811826	1.0085495
202	0x3f8dfee2	1.1093409
203	0x3f626e5b	0.8844964
204	0x3f7c5916	0.98573434
205	0x3f6dfab5	0.92960674
206	0x3f86c110	1.0527668
207	0x3f6f9263	0.93582743
208	0x3f764275	0.96195155
209	0x3f5ad067	0.85474247
210	0x3f7bb11f	0.9831714
211	0x3f8536e7	1.040738
212	0x3f68f412	0.9099742
213	0x3f812e7f	1.0092314
214	0x3f8b7857	1.08961
215	0x3f7ed7bc	0.99547935
216	0x3f8b33c9	1.0875179
217	0x3f727d7c	0.94722724
218	0x3f84cb16	1.0374477
219	0x3f7b8262	0.98245823
220	0x3f7bccfc	0.98359656
221	0x3f813f81	1.0097505
222	0x3f840f70	1.0317211
223	0x3f8998d0	1.074976
224	0x3f862889	1.048112
225	0x3f7259f1	0.9466849
226	0x3f748352	0.9551288
227	0x3f696629	0.9117151
228	0x3f6c6bcb	0.9235198
229	0x3f754ec6	0.95823324
230	0x3f5aac60	0.85419273
231	0x3f764035	0.9619172
232	0x3f7f0021	0.9960957
233	0x3f717b2c	0.9432857
234	0x3f87f101	1.0620424
235	0x3f8488ab	1.0354208
236	0x3f8254f6	1.0182178
237	0x3f92fdb2	1.1483672
238	0x3f813857	1.0095319
239	0x3f6b7153	0.91969794
240	0x3f89491c	1.0725436
241	0x3f7195df	0.9436931
242	0x3f5fc640	0.8741188
243	0x3f88508f	1.0649585
244	0x3f83626e	1.0264413
245	0x3f6dbfc5	0.9287074
246	0x3f8747aa	1.0568745
247	0x3f82280a	1.0168469
248	0x3f54f1a1	0.83181196
249	0x3f6d0e2f	0.9259977
250	0x3f7d084a	0.98840773
251	0x3f77a0cd	0.9672974
252	0x3f5f3a82	0.8719865
253	0x3f8be991	1.0930654
254	0x3f97b5f0	1.1852398
255	0x3f7cb19d	0.98708516

model.1.bias f4 [256]
0	0x3c7450bf	0.0149118295
1	0xbdaf61b8	-0.0856356
2	0xbde28015	-0.11059586
3	0x3ceea893	0.029133117
4	0xbdab02da	-0.08350153
5	0x3ce6063c	0.028079145
6	0xbeb97939	-0.36225298
7	0x3c08e8e4	0.008356307
8	0xbe139faf	-0.14416383
9	0x3c0d4c08	0.008624084
10	0xbe607984	-0.21921355
11	0xbd88a824	-0.06672695
12	0xbdad75d9	-0.08469743
13	0xbdd88bf5	-0.1057357
14	0xbd7bbce9	-0.061459456
15	0xbd9e64d6	-0.07734077
16	0xbe360ea7	-0.17779027
17	0xbd0e9118	-0.03480634
18	0xbdd512a0	-0.10403943
19	0xbe03cdbd	-0.12871452
20	0x3c9457c0	0.018108249
21	0xbddc1226	-0.10745649
22	0x3d6eb298	0.05827579
23	0xbdff2136	-0.12457506
24	0xbe1a6107	-0.15076075
25	0x3dc8df34	0.098081976
26	0x3abffd32	0.0014647602
27	0x3d486666	0.04892578
28	0xbccc5673	-0.024943566
29	0xbd8fa199	-0.07013244
30	0x3c5467a6	0.012964165
31	0xbdcd2b60	-0.10018039
32	0xbda53fba	-0.080687955
33	0xbc4cfbec	-0.012511235
34	0xbde777e1	-0.11302162
35	0xbcddf0d1	-0.02709237
36	0xbd00e480	-0.031467915
37	0xbe7f2132	-0.24915007
38	0xbe3d7be2	-0.18504289
39	0x3d962a16	0.07332246
40	0xbe0d5762	-0.13802865
41	0xbe787bcc	-0.24265975
42	0xbd4ebf97	-0.050475683
43	0xbcc7b005	-0.024375925
44	0xbda43595	-0.080180325
45	0xbdbb49fb	-0.0914497
46	0xbe79d072	-0.24395922
47	0xbe21ca43	-0.15799813
48	0xbdd8a0dd	-0.10577557
49	0xbe39f208	-0.18158734
50	0x3d95b3ef	0.0730971
51	0xbd8b97e3	-0.068160795
52	0xbd90c42d	-0.070686676
53	0xbdc0336a	-0.093848065
54	0xbd8dab15	-0.06917397
55	0xbc3b4df5	-0.011432161
56	0xbce6a984	-0.028157003
57	0xbda47bbc	-0.08031413
58	0xbde53b45	-0.111929454
59	0xbe115c55	-0.14195378
60	0xbe9cc2b1	-0.30617288
61	0x3d5df43f	0.05418801
62	0x3d63909e	0.05555784
63	0x3e252cc8	0.16130364
64	0xbe6f1ae2	-0.23350099
65	0xbe005234	-0.12531358
66	0xbe079ae5	-0.13242681
67	0xbda63394	-0.081153065
68	0xbe165b13	-0.1468318
69	0xbdc116e9	-0.09428198
70	0xbec8cfc2	-0.39221007
71	0xbb8512a3	-0.0040610596
72	0xbd6899e9	-0.056787405
73	0xbbf6774e	-0.0075215464
74	0xbdb2de89	-0.087338515
75	0x3cc9103c	0.024543874
76	0x3d85f6d5	0.0654122
77	0xbdf6501d	-0.12026999
78	0x3d32be67	0.043638613
79	0xbe4d3adc	-0.20041984
80	0xbe46471a	-0.1936306
81	0xbd6eb3e7	-0.058277037
82	0xbe65722d	-0.22406836
83	0xbd19af34	-0.037520602
84	0xbe2001d5	-0.15625699
85	0x3c8e98df	0.017406879
86	0xbde2e811	-0.110794194
87	0xbe3734cd	-0.17891236
88	0xbcd6d112	-0.02622274
89	0xbc37544c	-0.011189532
90	0xbe239990	-0.15976548
91	0xbe4447a3	-0.19167952
92	0x3d4d7df3	0.050168943
93	0xbdfd6f99	-0.12374801
94	0xbd84b5aa	-0.06479962
95	0xbdc888ee	-0.09791742
96	0xbe1ab7a4	-0.15109116
97	0xbdc710ea	-0.09720023
98	0x3cbc7465	0.02300472
99	0xbe39abab	-0.18131892
100	0xbd563bba	-0.052303053
101	0xbe1535d5	-0.14571317
102	0x3b71c62e	0.0036891806
103	0x3e2130c7	0.15741263
104	0xbe0f654a	-0.14003482
105	0xbd7f02e7	-0.062258627
106	0x3a84fbef	0.0010145883
107	0xbe4c0b9a	-0.199263
108	0xbdc99c86	-0.098443076
109	0x3d3e2009	0.04641727
110	0xbd7c2cce	-0.061566167
111	0xbd430014	-0.047607496
112	0x3e25d076	0.16192803
113	0xbe11dc75	-0.14244254
114	0xbdc254ac	-0.09488806
115	0xbd5ebe65	-0.054380793
116	0xbd54e453	-0.05197556
117	0xbdb88966	-0.09010582
118	0xbdd2ab2f	-0.10286557
119	0x3d0c4e04	0.03425409
120	0xbda57e02	-0.08080675
121	0x3db070aa	0.08615239
122	0xbe49d9e8	-0.19712031
123	0x3d2b6f66	0.041854285
124	0xbdd346d7	-0.10316246
125	0xbb88d0a5	-0.004175263
126	0xbd3eb385	-0.046557922
127	0x3d5c368b	0.053762954
128	0xbd00025a	-0.031252243
129	0xbd807e0e	-0.06274043
130	0xbd04df48	-0.0324395
131	0xbdcd1611	-0.100139745
132	0x3d711f3b	0.058867674
133	0x3d6c57ed	0.05770104
134	0xbe900a31	-0.28132775
135	0xbda8a024	-0.082336694
136	0xbc076c91	-0.00826563
137	0xbdc2cde7	-0.09511929
138	0xbe2bd096	-0.16778788
139	0xbd47fd77	-0.048825707
140	0xbd9002ee	-0.07031809
141	0x3ca7c816	0.02048115
142	0xbe0a4733	-0.13503723
143	0x3db1e899	0.086869426
144	0xbdd042e6	-0.1016901
145	0x3db1c163	0.08679464
146	0xbc536f75	-0.012904991
147	0xbddc50dc	-0.1075761
148	0xbddf017d	-0.10888956
149	0xbdd11f71	-0.10211075
150	0xbd5c57f7	-0.053794827
151	0xbda47013	-0.08029189
152	0xbe158685	-0.14602096
153	0x3b00fccd	0.001968193
154	0xbd3ce30f	-0.046114977
155	0xbe512fdd	-0.20428415
156	0xbd2df948	-0.04247406
157	0xbe59b86a	-0.21261755
158	0xbc38601f	-0.011253386
159	0xbd9522ce	-0.07282029
160	0xbe84d405	-0.25943008
161	0xbd8c65b2	-0.06855334
162	0xbd8b7cd8	-0.068109214
163	0xbde76186	-0.11297898
164	0x3c268aa4	0.01016489
165	0x3ce2fbde	0.02770799
166	0x3cc4b9d2	0.024014387
167	0xbe550a4c	-0.20804709
168	0x3cb39202	0.021920208
169	0xbd99162f	-0.07474934
170	0xbe2555b4	-0.16145974
171	0xbce2809e	-0.02764922
172	0xbc48afe4	-0.012248967
173	0x3db40262	0.08789517
174	0xbd7374a8	-0.059437424
175	0xbe9d39ab	-0.3070806
176	0xbe7d8b9f	-0.24760292
177	0xbe35b9c6	-0.17746648
178	0xbd20c1c0	-0.039247274
179	0xbd9067a3	-0.07051017
180	0xbe856188	-0.26050973
181	0xbc1d091b	-0.00958469
182	0xbe6c3893	-0.23068456
183	0x3cc82ed8	0.0244364
184	0xbe464d1a	-0.1936535
185	0xbe06bab4	-0.13157159
186	0xbdf2c1bf	-0.118533604
187	0x3d6e2c50	0.05814773
188	0x3c9e162e	0.019297685
189	0xbd0f0ca2	-0.034924157
190	0xbdc9b564	-0.09849051
191	0xbc8824cc	-0.016619109
192	0xbdeef6ea	-0.11668189
193	0x3b4e90b9	0.0031519367
194	0xbe0c8976	-0.13724312
195	0xbe985dc5	-0.2975904
196	0xbe3ad89c	-0.18246692
197	0xbd9d440d	-0.07678995
198	0xbe3c2ac4	-0.18375689
199	0xbe0a554d	-0.13509102
200	0xbd2319b1	-0.039819423
201	0xbcc5bf51	-0.024139078
202	0xbe16be3b	-0.14721005
203	0xbdde1a9d	-0.1084492
204	0xbb58865e	-0.0033039073
205	0xbdae42c9	-0.08508832
206	0xbde0b3f8	-0.10971826
207	0xbe233ef2	-0.1594198
208	0xbdc284f5	-0.09498016
209	0xbe2cc18d	-0.16870709
210	0x3d614bbf	0.055003878
211	0xbd634fbb	-0.05549596
212	0xbe7128b2	-0.2355068
213	0x3d117704	0.035513893
214	0xbe5de67f	-0.21669959
215	0xbdceb938	-0.100939214
216	0xbe1ad454	-0.15120059
217	0x3e10f45e	0.14155719
218	0x3d2780c5	0.04089429
219	0xbba3c478	-0.004997786
220	0xbdb37393	-0.087622784
221	0x3b6877c4	0.0035471777
222	0xbdab5f7e	-0.08367823
223	0x3cb08754	0.021548904
224	0xbb79d8e9	-0.0038123673
225	0xbb0704d8	-0.0020602252
226	0xbdb90511	-0.090341695
227	0xbd84ae61	-0.06478573
228	0xbe59bcc9	-0.21263422
229	0x3cbdb2ef	0.023156611
230	0xbea93e43	-0.33055314
231	0xbce212f4	-0.027596928
232	0x3e22154e	0.1582844
233	0xbd2993bc	-0.041400656
234	0x3bc05780	0.005869806
235	0xbd9fc9e6	-0.07802181
236	0xbb896656	-0.0041931076
237	0xbe048ef8	-0.12945163
238	0x3d06d51b	0.032918077
239	0xbe4bf8b7	-0.19919096
240	0xbe5db0ed	-0.21649523
241	0xbd6d1731	-0.057883445
242	0xbd53c3a6	-0.051700257
243	0x3c1896bf	0.009313284
244	0xbc827b28	-0.015927866
245	0xbdb82fd6	-0.08993499
246	0xbe13044a	-0.14357105
247	0xbd872c1e	-0.066002116
248	0xbdd307d7	-0.1030423
249	0xbd6827a8	-0.056678444
250	0xbd81b94c	-0.06334171
251	0x3d27fa6f	0.041010316
252	0xbdd13d26	-0.10216741
253	0xbe21c53d	-0.15797897
254	0xbcb16c75	-0.021658162
255	0xbd8033df	-0.062598936

model.1.running_mean f4 [256]
0	0xbe8494f0	-0.2589488
1	0xbde7b0ca	-0.11313017
2	0x3ea158ea	0.3151315
3	0x3ec2770d	0.37981454
4	0x3e8acfe7	0.27111742
5	0xbea87235	-0.32899633
6	0xbea60bfa	-0.32431012
7	0x3dd54830	0.10414159
8	0x3e86a2eb	0.26296172
9	0x3ed831e8	0.42225575
10	0xbe840a0e	-0.2578892
11	0xbece6727	-0.40313074
12	0x3e0ccc5c	0.13749832
13	0xbd9cf260	-0.07663417
14	0x3e5c2ebb	0.21502201
15	0xbe8e6bae	-0.27816528
16	0x3e760c50	0.24028134
17	0x3ea66674	0.3250004
18	0x3eca688e	0.39532894
19	0x3e218a32	0.15775374
20	0xbed46403	-0.41482553
21	0xbe31a486	-0.17347917
22	0x3ec6ae4a	0.38804847
23	0x3eb173f6	0.34658784
24	0x3e149b3b	0.1451234
25	0x3da3d1c4	0.07998994
26	0xbe687279	-0.22699918
27	0xbe6c1b2d	-0.23057242
28	0xbe2a532d	-0.16633292
29	0xbecb482e	-0.39703506
30	0xbec81bc5	-0.39083686
31	0xbd82901f	-0.06375145
32	0x3e3bd65b	0.18343489
33	0x3cbcc322	0.023042265
34	0xbd817df8	-0.06322855
35	0x3ecbc38d	0.3979763
36	0x3ea28489	0.3174174
37	0xbec71438	-0.38882613
38	0x3eccf816	0.40033025
39	0x3e82fef8	0.2558515
40	0x3e6cdfff	0.23132323
41	0xbe4661f7	-0.19373308
42	0x3d40cd26	0.047070645
43	0x3e772acd	0.24137421
44	0xbe95baf9	-0.2924421
45	0xbdc1f0f5	-0.09469787
46	0x3ed79e5a	0.42113
47	0xbe0c9c4c	-0.13731498
48	0xbeddda39	-0.43330553
49	0xbe36df53	-0.17858629
50	0x3ec9a4f4	0.39383662
51	0x3c573313	0.013134736
52	0xbdf8f54d	-0.121561624
53	0x3eb5577c	0.35418308
54	0x3ebfd838	0.3746965
55	0xbecd439d	-0.40090647
56	0xbe5e7118	-0.2172283
57	0x3e5d893f	0.21634386
58	0xbe94af20	-0.2903986
59	0xbc362cbc	-0.011119064
60	0xbc1ad7ec	-0.009450894
61	0x3e835d82	0.25657278
62	0x3c7b8049	0.01535041
63	0xbeca5100	-0.39514923
64	0xbee3490c	-0.44391668
65	0xbd093b23	-0.033503663
66	0x3ba9b5b6	0.0051791323
67	0x3ebfc28d	0.37453118
68	0xbcb346cd	-0.021884346
69	0x3e342683	0.17592816
70	0x3ec8e1f4	0.3923489
71	0xbe992052	-0.2990747
72	0xbe746f84	-0.23870665
73	0xbe531650	-0.2061398
74	0x3e912b5d	0.28353396
75	0xbed7113a	-0.4200533
76	0xbe3fab14	-0.18717605
77	0x3e64f6d2	0.2235978
78	0xbcdb81b8	-0.026795253
79	0x3e5ea10a	0.21741119
80	0xbba2e066	-0.004970598
81	0xbed81469	-0.42203072
82	0xbe440321	-0.19141819
83	0xbe5795ad	-0.2105319
84	0xbe85ee6e	-0.2615847
85	0x3da96112	0.08270468
86	0xbe11f3c0	-0.1425314
87	0x3e9cc225	0.3061687
88	0x3ed7e959	0.42170218
89	0xbd62a55c	-0.05533348
90	0xbeb05d4d	-0.34446183
91	0x3e586d3f	0.21135424
92	0xbe8e8fd0	-0.27844095
93	0x3e25957d	0.16170307
94	0x3ddc3174	0.1075162
95	0xbeaac87a	-0.33356076
96	0x3ed0e21b	0.40797505
97	0xbda4cf51	-0.08047355
98	0xbe307fb7	-0.1723622
99	0xbd3b8d32	-0.04578895
100	0x3e238264	0.15967709
101	0x3ed3bc65	0.4135467
102	0x3ebe7e96	0.37205952
103	0xbea5dce3	-0.32395086
104	0xbd094a06	-0.03351786
105	0x3dc0a691	0.0940677
106	0xbe1414d1	-0.14461066
107	0xbeb66958	-0.35627246
108	0x3e5186dc	0.20461601
109	0x3e7224bf	0.2364683
110	0xbeba1620	-0.36345005
111	0x3e6af865	0.22946317
112	0xbe6e77cb	-0.23287885
113	0xbebb7432	-0.36612087
114	0xbee15458	-0.44009662
115	0xbedc003e	-0.42968935
116	0x3eae7ac1	0.3407803
117	0x3e3e206e	0.18567058
118	0x3d0c1af5	0.034205396
119	0xbec91324	-0.39272416
120	0x3e874843	0.2642232
121	0xbe06df77	-0.13171183
122	0x3e890c16	0.26767033
123	0xbe29a29a	-0.16565934
124	0xbe8fafb8	-0.2806375
125	0xbd866fb1	-0.06564272
126	0x3ee18274	0.4404484
127	0x3c55b83a	0.013044411
128	0xbee0f262	-0.43934923
129	0x3eb3c782	0.3511315
130	0xbd0d77a7	-0.034537937
131	0x3ed7c73f	0.421442
132	0x3e28e299	0.1649269
133	0x3e5f4b56	0.21806082
134	0xbca8877f	-0.020572422
135	0x3cc81e32	0.02442846
136	0x3e3e2c9a	0.18571702
137	0x3e5b7dc2	0.21434692
138	0xbec3ba4e	-0.38228077
139	0xbed829dd	-0.4221944
140	0xbed8dbd6	-0.42355222
141	0xbbf34c18	-0.0074248426
142	0xbe6a4106	-0.22876367
143	0xbd023a0b	-0.031793635
144	0x3e98a40d	0.2981266
145	0xbea68281	-0.32521442
146	0xbed246ca	-0.41069633
147	0x3ea0da1b	0.314164
148	0x3e27724b	0.16352193
149	0x3debc601	0.115123756
150	0xbebda3f4	-0.3703915
151	0x3e872cb1	0.26401284
152	0xbeca8ce0	-0.39560604
153	0x3dafb3f8	0.08579248
154	0xbeca8deb	-0.395614
155	0xbe96ecec	-0.29477632
156	0xbe01ea39	-0.12687005
157	0xbe4f184b	-0.20224111
158	0x3ee28cd5	0.4424807
159	0xbe36db29	-0.1785704
160	0x3ebb1c98	0.36545253
161	0xbdbe917e	-0.09305094
162	0xbe80c4dc	-0.25150192
163	0xbe178f7f	-0.14800833
164	0x3e0c2206	0.13684854
165	0xbec735fc	-0.38908374
166	0xbea2b39e	-0.31777662
167	0xbe7511c4	-0.23932558
168	0xbe1261e3	-0.14295153
169	0xbea801fe	-0.3281402
170	0x3e910fbd	0.2833232
171	0xbd835280	-0.0641222
172	0xbe8e1b0c	-0.2775501
173	0xbeab2165	-0.33423916
174	0x3e82a70a	0.25518066
175	0x3daf1804	0.085495025
176	0x3e8bdb2f	0.2731566
177	0xbed1ef9e	-0.41003126
178	0x3ed4ed97	0.41587517
179	0xbebe94f2	-0.3722301
180	0x3ea2180c	0.3165897
181	0x3e6ec583	0.23317532
182	0xbda6728e	-0.08127318
183	0x3e08f191	0.133734
184	0xbe72f50f	-0.23726295
185	0xbed9958e	-0.42496914
186	0xbe74b750	-0.23898053
187	0xbebc9d21	-0.3683863
188	0x3d646ab6	0.05576583
189	0x3e187198	0.14887083
190	0x3d0022eb	0.0312833
191	0xbedd3edd	-0.43212023
192	0x3d61d294	0.055132464
193	0x3e74ce85	0.23906906
194	0xbe18ee08	-0.14934552
195	0xbdb62600	-0.08893967
196	0x3e0d2a2a	0.13785616
197	0x3dbbe26b	0.09174045
198	0xbe946052	-0.28979737
199	0x3dd8fe33	0.1059536
200	0xbdb7d911	-0.08976949
201	0x3ebc6b62	0.36800677
202	0x3dbc9ea1	0.092099436
203	0xbe89e0df	-0.26929376
204	0x3db4734a	0.08811052
205	0xbe0310e5	-0.12799414
206	0xbe6059c4	-0.21909243
207	0xbe4d50a9	-0.200503
208	0xbeba0013	-0.36328182
209	0x3eda7ff7	0.42675754
210	0x3e7b1a35	0.24521716
211	0xbe5529c5	-0.20816715
212	0x3e3decbc	0.18547338
213	0x3d836e29	0.06417496
214	0x3ed04fa8	0.40685773
215	0x3ec873ec	0.3915094
216	0x3a73bc58	0.000929778
217	0x3c3f379e	0.011670975
218	0xbece8068	-0.4033234
219	0x3eb501ed	0.35353032
220	0x3e99c54a	0.30033332
221	0x3eda1c1f	0.4259958
222	0xbe2dcc52	-0.16972473
223	0xbe6deca2	-0.232348
224	0x3eaf67fb	0.34259018
225	0x3d5db3fb	0.05412672
226	0xbe0384b7	-0.12843595
227	0x3e8884db	0.2666386
228	0xbeabc7ba	-0.33550817
229	0x3e958f7f	0.2921104
230	0xbe4d369b	-0.20040362
231	0xbcfc78fb	-0.030819407
232	0x3ce18e07	0.027533544
233	0x3e2a050a	0.16603485
234	0xbe8bc823	-0.2730113
235	0x3e8c7e56	0.27440137
236	0x3de522bb	0.11188265
237	0x3caa1f5b	0.020766905
238	0x3e011b44	0.12608057
239	0x3ec7a068	0.38989568
240	0xbd53ca58	-0.051706642
241	0xbed20f13	-0.41027126
242	0x3e814f64	0.25255883
243	0x3e9b666b	0.30351576
244	0x3de476c7	0.111554675
245	0xbda36e77	-0.07980054
246	0xbd8a1ce1	-0.067437895
247	0xbd533298	-0.05156192
248	0x3edc397e	0.43012613
249	0x3d23e06e	0.040008955
250	0x3e8927fc	0.26788318
251	0x3e6084f1	0.21925713
252	0x3ec46bb4	0.3836342
253	0x3e10998c	0.14121073
254	0xbe889227	-0.26674005
255	0x3ebbc36b	0.3667253

model.1.running_var f4 [256]
0	0x3e5b0501	0.21388628
1	0x3f0da753	0.5533344
2	0x3f68358e	0.9070672
3	0x3eb5c452	0.35501343
4	0x3f19a0ce	0.60010993
5	0x3dcd4802	0.100235
6	0x3f96f27e	1.1792753
7	0x3f9d4c41	1.2288896
8	0x3f28253b	0.6568181
9	0x3d17d5c9	0.037069116
10	0x3e67a693	0.22622137
11	0x3f1cddda	0.6127602
12	0x3e62fe00	0.22167206
13	0x3ea97c87	0.3310282
14	0x3f390a50	0.7228136
15	0x3f009342	0.502247
16	0x3f17a5c3	0.5923731
17	0x3ed1289f	0.40851304
18	0x3ec0864e	0.37602466
19	0x3f3ac050	0.72949696
20	0x3ed9d28b	0.42543444
21	0x3d6aca06	0.05732157
22	0x3dcca85b	0.09993049
23	0x3efd362e	0.49455398
24	0x3db017bf	0.08598279
25	0x3e0f2869	0.13980259
26	0x3edeab21	0.43489936
27	0x3f096bf7	0.53680366
28	0x3f17bc9a	0.5927216
29	0x3eb12008	0.3459475
30	0x3fa7dde8	1.3114595
31	0x3ec46f2d	0.3836607
32	0x3e777b90	0.24168229
33	0x3f2c3b9d	0.6727846
34	0x3e7cad6b	0.24675529
35	0x3f70de9f	0.9408969
36	0x3eccd1c3	0.40003785
37	0x3fa217c6	1.2663505
38	0x3e073dff	0.13207243
39	0x3de62077	0.11236661
40	0x3f6c0cd8	0.922071
41	0x3faa7e12	1.3319724
42	0x3e874f77	0.26427814
43	0x3e12613b	0.14294903
44	0x3f038d38	0.5138736
45	0x3f8dbd68	1.1073427
46	0x3ee8f391	0.45498326
47	0x3f90f962	1.1326106
48	0x3e465287	0.19367419
49	0x3dcf3ff5	0.10119621
50	0x3e26ded7	0.16295944
51	0x3d6260ca	0.055268086
52	0x3e43f90c	0.19137973
53	0x3de8e019	0.11370868
54	0x3eba67dd	0.36407366
55	0x3ed68693	0.41899547
56	0x3eafa70f	0.34307143
57	0x3e4359d2	0.19077232
58	0x3d5f9e67	0.054594424
59	0x3ebe2c6d	0.3714327
60	0x3f574863	0.8409483
61	0x3d69946c	0.05702631
62	0x3d79614a	0.060883798
63	0x3dd0b901	0.10191537
64	0x3ee2157f	0.44157025
65	0x3d9cb63a	0.076519445
66	0x3e140da6	0.14458331
67	0x3ecf1181	0.40443042
68	0x3e24a606	0.16078958
69	0x3f002331	0.500537
70	0x3e04550e	0.12923071
71	0x3e720fe2	0.23638871
72	0x3ea9ae36	0.33140725
73	0x3e18b617	0.14913212
74	0x3f24bfe1	0.64355284
75	0x3e6ce51e	0.23134276
76	0x3e82cd09	0.25547054
77	0x3f5c3ebb	0.8603322
78	0x3e6351e6	0.2219921
79	0x3ee6ba47	0.45063993
80	0x3e8e87b8	0.2783792
81	0x3ed757d7	0.42059204
82	0x3f02020e	0.50784385
83	0x3ea4b022	0.3216563
84	0x3eb0feb2	0.34569317
85	0x3ed7dc5a	0.42160302
86	0x3fad11d9	1.3521072
87	0x3eaecaf2	0.3413921
88	0x3f214b52	0.63005555
89	0x3e37156b	0.17879264
90	0x3ee6a466	0.450473
91	0x3eae83a6	0.34084815
92	0x3f7379f6	0.9510797
93	0x3f321ac0	0.6957207
94	0x3e13e9a8	0.14444602
95	0x3eced84f	0.40399405
96	0x3ed2cab7	0.41170284
97	0x3edbd56d	0.42936268
98	0x3e3ddcb8	0.18541229
99	0x3e08f805	0.13375862
100	0x3ed57bf7	0.4169614
101	0x3f23610a	0.63819945
102	0x3df7edaf	0.121058814
103	0x3e2239cc	0.1584236
104	0x3e82040f	0.2539372
105	0x3f20dedc	0.62840056
106	0x3ec9475d	0.39312258
107	0x3e1e046e	0.15431377
108	0x3e1938b9	0.14963044
109	0x3e246993	0.16055898
110	0x3f5b5c3f	0.8568763
111	0x3e1d9d50	0.15392041
112	0x3e9d0876	0.30670518
113	0x3f23737e	0.638481
114	0x3e969914	0.29413664
115	0x3ef15559	0.47135428
116	0x3e1af039	0.151307
117	0x3e58ba20	0.21164751
118	0x3e6311e2	0.2217479
119	0x3e76387b	0.24044983
120	0x3ea78c56	0.32724255
121	0x3ee432dd	0.44570056
122	0x3e052b3b	0.13004772
123	0x3e6532f1	0.22382714
124	0x3efcf8f9	0.494087
125	0x3df1f21c	0.11813757
126	0x3ea34816	0.31890935
127	0x3e6d075f	0.23147343
128	0x3e2a43da	0.16627446
129	0x3ebc4221	0.36769202
130	0x3de0b31a	0.10971661
131	0x3e314a00	0.17313385
132	0x3f70dcca	0.940869
133	0x3e084c0b	0.13310258
134	0x3e762827	0.24038754
135	0x3e77cddc	0.24199623
136	0x3e3829e2	0.17984727
137	0x3da1d92e	0.07902752
138	0x3e08cf8e	0.13360426
139	0x3ea2b6ba	0.31780034
140	0x3f46f1de	0.7771281
141	0x3e078d5b	0.13237517
142	0x3e2f5804	0.17123419
143	0x3e63ee4f	0.22258876
144	0x3eacd781	0.33758166
145	0x3deb0335	0.11475221
146	0x3e24fbfd	0.16111751
147	0x3d7a7819	0.06114969
148	0x3f2f12cf	0.68388075
149	0x3f2e4686	0.6807636
150	0x3f7170c8	0.94312716
151	0x3e60b450	0.21943784
152	0x3ec748ff	0.3892288
153	0x3ee5b4ae	0.4486441
154	0x3eb1d8dd	0.34735766
155	0x3f530e42	0.8244363
156	0x3f6e6be8	0.931334
157	0x3e62c2a9	0.2214457
158	0x3e5a8a8b	0.21341912
159	0x3e1ce1a0	0.15320444
160	0x3ec35988	0.38154244
161	0x3e8fabf4	0.28060877
162	0x3f74e09b	0.9565522
163	0x3e1037a9	0.14083733
164	0x3e43f673	0.19136982
165	0x3f103601	0.56332403
166	0x3ec82530	0.39090872
167	0x3e8ea379	0.27859095
168	0x3e86f28b	0.2635692
169	0x3d5f2c98	0.054485887
170	0x3f24136d	0.6409214
171	0x3eb28a64	0.3487121
172	0x3e4ea017	0.20178257
173	0x3e950bbf	0.29110524
174	0x3e9ca9e7	0.30598375
175	0x3eb800f5	0.3593823
176	0x3e17c755	0.14822133
177	0x3edbf3da	0.4295948
178	0x3e955d9a	0.29172975
179	0x3e9207af	0.28521487
180	0x3e5f36e0	0.21798277
181	0x3e280da4	0.16411453
182	0x3ee378d6	0.44428128
183	0x3de2bbdf	0.1107099
184	0x3dcba947	0.099443965
185	0x3f75f204	0.9607241
186	0x3d7c2fb5	0.061568934
187	0x3f1f887b	0.6231763
188	0x3de19096	0.11013906
189	0x3e2192c7	0.15778647
190	0x3e05a14f	0.13049816
191	0x3d90c7bd	0.07069347
192	0x3ea8a98b	0.3294185
193	0x3eec7d0c	0.46189153
194	0x3e2ad253	0.16681795
195	0x3e6b88ae	0.23001358
196	0x3f57e779	0.84337574
197	0x3e112d3d	0.14177413
198	0x3ea2fbf9	0.31832865
199	0x3e830817	0.2559211
200	0x3ec310f4	0.38098872
201	0x3f273910	0.65321445
202	0x3ec783ab	0.38967642
203	0x3ea18aed	0.31551304
204	0x3e8fcfb6	0.28088158
205	0x3e9a37a7	0.30120584
206	0x3f2e99d5	0.6820348
207	0x3ea686db	0.32524762
208	0x3e8034de	0.25040334
209	0x3e759677	0.23983179
210	0x3ebd4b29	0.36971405
211	0x3d351916	0.044213377
212	0x3f0c93ab	0.54912823
213	0x3e108929	0.14114822
214	0x3dce9aad	0.10088096
215	0x3e34ef5c	0.17669433
216	0x3dceddbd	0.10100887
217	0x3e859513	0.26090297
218	0x3f2ce031	0.6752959
219	0x3d89c53e	0.06727074
220	0x3e949ade	0.29024404
221	0x3e110cc3	0.14165024
222	0x3e12c908	0.143345
223	0x3f4cc3ef	0.7998647
224	0x3f002a1e	0.50064266
225	0x3efd1864	0.4943267
226	0x3e83771c	0.2567681
227	0x3ea4d2bb	0.32192025
228	0x3e95d4b3	0.2926384
229	0x3dd79864	0.10527113
230	0x3f0ba2e3	0.5454542
231	0x3e7d2440	0.2472086
232	0x3d8b951e	0.06815551
233	0x3fa9f764	1.3278623
234	0x3ec2cbe5	0.38046184
235	0x3f8a67ad	1.0812889
236	0x3e6cd279	0.23127164
237	0x3f25d9b6	0.64785326
238	0x3edd14d4	0.43179953
239	0x3fac768b	1.3473676
240	0x3cdf491a	0.027256537
241	0x3f34bd22	0.70601094
242	0x3db643fc	0.08899686
243	0x3ebce0df	0.36890313
244	0x3e5c9e13	0.21544676
245	0x3e1a7716	0.1508449
246	0x3f08a961	0.5338345
247	0x3e1a6b32	0.15079954
248	0x3f73b91d	0.95204335
249	0x3ed90ccd	0.4239258
250	0x3f23c02e	0.6396512
251	0x3e3d8b2f	0.18510126
252	0x3ec25580	0.37955856
253	0x3f4df53d	0.8045233
254	0x3d9727c2	0.0738063
255	0x3f2d16a5	0.6761268

model.4.weight f4 [64, 256]
0	0xbe02974f	-0.12753032
1	0xbdbdd4a0	-0.092690706
2	0xbd90a603	-0.07062914
3	0xbd08aef4	-0.033369973
4	0xbaa5dd94	-0.0012654536
5	0x3d06072d	0.032721687
6	0xbdcaa6f9	-0.09895129
7	0x3d8e902e	0.06961094
8	0xba9fa78c	-0.001218067
9	0x3c279dea	0.010230521
10	0xbd9529e4	-0.07283381
11	0xbd3ef710	-0.046622336
12	0xbd753071	-0.05986065
13	0xbd9764ef	-0.073922984
14	0xbd8f90ed	-0.07010064
15	0x3bc9e86f	0.0061617414
16	0x3d5cfe22	0.053953297
17	0xbce9e2b0	-0.028550476
18	0x3d0401d9	0.032228325
19	0xbdde218e	-0.10846244
20	0xbc977d97	-0.018492503
21	0xbd6cc096	-0.05780085
22	0xbd5a3b9d	-0.053279508
23	0x3d628880	0.055305958
24	0xbdb84c93	-0.089989804
25	0x3ddcbd83	0.10778334
26	0xbd9bad9d	-0.076014735
27	0x3e43be02	0.19115451
28	0xba1640d1	-0.00057317043
29	0x3df85b9c	0.12126848
30	0xbcb142af	-0.021638243
31	0xbd17a845	-0.03702571
32	0x3d5a620e	0.05331617
33	0xbda56e39	-0.08077664
34	0x3d247a2a	0.040155567
35	0xbdd8297b	-0.10554787
36	0x3d7d79d3	0.06188376
37	0xbd9ee598	-0.07758635
38	0xbdc26103	-0.0949116
39	0x3c9a0cc4	0.018804915
40	0x3d06eda6	0.032941483
41	0xbda0a15b	-0.07843276
42	0x3d159b72	0.036525197
43	0xbe8eda1f	-0.27900788
44	0xbdd2987a	-0.10282989
45	0x3ce49230	0.027901739
46	0x3ddc3dec	0.10753998
47	0xbd41057b	-0.047124367
48	0xbdf4d3e2	-0.11954476
49	0xbe21c8f2	-0.15799311
50	0xbdc1e722	-0.09467913
51	0x3d6f6d81	0.05845404
52	0x3da8826a	0.082279995
53	0xbd5143f4	-0.051090196
54	0xbcffb5c8	-0.03121461
55	0xbc3ee589	-0.011651405
56	0xbd78f6a0	-0.060782075
57	0xbd0802e3	-0.033205878
58	0xbe5ed85f	-0.21762227
59	0xbc559562	-0.013036104
60	0x3d19cf4b	0.037551206
61	0x3b086c14	0.0020816373
62	0x3c839fa8	0.016067341
63	0xbd877239	-0.06613583
64	0x3d31b2c3	0.04338337
65	0x3c732b3f	0.014841854
66	0xbdeb795e	-0.11497758
67	0xbbf3637d	-0.0074276314
68	0xbcaa593f	-0.020794509
69	0x3dd9e0a2	0.106385484
70	0xbd4adf2e	-0.049529247
71	0x3b53b202	0.0032302146
72	0x3d5cff97	0.053954687
73	0xbdfb0923	-0.12257602
74	0x3d1463dd	0.03622805
75	0xbc3b9178	-0.011448257
76	0x3e20e78f	0.15713333
77	0x3c84f344	0.01622928
78	0x3dbe79eb	0.09300598
79	0xbe224806	-0.15847787
80	0x3d047a5b	0.03234325
81	0xbe0ac537	-0.13551794
82	0xbdf32e1d	-0.1187403
83	0xbcb17676	-0.021662932
84	0x3de939af	0.113879554
85	0xbe55f3b2	-0.20893744
86	0x3d266f39	0.040633414
87	0xbe1d3ae2	-0.15354493
88	0xbe069b14	-0.13145095
89	0xbe218b1b	-0.15775721
90	0xbe0c6881	-0.1371174
91	0xbd36a356	-0.044589363
92	0x3ddee8ea	0.108842686
93	0xbdddf884	-0.10838416
94	0xbd4f45ac	-0.050603554
95	0xbdd833de	-0.10556768
96	0x3d31d847	0.04341915
97	0x3cbc06cf	0.022952465
98	0xbcda04be	-0.02661359
99	0xbdf7494d	-0.12074528
100	0x3d2bfc2a	0.04198853
101	0x3cb91ed7	0.022597713
102	0xbe7a2ac5	-0.24430378
103	0xbe8042c5	-0.2505094
104	0x3d75c780	0.06000471
105	0xbd9d5f88	-0.07684237
106	0x3ba1f469	0.004942466
107	0xbd5c3a61	-0.053766612
108	0xbd8733c1	-0.06601668
109	0xbd83c597	-0.06434172
110	0xbe0ab131	-0.13544156
111	0x3cdae8fe	0.026722427
112	0xbe2b5686	-0.16732225
113	0xbce7e447	-0.028307093
114	0x3c53ef60	0.012935489
115	0xbe23a824	-0.1598211
116	0xbdd5f200	-0.104465485
117	0x3dacf34a	0.08444841
118	0x3d9f37ff	0.07774352
119	0xbd28875e	-0.04114472
120	0xbdbb472e	-0.09144436
121	0x3ddc7aab	0.107655846
122	0x3b9b8542	0.00474611
123	0x3d5614ee	0.052266054
124	0x3d4ccba9	0.049998913
125	0xbdc64f99	-0.09683151
126	0xbdb13c79	-0.08654112
127	0xbd3ca9bb	-0.046060305
128	0xbd644c76	-0.05573698
129	0x3ceb9bfb	0.0287609
130	0x3cf881d2	0.03033534
131	0xbe3897cb	-0.18026654
132	0x3d754c6a	0.059887327
133	0x3bad9dda	0.0052983584
134	0xbe0a1b8a	-0.13487068
135	0x3c41ca1a	0.01182797
136	0xbdd56412	-0.104194775
137	0xbe25dfc3	-0.1619864
138	0xbd0d953f	-0.03456616
139	0xbe2e7639	-0.17037286
140	0xbe0706a5	-0.13186128
141	0xbd13dcb2	-0.036099143
142	0x3d61a5ff	0.055089947
143	0xbd13d20b	-0.036088984
144	0xbda78545	-0.08179716
145	0x3adb956e	0.0016752908
146	0xbd82d323	-0.063879274
147	0xbe03ee04	-0.12883765
148	0xbcb5fd18	-0.022215411
149	0x3d1b3b12	0.03789813
150	0x3dae5b04	0.085134536
151	0xbd5a8e8e	-0.053358607
152	0x3dfb00b1	0.12255991
153	0x3d62039c	0.055179223
154	0x3c8aad15	0.016928235
155	0xbde8c0a3	-0.113648675
156	0xbd4f2a4a	-0.05057744
157	0x3c804da2	0.015662018
158	0x3d10f747	0.035392072
159	0x3dc8bcb5	0.09801618
160	0x3c79b254	0.015240271
161	0xbe3bbcee	-0.1833379
162	0xbe0f5a4d	-0.13999291
163	0xbdcb680c	-0.09931955
164	0xbd57e1e8	-0.052705675
165	0x3dd23d2f	0.10265576
166	0xbca5ef37	-0.020255668
167	0xbb8a6aa7	-0.0042241397
168	0x3cb01712	0.021495376
169	0xbcf67fa8	-0.030090168
170	0x3c870245	0.016480574
171	0x3ccf95aa	0.02533992
172	0x3c17d4a9	0.009267011
173	0xbc94ca67	-0.01816292
174	0x3d15e30d	0.036593486
175	0xbcb3f7fe	-0.021968838
176	0xbd4e1634	-0.050314143
177	0x3d089a56	0.03335031
178	0x3d8d1886	0.06889443
179	0xba4194fe	-0.0007384567
180	0xbe01cdc2	-0.12676147
181	0xbd259267	-0.040422823
182	0x3c2fd119	0.010731005
183	0xbd6fa6a9	-0.05850855
184	0x3d9c8c1a	0.0764391
185	0x3c72d553	0.014821368
186	0xbdeeb5b4	-0.11655751
187	0x3d9d4de7	0.07680874
188	0xbe6294b9	-0.22127046
189	0xbc69fa2c	-0.014280837
190	0xbd6002e4	-0.054690257
191	0x3d0a15c4	0.033712164
192	0xbd851241	-0.06497622
193	0xbbd6bae5	-0.0065530413
194	0xbd26f8a2	-0.04076446
195	0x3d11cc65	0.035595316
196	0xbdbf4c90	-0.09340775
197	0xbe073ed8	-0.13207567
198	0xbbbe0c86	-0.0057998328
199	0x3d0e7771	0.034781877
200	0xbce3a581	-0.02778888
201	0x3c82ca6d	0.015965665
202	0xbe1dca04	-0.15409094
203	0xbda5d43a	-0.0809712
204	0xbd689018	-0.056778044
205	0xbcb96422	-0.022630755
206	0xbda834ed	-0.0821322
207	0xbe1fbfe4	-0.15600544
208	0xbc92f032	-0.0179368
209	0x3c1e1134	0.009647656
210	0x3dd2ae53	0.10287156
211	0x3dbf1bca	0.09331472
212	0xbbf1bc09	-0.007377152
213	0xbd6fcb66	-0.058543585
214	0xbda6d707	-0.08146482
215	0x3d35dd10	0.044400275
216	0xbde34810	-0.11097729
217	0xbace9b6b	-0.0015762871
218	0xbdd4d2c6	-0.10391764
219	0x3cb8468a	0.022494573
220	0x3d6fe537	0.058568206
221	0x3c3f77b4	0.011686254
222	0x3d9b6812	0.07588209
223	0xbc845ade	-0.01615661
224	0x3c82aee5	0.015952537
225	0x3bba627c	0.00568801
226	0xba947d96	-0.0011328931
227	0xbdf292ef	-0.118444316
228	0xbd4fec7a	-0.05076263
229	0xbdfbc858	-0.12294072
230	0x3d124b89	0.035716567
231	0x3d391828	0.045189053
232	0xbd385aab	-0.045008343
233	0xbdc52947	-0.09627014
234	0xbe0eee5f	-0.13958119
235	0x3d9ee0f5	0.07757751
236	0x39f00c10	0.00045785354
237	0xbd173150	-0.036912262
238	0x3d14b11f	0.03630173
239	0x3ca63344	0.020288117
240	0xbe111f52	-0.14172104
241	0x3dc67e09	0.09692008
242	0xbe172ef0	-0.14763999
243	0x3d81796e	0.06321989
244	0x3d2be5c1	0.041967157
245	0x3e05ad54	0.130544
246	0x3d8129d2	0.06306805
247	0xbe16388b	-0.14670007
248	0x3d178721	0.036994103
249	0x3dbcde36	0.09222071
250	0x3c9c02a6	0.019044232
251	0xbe656810	-0.22402978
252	0xbe095cc5	-0.13414295
253	0x3db78269	0.08960421
254	0xbcd652b8	-0.02616249
255	0x3c59acf9	0.013285869

model.4.bias f4 [64]
0	0x39c5087f	0.00037581098
1	0xbd0dad5d	-0.03458916
2	0x3d6bd7b2	0.05757875
3	0xb9f4329b	-0.0004657701
4	0xbcf05b9b	-0.029340556
5	0x3c0adb09	0.008475074
6	0xbcc0489e	-0.023472127
7	0xbd037b59	-0.032100055
8	0xbcf05882	-0.029339079
9	0xbc6656bf	-0.014058768
10	0xbcbc8af5	-0.023015479
11	0xbc2fb883	-0.010725143
12	0xbd217bf5	-0.039424855
13	0xbcdd75df	-0.027033744
14	0x3cb9c0b9	0.022674905
15	0x3d7d119a	0.061784364
16	0xbd7ade40	-0.06124711
17	0xbd648698	-0.05579242
18	0xbce93d0e	-0.028471496
19	0x3d770f9c	0.06031762
20	0x3ca31304	0.019906528
21	0x3d4a55ec	0.049398348
22	0x3d6335dc	0.055471286
23	0xbc252476	-0.010079494
24	0x3cfb40c2	0.030670527
25	0xbc8f0b80	-0.017461538
26	0xbcd3b5d1	-0.025843533
27	0xbd39972b	-0.04531018
28	0x3d262537	0.040562835
29	0x3b55c6cf	0.003261972
30	0xbbb05dae	-0.0053822612
31	0xbd6a0ade	-0.05713927
32	0xbd4f858e	-0.050664477
33	0x3d098264	0.033571616
34	0x3d014d61	0.031567935
35	0x3cb970e3	0.022636836
36	0x3b948ef7	0.0045336443
37	0xbd4bb404	-0.049732223
38	0x3c0b427f	0.008499741
39	0xbd45991c	-0.04824172
40	0x3cfc0d35	0.030768016
41	0x3cf4dc91	0.02989033
42	0xbd6d5209	-0.057939563
43	0xbcdfeabb	-0.027333608
44	0xbbe507f6	-0.0069894744
45	0xbceb31d1	-0.028710278
46	0x3d06134b	0.032733243
47	0xbc91be71	-0.017791005
48	0xbbefb17a	-0.007314858
49	0xbc91c7d5	-0.017795483
50	0xbd4d0a81	-0.050058845
51	0x3d088074	0.033325627
52	0xbd231484	-0.039814487
53	0xbc99fc5c	-0.018797092
54	0xbd61229c	-0.054964647
55	0x3caffa4d	0.021481657
56	0x3d618fc4	0.055068746
57	0xbce73538	-0.028223619
58	0x3d35ffde	0.044433467
59	0x3cde91d4	0.027169146
60	0x3d136cb1	0.035992328
61	0xbceafa44	-0.02868379
62	0xbd1927c9	-0.037391458
63	0xbcb27521	-0.021784367

model.5.weight f4 [64]
0	0x3f8d9f3b	1.1064218
1	0x3f73a638	0.95175505
2	0x3f6b3394	0.91875577
3	0x3f694018	0.91113424
4	0x3f824697	1.0177792
5	0x3f71a6e6	0.9439529
6	0x3f64c773	0.89366835
7	0x3f89f32b	1.0777334
8	0x3f81e80a	1.0148938
9	0x3f81c5ec	1.0138526
10	0x3f8b93be	1.0904462
11	0x3f70f5d2	0.9412509
12	0x3f8d2504	1.1026921
13	0x3f8d358b	1.1031965
14	0x3f893aeb	1.0721105
15	0x3f82f037	1.0229558
16	0x3f945cb2	1.1590788
17	0x3f56f281	0.8396378
18	0x3f7825a3	0.9693243
19	0x3f855fa5	1.0419813
20	0x3f800523	1.0001568
21	0x3f81d7e1	1.0144006
22	0x3f81d8ef	1.0144328
23	0x3f619d04	0.8813021
24	0x3f79c2ce	0.97562873
25	0x3f64d933	0.8939392
26	0x3f7e35e8	0.99301004
27	0x3f6e7584	0.93148065
28	0x3f81185c	1.0085559
29	0x3f70706e	0.93921554
30	0x3f72fffd	0.9492186
31	0x3f8d5df3	1.1044296
32	0x3f479cf0	0.7797384
33	0x3f8c50db	1.0962175
34	0x3f696efe	0.91184986
35	0x3f887014	1.0659204
36	0x3f82f0cf	1.0229739
37	0x3f871590	1.0553455
38	0x3f8472c9	1.034753
39	0x3f7c5f07	0.985825
40	0x3f87e665	1.0617186
41	0x3f76f442	0.9646646
42	0x3f76cc8e	0.96405876
43	0x3f7a77e0	0.97839165
44	0x3f8f887b	1.1213526
45	0x3f8e7428	1.1129198
46	0x3f6c4548	0.92293215
47	0x3f876627	1.057805
48	0x3f9fbba8	1.2479143
49	0x3f6ee936	0.933246
50	0x3f803d2e	1.001867
51	0x3f6b0c73	0.9181587
52	0x3f7ae859	0.98010784
53	0x3f8a85f2	1.0822127
54	0x3f837260	1.026928
55	0x3f768ffa	0.9631344
56	0x3f68fb77	0.91008705
57	0x3f6b9b1b	0.9203355
58	0x3f58da94	0.84708524
59	0x3f664826	0.8995384
60	0x3f830f98	1.0239134
61	0x3f8685be	1.0509565
62	0x3f6fa206	0.93606603
63	0x3f710378	0.9414592
