saved_models/model.pth (torch, 100722 bytes, 37 tensors)

model.0.weight f4 [256, 4]
000000 b4 15 6c 3e 3e c7 5a be 80 a0 0c 3e f0 de d0 3c
       0.23055154 -0.21365067 0.13733101 0.02549693
000010 6a 13 28 3d 30 d5 61 3e 61 d7 a7 3e 3e 40 b0 be
       0.04103414 0.22053981 0.3278151 -0.34424013
000020 9a 7c 62 be fe 20 32 3e 96 6d 2d be 4b 15 04 3f
       -0.22117844 0.17395398 -0.16936335 0.5159499
000030 ff 38 74 3e 33 cc 3a be f5 ea 33 3d e6 bd b4 3d
       0.23849867 -0.18241958 0.043925244 0.08825283
000040 8d 28 e2 be 1b 55 47 bd 23 84 b9 3d 5d 48 bc bd
       -0.44171563 -0.048665147 0.09058406 -0.0919349
000050 88 b7 93 bd 54 59 f2 be 6e 8c 98 3e 34 c3 b9 3d
       -0.0721274 -0.47333777 0.2979464 0.09070435
000060 48 74 cb 3d 0d 50 ef be c0 26 64 3e df 8d 7e be
       0.09934288 -0.4674076 0.22280407 -0.24858807
000070 9d 46 5f be 69 1d 09 bf 4b 48 fa be 44 05 c8 3e
       -0.2180428 -0.535605 -0.4888328 0.39066517
000080 4b 5f 20 3d 3d e8 90 3c b4 71 ea be 65 94 b9 be
       0.03915338 0.017688865 -0.45789874 -0.3624603
000090 de bf 01 3f 32 e5 e1 be 17 96 ec 3e 72 0b de be
       0.5068339 -0.44120175 0.4620826 -0.43368107
0000a0 0e bd 5e bd 86 b3 2c be 71 8b 75 3d da 8a c2 be
       -0.054379515 -0.16865358 0.059947435 -0.3799656
0000b0 86 f1 60 3e ae c7 a3 3e ff a6 9d be 03 e8 1c be
       0.21967134 0.3198828 -0.3079147 -0.1532288
0000c0 b0 9b c9 be a7 91 0e bf 1f a5 2e be 8e b1 b2 be
       -0.39376593 -0.55691 -0.17055176 -0.34901088
0000d0 a5 38 8b be ed ac 06 bf de a4 2b 3e 40 48 a6 be
       -0.27191654 -0.52607614 0.1676211 -0.32476997
0000e0 ea d0 d5 3e 8f 77 25 3e 0c 29 39 be 5a 40 ad 3e
       0.4176095 0.16158889 -0.18082064 0.3383816
0000f0 88 c2 e5 be 40 f5 2f 3e e5 42 98 3d 16 99 f0 3e
       -0.44874978 0.17183399 0.07434634 0.46991795
000100 6e 6a 1c 3e cd ed 04 bf 3b 06 df 3d d8 ce 89 be
       0.15274975 -0.51925355 0.1088986 -0.26915622
000110 31 6b c7 bc 53 25 82 be f2 2b 89 be 6d e1 d6 be
       -0.024343105 -0.254191 -0.2679134 -0.4196886
000120 5a 8b 00 3c 7c fc 82 3e fa 53 d0 bb 0c 67 92 3e
       0.007845724 0.25583255 -0.006357667 0.28594244
000130 11 62 9c be 15 65 99 be f8 24 27 3e ab 19 00 bd
       -0.3054357 -0.29959932 0.16322696 -0.03127448
000140 13 ff 11 bf c0 eb 08 3e a4 76 0a be a2 8a 8b 3e
       -0.5702984 0.13371181 -0.1352182 0.27254206
000150 c1 ad 33 bf a2 6a 38 be 82 50 9a 3e 5d b3 83 3e
       -0.70187 -0.18009427 0.30139548 0.2572278
000160 57 5c 25 3e 79 2c 89 be 62 46 dc be 51 83 4f bd
       0.16148506 -0.26791742 -0.43022448 -0.050662342
000170 51 34 52 3e 52 44 f8 3e 82 2a 8e bb 0a 4d 1e be
       0.2052777 0.48489624 -0.0043385634 -0.15459076
000180 9c b8 87 bd 22 dc 87 3e cf d7 f6 3e 32 88 91 be
       -0.06627008 0.26535136 0.48211524 -0.2842422
000190 1c ea 36 bd c9 ab 09 be f0 8e 53 3c c8 8c a2 be
       -0.044656858 -0.13444437 0.012912497 -0.31748033
0001a0 0e a7 cf 3e 21 dd 8f 3e b2 cf bf 3d c6 a0 dd bd
       0.4055714 0.28098395 0.093657866 -0.10821681
0001b0 6e 51 8a be 22 9e 36 be cd 24 91 3b 3d ce ad be
       -0.2701525 -0.1783376 0.004429436 -0.3394641
0001c0 8d 5b a6 3e 90 5d a5 be d7 c2 c8 3e 5a 63 a0 be
       0.32491723 -0.32297945 0.3921115 -0.313258
0001d0 b9 62 05 bf ee 03 47 3d a8 59 ea 3d 5f 98 cb be
       -0.52103764 0.048587732 0.11442882 -0.39764687
0001e0 00 96 97 bd b4 ce e5 3e fc c1 f0 be c5 51 8f 3e
       -0.07401657 0.44884264 -0.47022998 0.27992073
0001f0 54 33 28 be 8d 51 c5 bd e7 74 33 be c5 17 d0 3e
       -0.1642583 -0.09634695 -0.17525063 0.40643135
000200 19 0f 9e 3e c2 60 0c be dc cd ca 3e 2a 01 d3 3e
       0.30870894 -0.13708785 0.39610183 0.41211826
000210 9b cd ff bd 48 44 06 bf 88 5f ba be 23 ea b9 be
       -0.12490388 -0.5244794 -0.3640101 -0.36311445
000220 3f 97 db 3e 58 2b 72 3e b8 94 8b be 7d 80 e3 3d
       0.4288883 0.23649347 -0.272619 0.111084916
000230 81 21 48 3d b7 f8 61 bc 10 56 3b 3e 59 b2 00 3f
       0.048860077 -0.013792208 0.18294549 0.50272137
000240 c7 32 3a 3e d9 c1 df 3d 51 21 f6 be d7 1d 54 3e
       0.18183433 0.109256454 -0.48072293 0.20714508
000250 fe fa 7b 3e ba a1 ed bd ed 54 09 3f 48 58 36 3e
       0.24607465 -0.116031125 0.5364521 0.17807114
000260 56 99 db be 1b c0 c5 bd 1d 0d c4 3d 21 9c 25 3d
       -0.42890424 -0.09655782 0.09572814 0.0404321
000270 16 e2 ca 3d a0 6a 43 bd c3 c6 72 3e 31 82 98 3e
       0.09906404 -0.047709107 0.23708634 0.29786828
000280 0c 10 ee be 7f de 06 3e c4 63 86 bc 50 91 23 3b
       -0.46496618 0.13170813 -0.016404994 0.002495844
000290 d0 a3 0e 3c b4 1f 30 be e0 14 bf 3e 0f 9f 98 be
       0.008706048 -0.17199594 0.37320614 -0.29808852
0002a0 ef 58 ab 3d e9 da 8f bd 88 0f 0b 3f 10 36 96 3e
       0.08366572 -0.07024176 0.54320574 0.2933812
0002b0 84 75 0d bd 49 bc cd be 92 30 07 bd 48 7d 4b be
       -0.0345359 -0.40182713 -0.033005305 -0.1987201
0002c0 23 69 98 bd dc 41 05 3f 96 c8 b1 be c0 10 8d be
       -0.07441928 0.5205362 -0.34723347 -0.27551842
0002d0 e7 ec 4f 3e 71 0a a1 be ba f3 9e bc 6e eb 09 bf
       0.20305215 -0.3145328 -0.019403327 -0.5387486
0002e0 7b fb 79 3e 5f 93 f8 be 8a 65 fd 3d b7 3e 86 be
       0.24412338 -0.48549935 0.12372883 -0.26219723
0002f0 ab 81 a3 3e 90 61 67 be d7 b5 02 be 70 cf f1 3e
       0.31934866 -0.22595811 -0.12764679 0.47228575
000300 dc 7a 20 bf 69 91 f0 3d df a2 88 3e a0 12 28 3f
       -0.6268747 0.11746485 0.2668676 0.6565342
000310 a3 13 ee 3d 9b 0b eb bd 91 2d 64 bc c1 1b 9b 3d
       0.11624839 -0.11476823 -0.0139268795 0.07573653
000320 21 db a0 be f2 59 10 be 29 97 08 bf 84 18 1f be
       -0.31417182 -0.14096811 -0.5335565 -0.15536696
000330 f7 1e de be f1 7b 9d be 52 fc bd be f7 02 c5 3e
       -0.43383 -0.30758622 -0.37106568 0.38478824
000340 49 41 ab be 38 c0 9e bd 6d 84 d2 3d c2 36 64 3e
       -0.33448246 -0.077515066 0.102791645 0.22286513
000350 0c 70 0f 3f b8 ba dd be 1e 7f 4d 3e 5a 22 40 3d
       0.56030345 -0.43306518 0.20068023 0.04690776
000360 25 a0 1b bf f8 42 d9 3e 7b cc f7 3e d3 dd aa be
       -0.60791236 0.42433906 0.48398194 -0.33372363
000370 4f 32 f4 bd 3b 05 74 be b7 0f 78 3e 49 0c c8 3e
       -0.11923658 -0.2383012 0.24224745 0.39071873
000380 87 fc 08 bf 46 44 39 3d 12 b3 d4 3d 36 15 0f be
       -0.53510326 0.045231126 0.103857175 -0.13972935
000390 7f 71 3a bd c5 c7 81 3e 92 4a 86 be e4 dc 61 be
       -0.045518395 0.25347725 -0.26228768 -0.2205692
0003a0 22 8b cb be 57 71 92 3e a2 83 05 be 11 8d cd 3d
       -0.39754587 0.28602096 -0.13038495 0.10036672
0003b0 6f a2 9f 3e 8e 6e 83 3e 7b 38 b1 3e ca 0e 06 be
       0.31178614 0.25670284 0.34613404 -0.13091579
0003c0 de 8a b6 be e4 ff 47 be 0b 3e 38 be 43 ac 44 3d
       -0.35652822 -0.19531208 -0.17992418 0.048015844
0003d0 fe 12 03 3d 7f eb 42 be 14 a0 1e be ac 5e 29 3d
       0.032000534 -0.19035147 -0.15490752 0.04135005
0003e0 8d a4 44 3e 31 74 18 be 01 e4 0c 3e 3f bd 2e 3e
       0.19203396 -0.14888074 0.13758852 0.17064379
0003f0 6a 8f be be 6c a0 01 3e 78 78 d2 3d c5 3d 66 3e
       -0.3721879 0.12658852 0.10276884 0.224845

model.0.bias f4 [256]
000000 ac af ea 3e 97 54 f1 3d 81 3a fa 3e 3c 06 67 3e
       0.45837152 0.11783712 0.4887276 0.22560972
000010 72 10 f8 be 6c f2 70 bd a8 51 1c be 8c 7e de 3e
       -0.48450047 -0.05882494 -0.15265524 0.43455923
000020 c6 88 82 3e ee 8d 3c 3e 18 b7 90 be 37 ea 25 be
       0.25494975 0.18413517 -0.2826469 -0.16202627
000030 2c 26 67 3e 9e 7b d2 3e 54 93 c2 3e 54 08 34 bd
       0.22573155 0.41109937 0.38003027 -0.043953255
000040 26 13 0d bb eb b2 4e 3e 64 0d dd be 6b 5f f2 3e
       -0.0021526306 0.2018544 -0.4317428 0.47338423
000050 86 01 da be ab 29 42 bd 10 ef b3 be a5 a1 fa be
       -0.42579287 -0.04740302 -0.35143328 -0.4895145
000060 c4 3d e4 be 98 ed f9 3b 03 1d a3 be a4 56 39 be
       -0.44578373 0.0076272003 -0.31858072 -0.18099457
000070 9c 03 1a be 41 53 a1 3e 1b ad a8 3e dd 3f ff be
       -0.1504044 0.3150883 0.3294457 -0.4985341
000080 fc 00 b1 3e 6f 5d 20 bd 50 60 b6 3e d8 25 c7 3e
       0.34571064 -0.039151605 0.35620356 0.3889606
000090 57 1d 65 be 73 af d5 bd 5a df cc 3e c9 c0 d8 be
       -0.22374474 -0.10433855 0.40014154 -0.42334583
0000a0 64 1d 43 be 71 8b b5 bb 1f c0 9b be be 10 e5 be
       -0.1905418 -0.0055403044 -0.30420014 -0.44739336
0000b0 28 81 ed be ed 27 f5 be fd 4e b5 ba 6c 0f c9 3e
       -0.463876 -0.47882023 -0.0013832744 0.39269578
0000c0 b3 80 a1 3e e3 52 3a 3e 61 ba 0b be ba e9 d2 be
       0.31543502 0.18195681 -0.13645317 -0.41193944
0000d0 6c e5 a4 be 7d 81 c1 3e 9a d8 48 3c aa fa 47 be
       -0.32206285 0.37794104 0.012258673 -0.19529215
0000e0 4b 1f 99 3e 7c d4 8b be b8 01 da 3e 05 7b 97 be
       0.29906687 -0.2731055 0.42579436 -0.29586044
0000f0 6c 98 82 3e 10 f0 d0 be 12 fb 35 bd 6b 24 a0 be
       0.25506914 -0.40808153 -0.044428892 -0.31277785
000100 2d 20 61 be ea 0d c8 be c2 5b 94 3d e4 fc d3 3e
       -0.2198493 -0.39073116 0.07244064 0.41403878
000110 bc 2f 80 3d 0d 80 bb 3e 88 c1 84 3e 2b ce 6a be
       0.062591046 0.36621132 0.25928903 -0.2293021
000120 cb 99 9d bd 21 96 63 3e fa 51 aa 3d 1b e5 f5 3e
       -0.07695349 0.22225238 0.08316417 0.48026356
000130 ec df 0f be 81 aa c0 3d 2c 7f c3 be 0c 7f a5 be
       -0.14050263 0.09407521 -0.38182962 -0.32323492
000140 65 d9 b2 3e 69 3c 3a 3d ec f6 ba be 7a 32 84 3e
       0.34931484 0.045467768 -0.3651651 0.2581976
000150 04 5f ef 3e 91 a2 0e 3b 76 43 c2 3e 5b b7 f3 be
       0.4675218 0.0021764378 0.37942094 -0.47600827
000160 51 45 0a be 0a ec bf 3e 27 21 26 3c 57 3b 4a 3e
       -0.13503005 0.3748477 0.01013974 0.19749199
000170 b4 24 a3 be 5c 05 88 be 63 45 b9 3e 6f 10 ac be
       -0.3186394 -0.2656659 0.3618575 -0.33606288
000180 c1 0b 27 3e 83 27 12 be 7c ba 2a be 6d 4f e6 3e
       0.16313078 -0.14272885 -0.166727 0.44982472
000190 ec e4 d2 be 33 82 62 3e 7e 30 5a 3e 81 b5 f6 be
       -0.4119028 0.2211998 0.21307561 -0.48185351
0001a0 d4 36 6b be a5 61 cf 3e 34 24 42 be 93 a0 e9 be
       -0.22970134 0.40504184 -0.18959123 -0.4563032
0001b0 5f 2d 43 3c de ee 0a be 17 24 81 3e 7d 26 8e be
       0.011912673 -0.13567683 0.25222847 -0.2776374
0001c0 08 21 f5 3e c9 11 90 3e 8a d6 81 be db 4b b8 3e
       0.47876763 0.2813857 -0.25358993 0.35995373
0001d0 67 9b 6d be c6 10 0b 3c bf 6c ae 3e 7e 89 a1 3c
       -0.23203813 0.008487886 0.34067342 0.019718882
0001e0 85 f8 d2 bd b4 15 fc 3d e1 d6 8d be a2 8f 20 3e
       -0.103013076 0.12308827 -0.27703002 0.15679792
0001f0 1a 1a 3a 3e d2 f6 15 3e 30 62 04 3e 90 bd 7a be
       0.1817402 0.14644936 0.1292808 -0.24486375
000200 f1 d1 74 be e7 e8 a7 be 24 78 2a be e6 94 92 3e
       -0.23908211 -0.32794878 -0.16647393 0.28629225
000210 fb 53 e1 3e 14 7d 1d be 6f 51 b5 bc 14 db 06 be
       0.44009385 -0.15379745 -0.022133557 -0.13169509
000220 9b 58 24 bd 5d 09 07 3b 24 d3 aa bb 24 b4 f7 3d
       -0.040123563 0.0020604946 -0.005213158 0.12094906
000230 c5 60 22 be b5 85 db 3d 4a 6e 4a 3e 67 37 a3 3d
       -0.15857227 0.10718862 0.19768634 0.079695515
000240 a7 b3 56 3e 03 b3 bc 3d 73 99 b5 3e ab 50 db 3e
       0.2096697 0.09213831 0.35468635 0.42834982
000250 e1 52 92 be 14 11 10 3e 42 a0 ec bd de 18 f6 3d
       -0.28578857 0.14069015 -0.11554004 0.12016462
000260 96 4b 79 3b 8f 74 a3 3e 38 07 fa 3e 0d 57 99 3e
       0.0038039437 0.31924865 0.48833632 0.29949227
000270 3e a4 b4 be 7c 9c dc 3e 81 4d d8 be 30 55 22 bd
       -0.35281557 0.43088138 -0.4224663 -0.039632022
000280 cd cc 88 3e 1e 89 f0 3e 4b b6 fd be 2d 80 ac 3e
       0.2671875 0.46979612 -0.4955314 0.3369154
000290 5d fc b0 3e 60 fe 12 3d e9 6b bb 3e 0b 0c 56 3b
       0.34567538 0.035887122 0.36605766 0.0032660987
0002a0 59 6a f3 3e 8f fc 80 be 4b 94 46 3e 3b 09 b2 3e
       0.47542074 -0.25192687 0.19392507 0.34772667
0002b0 41 69 d3 3c 4f 5f 8a be 29 52 95 be b9 93 b1 3e
       0.025807025 -0.2702584 -0.29164246 0.34683016
0002c0 75 a2 a3 3e cf 49 8d bc cb ba e5 be 1f 7a 2b bc
       0.31959882 -0.017247109 -0.44869074 -0.010466128
0002d0 99 66 75 3e 4d 99 da 3e f2 04 70 bd 0a 15 9f 3e
       0.23964919 0.42695084 -0.058598466 0.3107074
0002e0 b2 0b 89 3d 42 f4 4e be 82 ea 12 be 83 a6 97 3e
       0.06691684 -0.20210364 -0.1434727 0.29619226
0002f0 9c b3 ad 3d 5a 15 c0 be 53 7b dd be f0 8f 82 be
       0.084815234 -0.3751629 -0.4325815 -0.2550044
000300 8a 7c 63 3e 0f 03 c3 be 5f 2a ad be 9d 86 dc 3e
       0.22215477 -0.3808827 -0.3382139 0.43071452
000310 49 3e 92 be b8 bc d7 be 91 e9 c3 bd f8 a3 8e be
       -0.28563145 -0.42136168 -0.09566034 -0.27859473
000320 55 0d 94 bc d5 f4 d9 3e 69 96 eb 3e 7b c6 3a be
       -0.018072763 0.42569605 0.4601319 -0.18239777
000330 d5 fe 89 3e 96 77 9c 3d 96 54 5a be d3 4d ac bd
       0.26952234 0.07639997 -0.2132133 -0.08413281
000340 9f 4c 31 be d3 38 ee be 48 7c 98 3e 13 9b a0 be
       -0.17314385 -0.46527728 0.2978232 -0.31368312
000350 52 7a 16 3e 72 33 a8 3e 95 7d 6c 3d 73 d2 d2 3e
       0.14695099 0.3285175 0.05773695 0.41176185
000360 3b 13 f5 be c3 a4 98 3e 3e 2c af 3e 2b d8 f8 3e
       -0.47866234 0.29813203 0.34213442 0.48602423
000370 fd ef a1 be d8 7a bf be 6c c9 45 3d 18 a3 ce be
       -0.3162841 -0.3739841 0.048287794 -0.40358806
000380 01 99 bc 3e dc 14 dc be 60 e9 88 3e d3 8b a2 be
       0.36835483 -0.42984664 0.2674055 -0.31747302
000390 56 59 65 be a5 97 bb be 70 0d 6e 3d 48 47 da be
       -0.2239736 -0.36639133 0.058118284 -0.42632508
0003a0 7e 8d 42 be cb 5a 81 3e 3a a6 de be 50 b1 8f 3d
       -0.18999287 0.25264582 -0.43486196 0.070162416
0003b0 17 a3 d9 3e 01 fb bf be 5a 6d 5a be 00 b5 fa 3e
       0.4250724 -0.37496188 -0.21330777 0.48966217
0003c0 10 2f 57 3e e4 32 b4 be 2f b6 0f 3e c9 01 af 3e
       0.21014047 -0.35195076 0.14034341 0.3418105
0003d0 52 d2 e8 3e 55 5d 73 be ad 38 f1 3e 26 d6 d0 3e
       0.45472962 -0.23766072 0.47113553 0.40788382
0003e0 67 03 30 be 28 59 a7 3d ee 20 d3 3e d6 5f 2b 3e
       -0.17188798 0.08171302 0.4123606 0.16735777
0003f0 bb 9d 38 bd 3b 99 dc 3e 5b ad 88 3d 8b d4 8b 3e
       -0.0450723 0.43085656 0.0667369 0.27310595

model.1.weight f4 [256]
000000 a8 d5 66 3f 00 32 69 3f 9e 86 89 3f 67 e8 74 3f
       0.90169764 0.9109192 1.0744207 0.9566712
000010 56 e6 8d 3f b2 25 87 3f 39 96 7a 3f 42 53 7e 3f
       1.1085918 1.0558379 0.9788547 0.9934579
000020 8e 2d 78 3f 07 af 82 3f e5 80 7d 3f b9 b1 78 3f
       0.9694451 1.0209664 0.990248 0.97146183
000030 67 62 5c 3f 7c f7 63 3f e7 89 97 3f 81 4f 7b 3f
       0.8608765 0.89049506 1.183896 0.9816819
000040 d4 5d 6b 3f 87 bc 6d 3f a2 c7 89 3f 0e 60 6e 3f
       0.91940045 0.92865795 1.0764048 0.9311532
000050 87 b7 7d 3f cc ed 82 3f a1 71 6a 3f 42 87 7f 3f
       0.99108166 1.022882 0.91579634 0.9981576
000060 47 e0 89 3f 16 3b 63 3f 5c 8c 75 3f a8 f1 63 3f
       1.0771569 0.88762033 0.95917296 0.89040613
000070 2d a6 86 3f 75 40 8c 3f 6a 27 82 3f 81 aa 6d 3f
       1.0519463 1.0957171 1.0168278 0.92838293
000080 ab 46 71 3f 87 b2 7b 3f 35 3a 3a 3f 52 3c 6e 3f
       0.94248456 0.98319286 0.72745067 0.9306079
000090 98 81 85 3f 8a 0d 7a 3f 6a 7e 83 3f 0b 9f 73 3f
       1.0430174 0.9767691 1.0272954 0.95164555
0000a0 0a c5 8f 3f bb 7f 63 3f d4 38 7c 3f 5f eb 52 3f
       1.1232007 0.88866776 0.9852421 0.823904
0000b0 d8 25 66 3f e3 a0 6c 3f f1 1e 6c 3f d7 c9 5f 3f
       0.89901495 0.92432994 0.9223471 0.8741736
0000c0 8f c3 76 3f 5b 02 76 3f 0d 8d 83 3f 2e 7f 81 3f
       0.9639215 0.96097344 1.027742 1.0116937
0000d0 e1 dc 87 3f c1 66 55 3f 93 6c 6a 3f 79 c6 78 3f
       1.0614282 0.83359915 0.9157192 0.97177845
0000e0 c0 83 86 3f f1 e5 75 3f 23 55 8a 3f 60 f3 50 3f
       1.0508957 0.9605399 1.0807232 0.8162136
0000f0 01 f5 84 3f 9f 9b 68 3f 9d 42 79 3f 76 d1 88 3f
       1.0387269 0.9086246 0.9736727 1.0688922
000100 78 ac 6d 3f a3 b0 7a 3f 03 69 6e 3f 3a 7d 70 3f
       0.9284129 0.97925776 0.93128985 0.9394108
000110 17 7b 81 3f 90 7b 7b 3f e3 10 74 3f 52 af 6d 3f
       1.0115689 0.98235416 0.9533827 0.9284564
000120 14 bf 84 3f ce 56 8b 3f 22 34 7f 3f 3f 8a 54 3f
       1.0370812 1.0885866 0.99688923 0.83023447
000130 21 06 61 3f eb 16 71 3f 3b ae 71 3f 3e f6 8d 3f
       0.87899977 0.94175595 0.9440648 1.1090772
000140 69 9a 8c 3f 91 e4 86 3f e2 d5 89 3f bd a3 7f 3f
       1.0984622 1.0538503 1.0768397 0.9985922
000150 81 30 7d 3f b1 1c 6e 3f 6b c0 8b 3f 2c c4 8a 3f
       0.98902136 0.9301253 1.0918096 1.0841117
000160 f4 47 85 3f 69 3c 63 3f 81 39 89 3f a5 09 75 3f
       1.0412583 0.88764054 1.0720674 0.9571784
000170 f4 03 64 3f 61 db 87 3f 8a 0d 6f 3f 4a 32 7f 3f
       0.8906853 1.0613824 0.93380034 0.9968611
000180 b5 67 6c 3f dd 7a 85 3f 27 65 6d 3f be e6 8d 3f
       0.92345744 1.042812 0.9273247 1.1086042
000190 9a 6c 6b 3f d8 8b 7a 3f 4b 77 86 3f 44 9d 5b 3f
       0.9196259 0.97869635 1.0505155 0.85786843
0001a0 75 58 8e 3f 96 ca 63 3f 7a b7 89 3f 19 ed 82 3f
       1.1120745 0.88980997 1.0759118 1.0228606
0001b0 5e 8e 84 3f 0e 4c 6c 3f 9e 6f 83 3f 62 3b 87 3f
       1.0355947 0.9230355 1.0268438 1.0564997
0001c0 d2 9e 74 3f 10 26 83 3f 59 de 78 3f 89 33 79 3f
       0.9555484 1.0245991 0.97214276 0.9734426
0001d0 93 0a 86 3f 7c 4a 76 3f 68 77 82 3f 63 c9 7d 3f
       1.0471977 0.96207404 1.019269 0.99135417
0001e0 af bc 63 3f 6c e1 66 3f 05 9d 7f 3f e6 95 94 3f
       0.88959783 0.90187716 0.9984897 1.1608245
0001f0 56 b1 64 3f f1 6e 85 3f f5 81 84 3f 57 e3 79 3f
       0.89333093 1.0424482 1.035216 0.9761252
000200 69 8c 81 3f cc 41 85 3f ce 27 80 3f 50 9e 88 3f
       1.0120975 1.0410705 1.0012147 1.0673313
000210 4e fd 6c 3f 0d ae 88 3f 1e 15 6a 3f 9c a5 8f 3f
       0.9257401 1.0678116 0.9143847 1.1222415
000220 b9 75 6c 3f f0 71 5f 3f 5a 30 75 3f f5 c2 72 3f
       0.9236713 0.8728323 0.95776904 0.9482873
000230 39 ee 4b 3f 61 49 78 3f 3d 3a 76 3f 03 1d 86 3f
       0.79660374 0.9698697 0.96182615 1.0477604
000240 d9 c0 86 3f a5 bc 84 3f c7 a9 5e 3f fc 45 89 3f
       1.0527602 1.037007 0.8697781 1.0724483
000250 99 66 6a 3f 5f 74 7a 3f a4 12 85 3f d6 64 7a 3f
       0.915628 0.9783382 1.0396314 0.97810113
000260 ac 64 72 3f be f5 82 3f 24 10 6f 3f 08 78 84 3f
       0.94684863 1.0231245 0.93384004 1.0349131
000270 15 cf 80 3f a9 09 74 3f 21 76 63 3f 24 62 80 3f
       1.0063196 0.9532724 0.88852125 1.002995
000280 60 ce 76 3f 77 24 60 3f 52 be 7f 3f d0 c0 6f 3f
       0.96408653 0.8755564 0.9989978 0.93653584
000290 ec 86 4d 3f b0 67 6c 3f a7 a4 83 3f a6 e2 6e 3f
       0.80284 0.92345715 1.0284623 0.9331459
0002a0 8d 8b 82 3f 90 c4 69 3f ea c4 6f 3f 5c 76 7d 3f
       1.0198838 0.91315556 0.9365984 0.9900873
0002b0 ad 6f 81 3f 63 fd 6b 3f 86 30 80 3f 39 b3 85 3f
       1.0112206 0.9218351 1.0014808 1.044532
0002c0 55 0c 86 3f e0 91 81 3f 9b 88 80 3f 10 1b 76 3f
       1.0472513 1.0122643 1.0041689 0.96135044
0002d0 b1 38 84 3f a7 90 58 3f 25 04 6a 3f 48 d1 73 3f
       1.0329801 0.8459572 0.91412574 0.9524121
0002e0 c7 b4 82 3f 53 8d 70 3f cd 4d 76 3f 16 87 95 3f
       1.0211419 0.93965644 0.96212465 1.168185
0002f0 72 09 8e 3f c6 6d 53 3f 4f dd 74 3f 64 e0 6f 3f
       1.1096632 0.82589376 0.9565019 0.9370177
000300 11 d7 87 3f 74 2e 83 3f 55 39 69 3f 80 f4 7c 3f
       1.0612508 1.0248551 0.91103107 0.9881058
000310 1d 27 5e 3f 87 16 80 3f cb 9c 70 3f 94 40 81 3f
       0.8677843 1.0006875 0.9398925 1.0097833
000320 93 dc 8c 3f 7c c7 6d 3f 9c fd 6c 3f 9a a5 87 3f
       1.1004814 0.92882514 0.9257448 1.0597413
000330 db 1c 64 3f a3 1a 47 3f 26 09 93 3f ee e0 77 3f
       0.8910653 0.7777502 1.1487167 0.9682759
000340 8c f8 81 3f 0b 6c 8f 3f dd 56 6d 3f 3d 3f 7a 3f
       1.0153975 1.1204847 0.9271067 0.97752744
000350 85 e5 61 3f 80 8a 7b 3f 67 f2 73 3f 69 62 88 3f
       0.88240844 0.9825821 0.9529175 1.0655032
000360 62 e7 66 3f 2a b3 72 3f 4c aa 84 3f a7 c3 60 3f
       0.9019681 0.9480463 1.036447 0.8779854
000370 e4 8d 85 3f af 2b 86 3f c1 58 82 3f 62 69 5a 3f
       1.0433927 1.0482081 1.0183336 0.8531705
000380 9d ea 71 3f 81 dc 82 3f d5 d6 6c 3f 9f 6f 7b 3f
       0.94498616 1.0223542 0.9251531 0.98217195
000390 cd 60 81 3f 0e 3d 7f 3f 89 00 85 3f c6 da 82 3f
       1.0107666 0.9970254 1.0390788 1.0223014
0003a0 8e 80 87 3f 41 30 67 3f 4e a4 80 3f 29 0b 66 3f
       1.0586107 0.90308005 1.0050142 0.8986078
0003b0 11 87 7e 3f cb c1 61 3f 30 f2 69 3f d5 be 87 3f
       0.99424845 0.8818633 0.91385174 1.0605112
0003c0 13 13 76 3f ea 00 79 3f 0b 6e 64 3f ca ff 54 3f
       0.96122855 0.9726702 0.8923041 0.83202803
0003d0 b0 0c 86 3f 93 c0 89 3f c7 21 81 3f 8a 2c 90 3f
       1.0472622 1.0761894 1.0088433 1.1263592
0003e0 3a 10 8b 3f 09 44 6f 3f 24 31 80 3f f2 1a 82 3f
       1.0864327 0.9346319 1.0014997 1.0164473
0003f0 e6 9e 48 3f 39 9e 66 3f 7b 2e 95 3f e8 c4 89 3f
       0.7836746 0.9008518 1.165481 1.0763216

model.1.bias f4 [256]
000000 6d 40 e3 bd 92 d0 d8 bd f4 6f 8f be 17 93 34 3d
       -0.110962726 -0.10586657 -0.280151 0.04408559
000010 8a d3 89 be 35 57 af bc cf 05 2e bc 10 94 c1 bd
       -0.26919204 -0.021403888 -0.010621502 -0.09452069
000020 2e 4e 5c 3d be 1d ee 3d 36 07 9b bd 51 45 07 be
       0.053785495 0.116267666 -0.07569735 -0.13210036
000030 86 9f e6 bd 65 b0 f4 bd f4 0d 71 be 32 93 b0 be
       -0.112608954 -0.11947707 -0.23540479 -0.344873
000040 20 b4 90 bd 86 09 86 bd c1 5c 43 bd 06 f3 5e be
       -0.07065606 -0.06544785 -0.04769588 -0.21772394
000050 a1 47 00 bf 1b 3b b4 be b2 2f 7d be b5 ab 60 bd
       -0.501093 -0.35201344 -0.24725226 -0.054851253
000060 1a 01 39 be 0c d3 13 be d4 df f4 bd fd b3 fd 3b
       -0.18066826 -0.14435977 -0.11956754 0.0077424035
000070 b7 30 a4 3e 34 38 6e be 5c 8e b6 bd de cf 22 be
       0.32068416 -0.23263627 -0.08913872 -0.15899608
000080 d3 ee af bd 65 1b 93 3c 59 36 59 3e d4 b2 76 be
       -0.08590474 0.017957399 0.21212138 -0.24091655
000090 14 0b f3 bd e8 94 c2 3d 9a ed 82 be 3b e2 88 bd
       -0.11867347 0.09501058 -0.255719 -0.06683775
0000a0 91 29 be be ad 6d 7f 3d 99 1f 70 3d c1 ca 3c be
       -0.37141088 0.062360454 0.058623884 -0.1843672
0000b0 2a a2 5b be b9 d3 37 bd 4d ba 63 bd 01 b3 28 be
       -0.2144858 -0.04487965 -0.055597592 -0.16474535
0000c0 bf af f9 be 90 ba 04 bd b6 26 11 3d 04 c1 f3 bd
       -0.48766896 -0.032404482 0.03543731 -0.11902049
0000d0 86 e7 6b be 11 35 a8 bd a5 90 44 be 18 fd 4c bd
       -0.23037538 -0.082132466 -0.19195803 -0.050046057
0000e0 30 04 6d be c4 df 49 bd db 08 55 bd 57 ba 50 be
       -0.23146129 -0.049285665 -0.0520104 -0.20383583
0000f0 44 ca 45 be 1d 26 b4 bd 8d 58 d4 bd 12 54 9e be
       -0.1931544 -0.08796332 -0.10368452 -0.30923516
000100 2b 29 14 be e9 ab 1e be 37 a0 92 be ed 6f 8f be
       -0.1446883 -0.15495266 -0.2863786 -0.2801508
000110 fe 6f 6c bd 15 7d 82 be 9b 0b 2a 3d 31 9d 4c be
       -0.05772399 -0.25486055 0.041514974 -0.19981839
000120 ca 74 09 3e 0d 35 89 be 88 5e c0 bd 7e 52 29 be
       0.13423458 -0.26798287 -0.093930304 -0.16535375
000130 91 0e 31 be ab 5d b5 be 61 d2 97 bc b7 58 37 be
       -0.17290713 -0.35423025 -0.018532934 -0.17904936
000140 ec 00 4d 3e 2d e2 35 bd e7 1d 5a be d9 e2 15 3e
       0.20019883 -0.04440515 -0.2130047 0.14637317
000150 a1 40 dc bd 15 47 c9 bd 8b 75 0f bd b7 9f ac be
       -0.107545145 -0.09828011 -0.035024207 -0.33715603
000160 9a b2 31 ba 1e db e6 bc 16 00 82 be a1 9d d3 be
       -0.0006778628 -0.028180655 -0.2539069 -0.413312
000170 d7 f3 3e be 78 ea 94 be d5 77 ce bd c5 e6 96 3d
       -0.18647705 -0.29085135 -0.1008145 0.073682345
000180 d4 d4 ad bc 2a ee c3 3d 80 12 9d 3b 42 0c 84 bd
       -0.021219648 0.095669106 0.004793465 -0.064476505
000190 5e d7 a2 bd 8b de 9f bd 4b 7e 5e be 55 f4 77 be
       -0.07951234 -0.078061186 -0.21727864 -0.24214299
0001a0 93 19 63 be a0 41 b6 bd 18 17 11 3d 22 04 f3 3d
       -0.22177725 -0.08899236 0.035422415 0.11866023
0001b0 0f 59 57 be 52 77 e2 bd 6d 44 fb be ff 7c 89 bd
       -0.21030067 -0.11057915 -0.49075642 -0.06713294
0001c0 2e 5a 2e bd 02 bf 95 3d 69 fc 87 be ca d9 57 3d
       -0.04256647 0.073118225 -0.2655976 0.052697934
0001d0 7d 82 79 be b2 9d 3b be b4 4f c2 bc 70 e1 04 3e
       -0.24366184 -0.18321875 -0.023719646 0.12976623
0001e0 4c 81 8a bd 8c 57 06 3d 25 df ff bd bd 35 9c bd
       -0.06762943 0.032798335 -0.12493733 -0.07627437
0001f0 64 57 c6 bd 51 7d 60 be 31 5c 57 3d f5 db c3 bd
       -0.09684637 -0.21922804 0.052578155 -0.09563438
000200 93 3d 2f bd 2b 22 88 bd 02 f0 3e 3d 68 74 3a 3d
       -0.04278333 -0.06647142 0.046615608 0.04552117
000210 c1 e3 d0 bd 8d 6f 03 bf ff 6b 11 be c8 e0 ac be
       -0.101996906 -0.5134209 -0.14201353 -0.33765244
000220 e3 d6 7e bd 94 14 d4 bc 51 6c 7a 3d 40 ee 05 be
       -0.06221665 -0.025888719 0.061138455 -0.13079166
000230 f5 52 7c be 85 40 c8 be 1f ac 46 3d e0 5e 2c 3d
       -0.2464102 -0.39111724 0.04850399 0.042082667
000240 98 74 81 3c c1 2e 90 bd 05 4e 09 be 77 af 37 be
       0.015802667 -0.070401676 -0.13408668 -0.17938028
000250 64 7b 2a be 75 dd 71 bd 0a 1d 3e be 51 0e 99 be
       -0.16648632 -0.05904909 -0.18565765 -0.29893735
000260 96 04 a6 3d d3 55 d0 be b1 20 82 be e2 88 01 be
       0.081063434 -0.4069048 -0.25415567 -0.12649873
000270 b7 e6 9a be 6a 38 3b 3e 71 cc c4 bd 2b 93 1b 3d
       -0.30254146 0.18283239 -0.096093066 0.037982147
000280 fc 17 68 be 6f 51 f7 bd 77 20 26 be 8e 37 65 bb
       -0.226654 -0.12076079 -0.16223322 -0.003497574
000290 e8 dd 1c be 51 ef a5 bd 43 ba e3 be 1c 61 7f be
       -0.15319026 -0.081022866 -0.44478044 -0.24939388
0002a0 bf db 21 be 8f 1a f2 bd a5 c1 56 bd 20 16 00 be
       -0.15806483 -0.11821472 -0.052430768 -0.1250844
0002b0 a0 e6 a9 be 15 c0 42 be 5e bb 3f be 28 69 8d be
       -0.33183765 -0.19018586 -0.18723819 -0.2761929
0002c0 14 36 84 be 0c 02 87 3d 5d 3a 50 be 66 f9 69 be
       -0.25822508 0.06592187 -0.20334764 -0.22849044
0002d0 fa ad 85 be a5 1a 61 be ac 85 5b bd a3 c0 2e bd
       -0.26109296 -0.2198282 -0.053594276 -0.04266418
0002e0 e1 0a ce be 09 1e 54 bd f1 07 10 be 35 4a 45 bd
       -0.40242675 -0.051786456 -0.1406553 -0.048166472
0002f0 4c 21 87 be 30 e8 47 be 70 1f 00 bf 52 16 82 be
       -0.2639259 -0.19522166 -0.5004797 -0.25407654
000300 35 41 98 3d eb d4 32 3e 22 a9 11 3e 2a 58 c2 ba
       0.07434312 0.17464034 0.14224675 -0.00148273
000310 b9 0d e3 be 2d d3 9c bc 5e e5 26 3e 39 03 c5 be
       -0.44346407 -0.019143665 0.16298434 -0.3847902
000320 99 e7 0d be af 7f 8f be 3b 99 00 bd a7 50 0d 3d
       -0.13857879 -0.28027102 -0.031396132 0.034500744
000330 52 3b 7a be 3b 87 99 be c3 52 f9 be 2d c4 39 be
       -0.24436691 -0.29985985 -0.48695955 -0.18141241
000340 ec 93 6a bd 00 95 03 bc c1 97 e5 bd 40 fb dd bd
       -0.057269976 -0.00803113 -0.112105854 -0.10838938
000350 9e 75 9c bc 1d 7b 98 3c 44 18 eb bd 95 01 2b bd
       -0.019099053 0.018613392 -0.11479238 -0.041749556
000360 d7 c0 20 be c8 fc 84 be ef 06 5a be d2 b9 20 be
       -0.15698563 -0.25974107 -0.21291707 -0.15695885
000370 39 7d 5e 3e 72 4d c2 bc 3d e2 77 bd bd fd 9d be
       0.21727456 -0.02371857 -0.060518492 -0.3085765
000380 9a ab 98 bd 47 2b 32 bb 12 fb 39 be 2f c4 a7 3d
       -0.074546054 -0.002718644 -0.18162182 0.08191716
000390 4f 13 95 3d 7b 75 89 be 48 e1 7d be db 99 af be
       0.072790734 -0.26847443 -0.24792969 -0.3429707
0003a0 1a 63 35 bc 61 fe 73 be 8e 5c 14 bd 49 7d 0d be
       -0.011070991 -0.23827507 -0.03622108 -0.13817324
0003b0 62 13 c8 3c 09 04 0a be df d0 ec bb 00 6b b5 bd
       0.024423305 -0.13478102 -0.007227048 -0.08858299
0003c0 e3 8b 89 bc 7e ea 27 3d 80 ce c0 bd 5c 5c fc bd
       -0.016790336 0.040995114 -0.09414387 -0.12322304
0003d0 f6 28 7c be 59 85 62 3d 88 64 96 be 28 30 61 be
       -0.24625 0.05530295 -0.29373574 -0.21991026
0003e0 d8 4c 1c 3d a6 c2 80 bd 45 bf 82 be 92 79 70 3a
       0.03815922 -0.06287126 -0.25536552 0.0009173389
0003f0 42 f1 c3 3d cb ec bb bd 8d c2 c1 bd 6a 6d e0 3c
       0.09567501 -0.09176024 -0.09460936 0.027395923

model.1.running_mean f4 [256]
000000 aa ae ea 3e 69 51 f1 3d 99 39 fa 3e 2d 07 67 3e
       0.45836383 0.11783106 0.4887207 0.22561331
000010 e4 0f f8 be e7 e1 70 bd f3 51 1c be 37 7d de 3e
       -0.48449624 -0.058809187 -0.15265636 0.43454906
000020 87 87 82 3e 54 8c 3c 3e 3e b4 90 be 12 e4 25 be
       0.25494024 0.18412906 -0.28262514 -0.16200283
000030 57 25 67 3e 94 7b d2 3e 12 8b c2 3e 80 11 34 bd
       0.22572838 0.41109908 0.37996727 -0.043962
000040 a4 21 0d bb b0 b1 4e 3e 8e 0a dd be e1 61 f2 3e
       -0.0021534944 0.2018497 -0.43172115 0.473403
000050 4a 02 da be 49 36 42 bd 4a f0 b3 be 9b a0 fa be
       -0.4257987 -0.04741505 -0.35144264 -0.48950657
000060 28 3c e4 be c0 da f9 3b e2 1c a3 be b0 5b 39 be
       -0.44577146 0.007624954 -0.31857973 -0.18101382
000070 8f 01 1a be 57 61 a1 3e 81 a9 a8 3e 91 42 ff be
       -0.15039657 0.31519577 0.3294182 -0.49855474
000080 4f 03 b1 3e 84 5d 20 bd 71 60 b6 3e b3 29 c7 3e
       0.34572837 -0.039151683 0.35620454 0.38899
000090 4e 19 65 be ea af d5 bd c5 db cc 3e ea c1 d8 be
       -0.22372934 -0.104339436 0.4001142 -0.42335445
0000a0 94 15 43 be 6a 78 b5 bb 1b bd 9b be 31 0f e5 be
       -0.190512 -0.005538036 -0.30417714 -0.44738153
0000b0 d1 7e ed be 97 25 f5 be 3b 1d b4 ba 94 10 c9 3e
       -0.46385816 -0.4788024 -0.0013741622 0.3927046
0000c0 bc 7f a1 3e c0 52 3a 3e 0c b9 0b be d8 ea d2 be
       0.31542766 0.18195629 -0.13644809 -0.41194797
0000d0 7a e2 a4 be 65 7f c1 3e 05 e2 48 3c 77 f5 47 be
       -0.32204038 0.37792507 0.0122609185 -0.19527231
0000e0 bf 25 99 3e a8 d0 8b be fd fc d9 3e 04 7a 97 be
       0.2991161 -0.2730763 0.42575827 -0.29585278
0000f0 ec 94 82 3e 9e ee d0 be f3 f8 35 bd 57 24 a0 be
       0.25504243 -0.4080705 -0.04442687 -0.31277725
000100 4c 1f 61 be bd 0c c8 be 81 5e 94 3d c9 f9 d3 3e
       -0.21984595 -0.3907222 0.07244588 0.41401508
000110 b0 2d 80 3d 69 7a bb 3e 47 c0 84 3e f5 ce 6a be
       0.06258714 0.3661683 0.25927946 -0.2293051
000120 cb 9d 9d bd 25 9b 63 3e 09 31 aa 3d 5f e4 f5 3e
       -0.07696112 0.22227152 0.08310134 0.48025796
000130 d0 db 0f be b2 be c0 3d d2 7a c3 be 92 7a a5 be
       -0.14048696 0.09411372 -0.38179642 -0.32320076
000140 08 d7 b2 3e 25 45 3a 3d 46 f5 ba be ea 30 84 3e
       0.3492968 0.045476098 -0.36515254 0.25818568
000150 f7 5d ef 3e 9c c3 0e 3b 86 42 c2 3e 73 b5 f3 be
       0.46751377 0.0021784073 0.37941378 -0.47599372
000160 d8 40 0a be ec e9 bf 3e f3 9b 25 3c 2d 36 4a 3e
       -0.13501298 0.37483156 0.010107982 0.19747229
000170 52 26 a3 be d6 01 88 be 68 46 b9 3e 28 0e ac be
       -0.31865174 -0.265639 0.36186528 -0.3360455
000180 da 08 27 3e b8 29 12 be 89 b9 2a be d3 4e e6 3e
       0.1631197 -0.14273727 -0.16672339 0.44982013
000190 8a e3 d2 be 52 83 62 3e 6b 31 5a 3e 83 b4 f6 be
       -0.41189224 0.22120407 0.21307914 -0.48184595
0001a0 13 30 6b be 05 60 cf 3e 56 20 42 be 36 9e e9 be
       -0.22967558 0.40502945 -0.18957648 -0.45628518
0001b0 2e 24 44 3c ff ea 0a be d3 1c 81 3e 29 32 8e be
       0.011971517 -0.13566206 0.25217304 -0.27772644
0001c0 89 1e f5 3e c9 0f 90 3e 60 d2 81 be e2 44 b8 3e
       0.4787486 0.28137043 -0.25355816 0.35990053
0001d0 34 9a 6d be 56 05 0b 3c 68 68 ae 3e 06 2f a1 3c
       -0.23203355 0.008485159 0.3406403 0.019675743
0001e0 b0 df d2 bd f1 16 fc 3d c2 db 8d be b8 82 20 3e
       -0.10296571 0.12309063 -0.27706724 0.15674865
0001f0 de 14 3a 3e 94 fc 15 3e 7c 61 04 3e 92 ba 7a be
       0.18172023 0.14647132 0.12927812 -0.24485233
000200 a1 cf 74 be 46 e7 a7 be 95 77 2a be 47 93 92 3e
       -0.23907329 -0.32793635 -0.1664718 0.2862799
000210 c9 53 e1 3e b4 6c 1d be 1e 5c b5 bc 87 d5 06 be
       0.44009236 -0.15373498 -0.022138651 -0.13167392
000220 42 53 24 bd 86 f3 06 3b d3 d3 aa bb 1b be f7 3d
       -0.040118463 0.0020591929 -0.0052132397 0.120968066
000230 16 62 22 be 94 8d db 3d 50 71 4a 3e 55 39 a3 3d
       -0.1585773 0.10720363 0.19769788 0.079699196
000240 3f b1 56 3e 92 b0 bc 3d 9d 96 b5 3e b6 51 db 3e
       0.20966052 0.092133656 0.3546647 0.42835778
000250 f5 51 92 be 37 0c 10 3e 61 9b ec bd 42 0f f6 3d
       -0.28578153 0.1406716 -0.11553074 0.12014629
000260 13 64 79 3b ce 71 a3 3e ee 02 fa 3e a4 57 99 3e
       0.0038054034 0.31922764 0.4883036 0.29949677
000270 1e 9e b4 be ba 9b dc 3e 72 4a d8 be 61 55 22 bd
       -0.35276884 0.4308756 -0.42244297 -0.039632205
000280 79 ca 88 3e 1a 87 f0 3e 76 b9 fd be 09 7f ac 3e
       0.26716974 0.46978074 -0.49555558 0.3369067
000290 b6 fa b0 3e d2 fe 12 3d 2e 6c bb 3e ce b8 54 3b
       0.34566277 0.035887547 0.36605972 0.0032458785
0002a0 6e 65 f3 3e 61 f1 80 be 21 94 46 3e 4f 08 b2 3e
       0.47538322 -0.25184157 0.19392444 0.34771964
0002b0 ac 59 d3 3c c2 5d 8a be cb 4d 95 be 9f 96 b1 3e
       0.025799595 -0.27024657 -0.29160914 0.34685227
0002c0 3d 9c a3 3e a6 2f 8d bc ca b6 e5 be 15 50 2b bc
       0.31955138 -0.017234635 -0.4486602 -0.010456105
0002d0 7a 68 75 3e a1 96 da 3e 6e 03 70 bd 63 16 9f 3e
       0.23965636 0.42693046 -0.05859702 0.31071767
0002e0 96 0b 89 3d 86 f4 4e be e4 f1 12 be 9c af 97 3e
       0.06691663 -0.20210466 -0.14350086 0.29626167
0002f0 66 95 ad 3d 8a 13 c0 be 12 74 dd be 8b 91 82 be
       0.08475761 -0.37514907 -0.43252617 -0.25501665
000300 e0 73 63 3e 8d 02 c3 be ee 28 ad be fb 84 dc 3e
       0.22212172 -0.38087884 -0.3382029 0.43070206
000310 ec 3d 92 be 08 bc d7 be 1c e1 c3 bd 54 a7 8e be
       -0.28562868 -0.42135644 -0.095644206 -0.27862036
000320 72 23 94 bc b7 f4 d9 3e b1 95 eb 3e f8 c4 3a be
       -0.018083308 0.42569515 0.46012643 -0.182392
000330 d5 fe 89 3e 95 72 9c 3d 5f 4d 5a be c2 51 ac bd
       0.26952234 0.07639042 -0.21318577 -0.084140316
000340 bc 55 31 be 71 36 ee be bf 79 98 3e 32 9b a0 be
       -0.17317861 -0.4652591 0.29780385 -0.31368405
000350 9b 77 16 3e e5 32 a8 3e eb 79 6c 3d dc cb d2 3e
       0.14694063 0.3285133 0.057733458 0.41171157
000360 f0 12 f5 be 1f a7 98 3e 6c 2e af 3e fb d5 f8 3e
       -0.4786601 0.29815003 0.34215105 0.48600754
000370 00 f0 a1 be 75 7d bf be 95 cd 45 3d aa a0 ce be
       -0.31628418 -0.37400404 0.04829176 -0.40356952
000380 ff 97 bc 3e 70 13 dc be c0 ea 88 3e 5c 89 a2 be
       0.36834714 -0.4298358 0.267416 -0.31745422
000390 8f 58 65 be 03 97 bb be 16 17 6e 3d 63 43 da be
       -0.22397064 -0.3663865 0.058127485 -0.42629537
0003a0 39 8d 42 be c5 5b 81 3e 3e a3 de be a0 b0 8f 3d
       -0.18999185 0.25265327 -0.4348392 0.070161104
0003b0 0a a0 d9 3e e3 02 c0 be 05 6b 5a be 38 b1 fa 3e
       0.42504913 -0.37502202 -0.21329887 0.48963332
0003c0 ff 2c 57 3e e9 30 b4 be f2 b3 0f 3e 01 00 af 3e
       0.21013258 -0.35193565 0.14033487 0.3417969
0003d0 0e d1 e8 3e 02 5c 73 be 56 37 f1 3e 90 d1 d0 3e
       0.45471996 -0.23765567 0.4711253 0.40784883
0003e0 b7 fc 2f be 97 58 a7 3d b2 20 d3 3e b8 5c 2b 3e
       -0.17186247 0.08171194 0.41235882 0.16734588
0003f0 6e a3 38 bd 44 98 dc 3e e7 a9 88 3d e7 d2 8b 3e
       -0.045077734 0.4308492 0.06673031 0.27309343

model.1.running_var f4 [256]
000000 8b cf a6 3d 31 d0 a7 3e 24 b8 13 3f f6 29 94 3d
       0.081450544 0.32776025 0.5770285 0.07234566
000010 ee 13 0b 3e f8 fe fe 3d b9 e1 a4 3e 95 07 79 3f
       0.13581821 0.12450975 0.32203463 0.97277194
000020 8d 9f c7 3e b2 21 8e 3f af 33 29 3e 19 74 1f 3e
       0.38988915 1.1104033 0.16523622 0.15571631
000030 57 06 e8 3e 55 f2 67 3e 0a 64 42 3d 09 5f 74 3f
       0.45317337 0.22651036 0.047458686 0.9545751
000040 65 6f 00 3f 67 30 dc 3e d1 f9 30 3e 57 29 b0 3d
       0.50169975 0.43005678 0.17282797 0.08601635
000050 97 b3 37 3f f1 82 65 3f 0a a7 f6 3e de 3a 83 3e
       0.7175841 0.89652926 0.48174316 0.2563085
000060 66 6a ee 3e ed bd e7 3d ce 1b 8d 3e 1c 6f 7b 3d
       0.4656555 0.11315522 0.27560276 0.06138526
000070 af 41 10 3f 7c fa c8 3d 1a cc ad 3e 78 6a a1 3e
       0.56350225 0.09813401 0.3394478 0.31526542
000080 de b7 16 3e ea ef 46 3f 47 00 18 3e 76 98 7f 3e
       0.14718577 0.7770983 0.14843856 0.24960503
000090 58 ab 2b 3e 05 68 61 3e be 34 53 3e 56 c9 c9 3d
       0.16764581 0.22012337 0.20625588 0.09852855
0000a0 76 a2 7f 3e 1c 03 48 3e 70 dc 9c 3e 0f 80 77 3e
       0.24964318 0.19532436 0.3063693 0.24169944
0000b0 40 57 2b 3e a2 45 47 3f 2d d0 09 3f 7a 87 0b 3e
       0.16732502 0.77840626 0.53833276 0.13625899
0000c0 bd eb eb 3f 8b 07 bd 3c 1c 78 c2 3e 25 e0 4b 3f
       1.8431317 0.023074886 0.3798226 0.7963889
0000d0 ff e8 8e 3e 64 c4 12 3f 25 03 65 3f ef 36 7a 3e
       0.27912137 0.5733092 0.89457923 0.24435018
0000e0 24 bf 54 3e a9 62 85 3d db ca b7 3e b0 b2 c8 3e
       0.2077604 0.065129586 0.35896954 0.39198828
0000f0 75 10 5c 3e 05 eb c6 3d 91 b7 d1 3c c1 79 de 3e
       0.21490653 0.09712795 0.025600227 0.43452266
000100 3b 76 f1 3e b8 0f 6b 3f 62 d5 85 3f 6f d0 22 3f
       0.47160515 0.9182086 1.0455744 0.63599294
000110 91 8f cb 3e 5b d3 53 3d f8 ac 0d 3f cb 19 63 3f
       0.3975797 0.051715236 0.55342054 0.8871123
000120 5b cb c6 3f 6e e7 18 3d cf f8 a9 3c fc 8e 16 3f
       1.5530809 0.037330084 0.020748524 0.58811927
000130 f3 99 94 3d 2a cf c9 3e 1c 13 8d 3d 17 42 71 3f
       0.07255926 0.39415866 0.068884104 0.9424147
000140 16 15 cd 3e b6 36 e2 3e bb ad cb 3e 7a 16 65 3f
       0.4005515 0.44182366 0.39780983 0.8948742
000150 64 16 06 3f af 21 bf 3d 2e 1e 0f 3e 26 40 33 3f
       0.52377915 0.093325965 0.13976356 0.7001976
000160 06 c1 27 3e 9a 94 f7 3e 4a 74 8f 3d b1 2a e4 3d
       0.16382226 0.48355561 0.07004602 0.11140955
000170 06 fe a9 3e 41 a2 75 3e d4 c4 86 3e a4 ae cf 3e
       0.33201617 0.23987676 0.26322043 0.40562928
000180 88 51 8d 3e 00 60 f8 3d 32 5b 8e 3e d7 d3 69 3e
       0.27601266 0.121276855 0.27803952 0.22834717
000190 74 77 ad 3e a0 aa ca 3e cf 2d fe 3d ba a7 98 3e
       0.33880198 0.39583302 0.12411081 0.29815465
0001a0 d3 14 7e 3d 7b 00 77 3f b6 a0 cb 3e bd 59 d5 3e
       0.06203158 0.9648511 0.3977105 0.41670027
0001b0 e1 16 d2 3d 93 0a c9 3e 63 af a8 3e 5d 29 8c 3d
       0.1025827 0.3926588 0.3294631 0.06843827
0001c0 1a 9e 0b 3f 1e dd 03 3f 29 16 46 3e 0b 4c ca 3d
       0.5453812 0.51509273 0.19344391 0.09877785
0001d0 9f fe 85 3e e3 ef 11 3f 6b 41 2e 3e f0 e7 f2 3d
       0.26170823 0.57006663 0.17017142 0.11860645
0001e0 ca 2a b5 3d 57 a1 0a 3f 6f 62 ed 3d f1 92 ff 3c
       0.08846052 0.54152435 0.1159104 0.031197997
0001f0 16 d8 55 3e c3 3e c6 3e 7e eb 88 3d e3 74 dd 3e
       0.20883211 0.38719758 0.066855416 0.4325324
000200 7d 05 f1 3e 65 f3 a0 3e 28 ec b4 3e eb 0d c7 3e
       0.470745 0.31435695 0.35336423 0.38877806
000210 bd 06 ef 3d 83 80 3d 3f d7 4d 81 3e 24 54 a1 3e
       0.11671207 0.7402422 0.252547 0.31509507
000220 ac a4 d2 3d 78 21 20 3f 02 5f 2c 3f e8 fe ba 3d
       0.10285315 0.6255107 0.6733247 0.09130651
000230 6c 67 3b 3e a2 87 b6 3f 91 f7 2c 3e be 08 f0 3d
       0.18301171 1.4260142 0.16891314 0.117204174
000240 71 b5 40 3f a5 84 51 3e 6b 9e 4a 3e 4d 75 07 3f
       0.7527686 0.20460756 0.19786994 0.5291336
000250 ab e7 1f 3f 88 34 15 3e c2 b0 28 3e 13 c8 5c 3e
       0.6246287 0.1457082 0.16473678 0.21560697
000260 4a 56 0c 3e 27 e0 3d 3e 23 89 ba 3e b5 ca 8e 3d
       0.13704792 0.18542539 0.36432752 0.06972257
000270 6a d8 31 3d ce 5e c4 3e 6c 42 a3 3e 53 fe 00 3f
       0.04341928 0.3835358 0.31886613 0.5038807
000280 32 6b 23 3e dc 3c 17 3f 56 34 0a 3e 51 55 87 3e
       0.1595886 0.5907724 0.13496527 0.2643228
000290 42 e5 60 3f cf b7 b5 3e 18 9c 2c 3f 7b 30 b6 3e
       0.8784982 0.35491797 0.6742568 0.35583863
0002a0 53 69 f9 3d 08 85 44 3d 67 c4 4b 3f e9 46 27 3f
       0.12178292 0.04797843 0.7959656 0.65342575
0002b0 f4 2d 60 3d 2b 3d 9a 3d 7e 23 d2 3d b9 57 aa 3e
       0.054731324 0.07531198 0.10260676 0.33270052
0002c0 92 3c e3 3e 3c 0b 89 3e 76 54 99 3e b6 d9 1f 3f
       0.4438215 0.26766384 0.2994725 0.62441576
0002d0 54 29 ee 3d f7 8f 57 3e bb 06 e5 3e 06 aa 9c 3d
       0.116289765 0.21051012 0.44731697 0.07649617
0002e0 61 a8 64 3f 33 71 27 3e 8a c5 7c 3e f6 1e b1 3c
       0.89319426 0.16351776 0.2468473 0.021621209
0002f0 dc 59 34 3f 2c 1a d9 3e dc f2 6c 3e 36 0d 17 3e
       0.70449615 0.4240278 0.23139518 0.14751133
000300 29 29 e8 3d 2c d2 21 3e 8d 50 85 3e 29 30 09 3f
       0.11335976 0.1580283 0.26038018 0.5358911
000310 09 99 b6 3f dc 09 2e 3f c7 26 71 3e 18 fc 32 3f
       1.4265453 0.67983794 0.23549949 0.69915915
000320 c1 d2 75 3f 76 4b 8f 3e e8 12 80 3d c2 94 ce 3e
       0.9602471 0.2798726 0.06253606 0.40347868
000330 90 bd fe 3d d0 d1 1d 3e af 69 b6 3e 32 2f 4f 3e
       0.124385 0.15412068 0.35627505 0.20232847
000340 0d ef 50 3e 54 d0 ec 3e 6f 6c f1 3d 0a 14 8a 3e
       0.2040369 0.46252692 0.1178826 0.26968414
000350 d3 7e a0 3d f8 1f 6d 3f 46 c1 27 3f e2 98 5b 3f
       0.0783669 0.92626905 0.65529287 0.85780156
000360 0e 99 56 3e 82 c9 cc 3d c7 80 f9 3e 8c 4c cd 3e
       0.20956823 0.09999372 0.48731062 0.40097463
000370 39 cf 32 3f a9 dd 54 3e 14 5b 2f 3e e3 c2 eb 3d
       0.69847447 0.20787682 0.17124587 0.11511781
000380 c7 2c ac 3e ca 06 01 3e 60 7c b4 3f 6e 20 ad 3f
       0.33627912 0.12600246 1.4100456 1.3525522
000390 14 b5 76 3f 6f 13 e0 3e 87 b6 2e 3e 09 b2 9e 3e
       0.96370053 0.43764827 0.17061816 0.30995205
0003a0 c6 44 b5 3e bf 1b 8d 3e c8 b8 b4 3d 81 5b 28 3f
       0.35404032 0.2756023 0.08824307 0.65764624
0003b0 6c 31 58 3e 8a a9 0d 3d fe d4 fe 3d 0c 36 4c 3d
       0.21112603 0.034585513 0.12442969 0.04985623
0003c0 ac 85 5a 3d 1c 14 c0 3c 0c 63 aa 3e f9 02 e4 3e
       0.053350136 0.023447089 0.33278692 0.44533518
0003d0 c5 49 4a 3e e7 aa 5c 3e 83 5c 11 3f ca de 78 3d
       0.19754703 0.21549569 0.56781787 0.060759343
0003e0 56 07 57 3e 5d d7 56 3e 9c b5 0e 3e 27 a1 ab 3e
       0.20998892 0.20980592 0.13936466 0.33521387
0003f0 e7 e4 87 3e 5d e9 f8 3e 41 d8 ab 3e 1c 69 8c 3e
       0.26541826 0.48615542 0.33563426 0.27423942

model.4.weight f4 [64, 256]
000000 00 03 fe bd d8 b6 b7 3b ea 3a 7f 3d 00 99 c6 bd
       -0.12402916 0.0056065135 0.062312044 -0.09697151
000010 3c 9f 44 3d b6 5c 17 3d ce 3f 36 bd f3 b4 9b 3d
       0.04800342 0.03695365 -0.044494443 0.07602873
000020 ea 1c 16 bd 8d d3 9e bd 8a 69 99 bd 97 d3 09 3d
       -0.03664867 -0.07755194 -0.07490833 0.033649053
000030 4d a0 5d 3d 54 31 bb bd 5f be f1 bd 34 0d a7 3d
       0.054107953 -0.09140268 -0.118038885 0.08156815
000040 4b 9f d3 bd df a9 06 be b2 ab a4 bd 0f fd 6c bd
       -0.10333117 -0.13150738 -0.08040561 -0.057858523
000050 97 99 84 3d 80 f9 a7 3d b5 bf a5 bd c7 b3 c6 3b
       0.064746074 0.08201885 -0.08093206 0.0060639116
000060 19 2a bf 3c 96 a7 ec 3b 77 40 83 bc 9e 1b f2 bd
       0.023335503 0.0072221262 -0.01602195 -0.11821674
000070 8d 2d ae bc f4 48 f4 3d a2 34 86 3d 11 75 00 3c
       -0.021261955 0.11927977 0.06553008 0.007840411
000080 3d b9 8b b8 e5 25 4f 3d 0b fe 45 bd 8a ae aa 3c
       -6.66254e-05 0.05057325 -0.048337977 0.02083518
000090 14 c5 5d be 44 8c 34 be f6 7c d7 bc 20 70 3c bd
       -0.2165721 -0.17631632 -0.026304703 -0.04600537
0000a0 e8 c3 1c 3e 08 65 cb bd 0f 60 9a bd 6c 12 70 3d
       0.15309107 -0.099313796 -0.07537853 0.05861132
0000b0 5c 92 ea 3c d3 69 1e bc 36 31 f5 bc 4d 5e a4 3d
       0.028634243 -0.009668785 -0.029930692 0.08025799
0000c0 2e 57 aa 3d 5c 12 db bd 1a 92 97 3d 85 30 04 bc
       0.083174095 -0.10696861 0.074009135 -0.008068209
0000d0 15 3b 3a bd 69 b1 c2 bd d8 ff b8 3d 4a 8c 5c 3d
       -0.0454665 -0.095064946 0.09033173 0.053844728
0000e0 68 66 44 3d ef 9c 06 3d df fe ee 3d 35 46 89 3d
       0.047949225 0.032864507 0.116697066 0.06702844
0000f0 67 34 a1 3d 88 86 20 3d bb 7c 92 bd c7 b0 a5 3c
       0.07871323 0.0391908 -0.07152697 0.020225896
000100 52 df 82 3d 30 f8 12 bd a8 36 8b 3d 46 bd 52 bb
       0.06390251 -0.03588122 0.06797534 -0.0032156273
000110 58 ea 7f 3c 1e 8b f4 bd bd 8f b9 bc e2 94 fa 3d
       0.015619837 -0.11940597 -0.022651548 0.122354284
000120 33 68 7b bd 64 37 4f be 23 ee d4 bd b1 d3 b9 bb
       -0.06137867 -0.20235974 -0.103969835 -0.0056709875
000130 ca 17 9c bc d3 32 84 3c 35 ec da bc 64 4e 42 3d
       -0.019054312 0.016137516 -0.02672396 0.04743804
000140 18 ca 95 bd b1 dd 96 bc 38 cd a5 bc 66 c2 4d bd
       -0.07313937 -0.018416258 -0.020239457 -0.05023422
000150 a6 99 ea 3c fc fb e1 3d dc 9e 09 3b e2 08 61 bd
       0.028637718 0.1103439 0.0020999229 -0.054940112
000160 4b f1 c5 bd 26 a2 f3 bd ed 33 1b 3e ea e5 aa bd
       -0.096651636 -0.11896162 0.15156527 -0.08344634
000170 f1 53 11 be b0 de 0f bc 4b b2 88 bd 3d 8d 5f 3d
       -0.14192177 -0.00878112 -0.06674632 0.054578055
000180 da e8 81 bb b2 b5 bd bd 7d 19 86 3c 83 d0 6d be
       -0.0039645256 -0.09263171 0.016369576 -0.23224072
000190 9c 6c 65 bd 55 60 1b 3e 0d 86 9c bb 2d 66 b0 bd
       -0.05601178 0.15173467 -0.0047767223 -0.086132385
0001a0 6c 45 27 be 16 60 43 3d e8 48 a6 3d 84 0a 2b bb
       -0.16335076 0.047699057 0.081193745 -0.0026098797
0001b0 05 cf 4e 3d b5 ad 2a 3b 28 39 0e 3e af 95 ef bd
       0.050490398 0.002604348 0.13888991 -0.11698472
0001c0 ff f4 a9 bd b2 f5 19 3d ff ce c7 3d a8 e8 df bd
       -0.082986824 0.03758783 0.09756278 -0.109330475
0001d0 42 95 78 bd ee 6e 08 be f1 5f 5a be b0 5d f4 bc
       -0.06068922 -0.13323566 -0.21325661 -0.02982983
0001e0 2a d1 42 3d ef 37 20 bd e9 4b 46 3d f4 0f b5 bd
       0.047562756 -0.039115842 0.048412237 -0.088409334
0001f0 73 40 98 3d fe 0e 3d 3d e7 a6 0e 3c 35 ad 1e 3d
       0.07434168 0.046156876 0.008706785 0.0387394
000200 d5 c3 3f 3d 84 f6 56 bd dd 8f a8 bc 05 2a 93 bc
       0.04681762 -0.05248119 -0.020576412 -0.017964372
000210 30 02 20 be f9 a7 e9 3d be 24 77 3b 1b 8c 5a 3d
       -0.15625834 0.11408991 0.003771111 0.05335627
000220 1e 48 81 bd ca 59 90 bd c8 bd dd bd a1 da 33 3d
       -0.063125834 -0.07048376 -0.108272135 0.043909673
000230 87 4c 04 be a3 4a cf 3d f5 7e 5e bd 9b 8c 61 3d
       -0.12919818 0.10121658 -0.054320294 0.055065732
000240 76 37 a5 3d f9 5a 30 3c bc be 51 bd fc 65 e8 3d
       0.08067219 0.010763877 -0.05120729 0.11347577
000250 6f fc 55 3c 56 9d 4b bd 85 41 af bd 82 02 c2 bc
       0.013060673 -0.049710594 -0.08557419 -0.023682836
000260 ac dd 2b bd 32 0d 18 3e ce 3b 50 3d 47 9c 9a bd
       -0.04195945 0.14848784 0.050838284 -0.07549339
000270 3c 31 a7 3d 29 bd 04 be 24 e1 19 be 92 9a e7 3b
       0.081636876 -0.12962784 -0.1502729 0.0070679868
000280 2f fb 86 3c fa d8 63 bd 9e ae ce 3a 12 f5 b9 bc
       0.016477196 -0.055626847 0.0015768593 -0.022699866
000290 15 28 ea bd a6 b9 82 bd 42 69 bf 3d 5b 79 bb 3d
       -0.11433426 -0.06383066 0.09346248 0.09154006
0002a0 6e 77 61 3d be d6 57 bd 7f 8c 01 bd 7e 4d 8f bd
       0.055045538 -0.05269503 -0.03162813 -0.06997202
0002b0 2b 94 97 3c 05 a4 6b 3d 07 26 4a 3c 46 f4 f2 3d
       0.01850327 0.057529468 0.012338168 0.11862998
0002c0 14 96 71 3d 08 e4 84 3d 90 09 b3 bd ae 4a 6e bd
       0.058981016 0.06488806 -0.08742058 -0.05817669
0002d0 db b8 fe 3c 16 6d 97 bd 26 e5 16 3b b2 f8 45 bd
       0.031094005 -0.07393853 0.0023024767 -0.048332877
0002e0 25 03 e6 3d d5 73 83 bd df c5 14 3e 7f 54 52 3d
       0.112310685 -0.064185776 0.14528607 0.051350113
0002f0 23 aa 0b 3e ef 43 2c 3c 32 9a e8 3d 47 03 90 bd
       0.13639121 0.0105142435 0.113575354 -0.07031875
000300 4d 1e da bc 39 a4 d9 bc 4f 68 1a bd 32 00 27 3e
       -0.026625777 -0.026567565 -0.037697133 0.16308668
000310 dd 09 c2 3d f6 a2 d9 bc d9 06 8a bc 75 7f 34 3d
       0.094745375 -0.026566964 -0.016848968 0.044066865
000320 be 33 fa 3b eb 65 05 3e cd 04 05 be 20 78 a0 3d
       0.0076355627 0.1302716 -0.12990113 0.07835412
000330 a9 dd 26 bd 84 e2 ac bc 4c 4d af 3d eb 41 99 bd
       -0.040738735 -0.021104105 0.08559665 -0.07483276
000340 ab d2 96 3d a1 2b 0a bd 7e ac d7 bd d8 cd 44 3d
       0.073644005 -0.033733014 -0.10530947 0.04804787
000350 9b 8b 2d 3d 48 fb 6b bc 33 8e 2e bc 72 06 99 3d
       0.042369466 -0.014403172 -0.01065402 0.074719325
000360 3c b8 44 3d 7b 30 0f 3e ea 70 19 bd 72 9c c0 bb
       0.048027262 0.13983338 -0.0374612 -0.0058780247
000370 8a 44 81 bc d7 9a 7b 3d 6c 55 92 3d fe 86 12 3d
       -0.015779752 0.061426964 0.07145199 0.03577327
000380 17 88 02 be 06 e3 94 3d c5 36 3e 3d 29 3a 88 bc
       -0.12747227 0.07269864 0.04643895 -0.016629295
000390 80 42 9c bd f2 05 9b bc 4a 3e 21 bd 14 82 f7 3d
       -0.07629871 -0.018923733 -0.039366044 0.12085357
0003a0 a6 c8 e1 3d 1b a3 14 be 2e a9 f2 bc 66 6b c6 3b
       0.11024599 -0.14515345 -0.029621687 0.0060552834
0003b0 c8 fc 8b 3b 34 09 55 3d b1 f5 7e bc 68 2e ea bc
       0.004272077 0.05201073 -0.015561507 -0.028586581
0003c0 76 83 aa 3d 9c a1 5c bc 53 6c 7e bd c4 d8 61 bd
       0.083258554 -0.013466265 -0.062115025 -0.055138364
0003d0 fa ba f9 3c f1 21 f3 3d e1 87 56 3d e2 52 2e be
       0.030484665 0.11871708 0.052375678 -0.17023805
0003e0 73 87 82 3d 8e 7f f2 bc 0f 41 2f be d1 d7 ef 3c
       0.06373491 -0.029601838 -0.17114662 0.029277714
0003f0 93 cb 7d bd 63 58 ac 3d 8f 85 2d 3c c9 2e b1 bd
       -0.06196172 0.08415296 0.010590925 -0.08651502

model.4.bias f4 [64]
000000 f6 ab 05 3d a3 31 07 bd 89 10 52 39 00 da 69 3c
       0.032634698 -0.03300632 0.0002003332 0.014273167
000010 21 37 73 3d 75 73 14 bd da 4d 34 3d ac 2f 1f 3d
       0.059378747 -0.03624292 0.044019558 0.038863823
000020 0a 06 be 3b 73 3d 62 3d 3f 9e 68 bd d0 b9 29 bd
       0.0057990598 0.055234384 -0.05679154 -0.04143697
000030 0d 3e 42 bd c3 e9 93 3b ba 8b 50 3d ea 7b ea ba
       -0.047422457 0.0045139506 0.050914504 -0.0017889712
000040 f9 1b 0b bd 7b 31 a0 bb 1b be 66 bd 25 bd 14 b9
       -0.033962224 -0.004888711 -0.056333642 -0.00014184842
000050 33 33 bb bb 90 a8 63 bd c9 37 39 bd a0 83 45 bd
       -0.0057128905 -0.055580676 -0.045219216 -0.04822123
000060 12 95 8d 3b 4c 66 75 3b a2 34 81 bc 87 11 65 3d
       0.004320749 0.0037445007 -0.015772168 0.05592492
000070 5c e5 57 bd a4 71 c8 bb be 16 02 3d 49 f6 77 3d
       -0.05270897 -0.0061170626 0.03175997 0.06053761
000080 78 3e 22 bd 45 31 94 bc 2f df d5 bc 7b b3 a2 bc
       -0.039610356 -0.0180899 -0.026107399 -0.019860974
000090 76 76 3e 3c 82 af 80 3a 07 65 7d 3d a6 eb 5d 3d
       0.011624923 0.000981793 0.061863925 0.05417981
0000a0 5d 57 9a ba 20 cb 4a bd 37 19 61 3c 8a 0b b3 3c
       -0.0011775304 -0.04951012 0.013738922 0.021856088
0000b0 25 bd 4d bc 2e c9 dc bc 17 71 5f 3d 65 7f 13 bd
       -0.012557303 -0.026951399 0.05455121 -0.036010165
0000c0 df a2 42 bd 27 cd b7 38 48 4e 76 3c 4f 9e a8 3c
       -0.047518607 8.7643326e-05 0.015033312 0.0205833
0000d0 74 13 9f bc 6f 09 40 3d 07 e7 cb bc fe ef 80 bd
       -0.019418456 0.046883997 -0.024890436 -0.06295775
0000e0 f9 4e 67 3c 2b 34 5d bc fc c9 6e bc 0c b3 58 3d
       0.01411795 -0.013501207 -0.014574524 0.052905127
0000f0 37 80 20 bd 8e 7d 25 3d a9 81 e1 3c 6d b5 9e 3c
       -0.039184775 0.04040294 0.027527647 0.01937362
