saved_models/param_model.pth (torch, 102539 bytes, 31 tensors)

model.0.weight f4 [256, 7]
000000 5c 95 0c bf bb dd 98 3e 6d b6 c6 3d 38 20 cb 3e
       -0.54915404 0.29856667 0.09702764 0.39673018
000010 59 ac d0 3d 0d 43 8b 40 08 1a 0c 3f cb 8f 26 bf
       0.10189123 4.351935 0.5472722 -0.6506316
000020 07 10 00 3f d4 e9 0b 3f 7f 5c 34 3f f3 37 95 3e
       0.50024456 0.5465367 0.7045364 0.29144248
000030 81 47 ae bd eb d1 89 be f6 02 23 c0 5b 19 1d 3f
       -0.08509732 -0.26917967 -2.5470557 0.61366814
000040 3b 9f 1a 3f 14 c5 db 3e 2c 8a 92 3f d7 7d b9 3e
       0.60399216 0.42923796 1.1448417 0.3622882
000050 be 18 91 3c ec 90 1a bd a6 20 00 3f 50 bc ca 3e
       0.017711993 -0.037735865 0.5004982 0.39596796
000060 ab 66 1a 3d 34 70 93 bc 7c 98 a3 c0 ec d1 0d 3e
       0.037695568 -0.017997839 -5.112364 0.1384961
000070 94 b4 8e bf 3d 65 06 3f 1e 87 00 3f 0d 62 9c 3f
       -1.1148858 0.5249823 0.5020617 1.2217423
000080 8c 7c 55 bd ce 21 01 be 80 bd a0 3e 21 b5 85 be
       -0.05212073 -0.12610552 0.31394577 -0.26114753
000090 e7 16 65 bd 25 11 c4 bf 30 47 e4 3e 8c 05 31 3d
       -0.055930045 -1.5317732 0.44585562 0.04321818
0000a0 2a b0 85 c0 43 a1 64 bf df 41 74 bf 21 32 b8 ba
       -4.1777544 -0.89308566 -0.9541301 -0.0014053026
0000b0 5d 0a 29 3f c1 c5 49 3e 5b 38 92 3f 10 e7 dc 3c
       0.6603144 0.19704343 1.1423448 0.026965648
0000c0 70 72 80 be 32 84 dc 3d 97 1b 31 3e ae be 67 3f
       -0.2508731 0.10767402 0.17295681 0.9052533
0000d0 a7 ca 17 3e e4 5a 3e bf 9a 10 64 bf 56 57 dd 3e
       0.148234 -0.7435744 -0.8908783 0.43230695
0000e0 c1 d5 4d c0 fe 63 d1 be b3 6a 69 3e 2f c0 95 bf
       -3.2161715 -0.408966 0.22794609 -1.1699275
0000f0 e6 10 10 3f 5f 19 ba bb 4a 55 6f 3e 78 f3 a5 be
       0.56275785 -0.005679294 0.23372379 -0.32412314
000100 0e db e8 3d b4 03 86 bf 0c 4d ad 3e 10 06 88 3d
       0.11369906 -1.046988 0.33847845 0.06641781
000110 b4 41 c8 bd 8a ce 87 c0 55 04 b7 be 14 f3 1a 3e
       -0.09778157 -4.2439623 -0.35745493 0.1513179
000120 ae 24 48 ba 2f 5e 9e be bd 4d 8c 3e 60 0c 19 40
       -0.000763486 -0.3093123 0.2740306 2.3913803
000130 6b d6 53 40 b3 12 c7 3e 1e b2 8d 3f df 49 56 3f
       3.309962 0.38881454 1.1069982 0.8370647
000140 08 e7 b7 b8 a7 94 79 bd 7a 48 42 c0 13 aa 96 bf
       -8.769153e-05 -0.06093278 -3.0356736 -1.1770653
000150 8a 52 f1 be b2 1b ed bd 9f 57 1a 3e 85 7b ef be
       -0.47133285 -0.11577548 0.15072487 -0.46773925
000160 9e 47 59 3e a4 2d 12 40 45 54 4a 40 a3 13 2b bf
       0.21218726 2.2840357 3.1613934 -0.6682684
000170 fb 81 1b be b5 1f fe be e4 88 03 3f 7f 4a 4b be
       -0.15186302 -0.49633566 0.51380754 -0.19852637
000180 e6 96 2b 3e 9f 1a 8d 40 11 8f 79 3e 67 38 5f bf
       0.16756782 4.4094996 0.24370982 -0.8719544
000190 ce 30 d6 be e5 49 3b bf 21 18 32 bf 88 4d a6 bb
       -0.4183411 -0.7315963 -0.6956807 -0.0050751604
0001a0 78 12 95 3e 4d 3c 15 bf b4 0a d3 3f bb 6a 97 3f
       0.29115653 -0.58295137 1.6487641 1.1829447
0001b0 a8 0d 32 3f d8 c0 80 bd d1 46 60 3c 44 0b 2b 3d
       0.6955209 -0.06286782 0.013688759 0.04175879
0001c0 3d 02 0e bc e6 5a de 3e 32 36 c5 be f8 f6 23 3f
       -0.008667526 0.43428725 -0.3851791 0.6404872
0001d0 15 3d 81 3b 9d 17 5f 40 7c 78 b8 3f 76 6d bd 3e
       0.003944049 3.4858162 1.4411769 0.36997575
0001e0 a6 c4 15 3f d0 24 f2 bf 59 68 95 bf 69 c8 d7 3e
       0.58503187 -1.8917484 -1.1672469 0.42145088
0001f0 ca 34 97 3e bb 35 a0 bf bf ea c7 bd d0 69 11 3e
       0.29532462 -1.2516397 -0.09761571 0.1420052
000200 b3 50 4a be 63 84 35 bf 6c 93 28 3f a8 03 af 40
       -0.19757347 -0.7090513 0.6584995 5.4691963
000210 2f 41 4f 3f 2b 56 45 3e a1 ee c6 bf f4 c6 55 be
       0.8095884 0.19271152 -1.5541574 -0.20876676
000220 8d 8b dd 3e 4b aa fe bf 4b 2a 36 3d de d2 5d 3f
       0.4327053 -1.9895719 0.044473927 0.8664988
000230 a9 73 a3 3d 12 6f b7 3e 05 33 33 3e ea 2a d3 be
       0.07981045 0.35826927 0.17499931 -0.41243678
000240 b2 e9 a9 3e d4 f7 62 c0 62 9c 0e c0 e9 f8 6f bf
       0.33186108 -3.5463762 -2.2282948 -0.9373918
000250 90 9c e8 bf 4c 8c 30 3e 0d 1c 64 3e 0d da 81 bf
       -1.8172779 0.17241019 0.22276326 -1.0144669
000260 91 29 94 3f 19 b8 a8 3e c2 e6 07 bf 20 07 72 be
       1.1575185 0.32952955 -0.53086483 -0.2363553
000270 70 a6 8e 3f dc 65 1e 3f ae 08 9d be 94 f5 02 c0
       1.1144543 0.61874175 -0.30670685 -2.046239
000280 47 c9 ec bf 0c e4 52 bf 8b 25 d6 3e 0d 45 c5 3e
       -1.8498925 -0.8237922 0.41825518 0.38529244
000290 b0 f9 32 3f fc 41 8a bf e8 76 89 bf ed d4 20 be
       0.6991224 -1.0801387 -1.0739412 -0.15706225
0002a0 c5 bb c6 be 8c 73 54 bd 6a 17 b1 3e 89 eb af bc
       -0.38815132 -0.051868007 0.34588176 -0.021474617
0002b0 12 ba 8e 3d e7 91 a6 c0 fb 03 a3 bf d2 63 34 3f
       0.06969084 -5.2053103 -1.273559 0.70464814
0002c0 ab 0e de bd cf 6a 26 3f 8a e3 72 3f 02 54 15 bf
       -0.108426414 0.65006727 0.9487845 -0.5833131
0002d0 48 aa 4c c0 f9 f3 07 3f c6 6c 88 bf bf 45 e2 3e
       -3.1978931 0.5310665 -1.0658195 0.44193837
0002e0 7f 2e 0f 3f f0 0e cf 3e 98 95 45 3e 9f f5 aa bf
       0.5593032 0.40441084 0.19295347 -1.3356208
0002f0 ce 9d c4 3e f0 7a b6 be 48 14 e2 3e 90 94 32 bf
       0.38401645 -0.3564067 0.44156098 -0.6975794
000300 a7 ed 3b 3f 22 83 15 bd 95 56 5a bf 35 bd 1b be
       0.73409504 -0.03650201 -0.85288364 -0.15208896
000310 44 e5 ab 3e 88 3c aa bf 98 10 c2 be 24 64 d0 be
       0.33573353 -1.3299723 -0.37903285 -0.407014
000320 0b 73 70 be 30 0b d5 be 6b 36 82 be 4a f9 cc 3e
       -0.23481385 -0.41610098 -0.25432143 0.40033942
000330 0d c4 be be 68 0f 16 bf b0 69 a3 be 46 52 ef be
       -0.3725895 -0.5861726 -0.3191657 -0.46742457
000340 96 c3 2b 3f 74 a3 24 bd 65 92 d9 be 08 c5 5b 3e
       0.67095315 -0.040194944 -0.42494503 0.2146188
000350 09 d7 25 3f f2 4c 94 3f 88 1c 5d 3e 62 4c b1 be
       0.6478124 1.1585982 0.21592915 -0.34628588
000360 b8 c6 6e bf 2d 7a de bf 7b b5 92 be 98 4c c2 be
       -0.9327197 -1.7381035 -0.28654084 -0.3794906
000370 8d 80 50 bf 38 cf b0 3d f1 ea ad bd 03 2e 27 40
       -0.8144615 0.08633274 -0.08492077 2.6121833
000380 ac 6e d8 3e 3e 24 6d 3f 3c 85 2e 3e d1 ef 0a bf
       0.42271936 0.92633426 0.17043012 -0.5427218
000390 51 f5 b1 3e 35 4b 41 bf 6a 7a 61 3e cd 4a fc 3e
       0.34757474 -0.7550538 0.22019354 0.49275818
0003a0 ad 28 e9 be 21 c6 f2 bf 37 69 2a 3e 5a 55 32 3f
       -0.45538846 -1.8966714 0.16641699 0.69661486
0003b0 cf 7a 4a 3e 69 37 2a bf 9e 5b 56 3e 3b 01 30 3e
       0.1977341 -0.664908 0.20933387 0.1718797
0003c0 26 09 43 3f a3 1e 3c 3f 2b ec b7 be d8 9f 3d 40
       0.76185834 0.7348425 -0.3592237 2.962881
0003d0 40 51 c5 bf 06 a5 88 be e8 c9 f9 bf c3 69 98 be
       -1.541542 -0.26688403 -1.9514742 -0.2976819
0003e0 c6 67 3a 3e 64 7c 2b c0 9d ab ac 3e 29 fa c7 3e
       0.18203649 -2.6794672 0.3372468 0.39058045
0003f0 31 20 46 bf a3 88 18 3e f3 01 b9 bf 4f 05 69 3e
       -0.7739287 0.14895873 -1.445372 0.22755931

model.0.bias f4 [256]
000000 07 14 93 be d9 8a 79 be b2 88 31 bd 1b d7 c6 3e
       -0.28726217 -0.24369372 -0.043343253 0.38835987
000010 75 8a 86 3e 21 0f 77 3e 09 91 75 be 03 cc 61 3e
       0.2627751 0.24126865 -0.23981108 0.2205048
000020 79 17 a5 3e 97 4c 2e be bf 89 93 be e8 bd 30 3e
       0.3224447 -0.17021404 -0.2881603 0.17259943
000030 dc 23 58 3e ed 51 9f be 25 7c 8a be 4c 61 0a 3e
       0.2110743 -0.31117192 -0.2704784 0.13513678
000040 8e c1 66 3b 3e 23 75 3e ac 8d 91 3e 02 07 99 bc
       0.0035210582 0.23939225 0.284284 -0.0186801
000050 80 62 cb 3d 6e a0 b0 be 90 6b 83 3c 06 f0 ae be
       0.09930897 -0.34497398 0.0160425 -0.34167498
000060 89 d1 8c 3e 26 8a 0f 3d 6e 44 bc 3e b8 5c 31 bd
       0.27503613 0.035043858 0.36770958 -0.043301314
000070 0f 09 9d 3e 5d 5c 74 bc b6 98 47 be e3 ec b9 3e
       0.30670974 -0.014914599 -0.19491848 0.36313543
000080 cb db 21 be 48 ad 89 3e 22 c0 64 3e d0 95 07 3e
       -0.158065 0.26890016 0.22338918 0.13240743
000090 6f a3 55 3e 4b fd 97 3e 40 8d 44 be 22 4a 84 3d
       0.20863126 0.29685435 -0.19194508 0.06459452
0000a0 38 57 46 be 87 2a 76 3e 86 b6 12 3d 35 98 90 be
       -0.19369209 0.2403966 0.0358186 -0.28241125
0000b0 9d cb 84 be 5d bb 82 3d 5b 31 2c 3e 2e 57 a8 bd
       -0.25936595 0.06383393 0.16815703 -0.08219753
0000c0 35 59 4c be 7e b3 8c be 79 79 a4 3e d8 ec 66 be
       -0.19955905 -0.27480692 0.32123926 -0.22551286
0000d0 cb 78 a2 3e 10 5d 01 bc 73 4e 4f bc b4 2d a2 3e
       0.31732783 -0.007895723 -0.012652981 0.31675494
0000e0 68 15 1f be d3 80 a8 bd 93 b4 9e 3c 23 c4 25 3e
       -0.1553551 -0.08227696 0.019373214 0.16188101
0000f0 24 87 0f be ca ed 28 3e 1e 18 d1 3c 38 d4 3c be
       -0.14016396 0.1649696 0.025524195 -0.1844033
000100 81 62 58 3e d1 4c 6e 3e a5 7e a3 be 1a 79 0d bc
       0.21131326 0.2327149 -0.3193256 -0.00863483
000110 30 29 84 3d 9e 55 7d 3e ec 7a 81 3e 64 81 ba 3e
       0.064531684 0.24739692 0.25289094 0.36426842
000120 89 31 87 3d e4 f6 6b be b7 0b a5 3e 78 10 e2 3d
       0.06601245 -0.230434 0.322355 0.110382974
000130 fb b4 50 be 64 78 87 be b5 fc 5e 3e 1d de 03 3e
       -0.20381539 -0.26459038 0.21776088 0.12877698
000140 33 fb 4f 3e 5e c5 c3 be e7 ca 1a 3e aa e4 80 be
       0.20310669 -0.38236517 0.15116464 -0.25174457
000150 54 71 8d bd 83 bf 7b bd 17 b1 8b be cf 60 14 be
       -0.06906381 -0.061461937 -0.27283546 -0.14490055
000160 c6 9c bc 3e 63 a3 8f be 47 23 6f be 94 24 b5 be
       0.3683836 -0.28054342 -0.23353301 -0.3537947
000170 23 55 73 3e 6a d3 3c 3c f8 63 47 be 4f b8 48 3e
       0.23762946 0.011525014 -0.19471729 0.19601558
000180 2d 87 96 3c af 4e 91 3e 9a 46 6c be f4 ea 20 bc
       0.018375004 0.28380343 -0.23073807 -0.009821642
000190 6e 36 83 3e d3 a4 a1 be 4d 23 91 3d 65 97 99 3e
       0.25627464 -0.31571063 0.07086811 0.29998317
0001a0 02 a9 0a be 56 9c d6 bd 20 bb b5 3d 89 f8 9c bc
       -0.13541034 -0.104790375 0.08873582 -0.01916148
0001b0 95 19 42 be 0b 92 3c 3e 53 98 a5 bd a9 f8 3a 3e
       -0.18955071 0.18415086 -0.08085694 0.18258919
0001c0 fb 35 b2 3e 6a 28 ac be 0f 2e 19 3e 51 79 57 3d
       0.3480681 -0.33624583 0.14958976 0.05260593
0001d0 22 bd 23 3e 85 c4 b7 be 77 47 98 bc 5a 6c bc 3e
       0.15990117 -0.3589212 -0.018588765 0.36801416
0001e0 a0 7e b2 be 59 4f ad bd c9 f8 65 3d 3c 85 f2 3d
       -0.34862232 -0.084624 0.056145463 0.11841819
0001f0 91 40 48 bd e7 10 2b bd 93 f9 ac 3e 9f cd 28 3d
       -0.0488897 -0.041764166 0.3378416 0.04121172
000200 a5 ea 98 3d f6 b0 66 3e 2b cc 98 be 8a ab 9a be
       0.0746663 0.22528443 -0.29843268 -0.30209
000210 b3 5a c1 bd 79 37 c1 3d 59 e5 bc be 45 d4 bd be
       -0.09441128 0.09434409 -0.36893728 -0.3707601
000220 0b b7 ae 3e d3 cb 20 bd 56 74 b3 3e ac 3a 57 be
       0.34124026 -0.039256882 0.35049695 -0.21018475
000230 89 b0 62 3e 7f 91 65 be 60 6a bf 3e c3 8d a8 3e
       0.22137655 -0.22418784 0.37385845 0.32920656
000240 e7 74 9a 3e 4d 45 93 3d ca 0f 0f 3e 55 fd ea 3d
       0.30167314 0.071909525 0.13970867 0.114741005
000250 a7 dd 64 be 05 b8 b9 be d9 3f 4e 3e 92 36 e0 bd
       -0.22350179 -0.36273208 0.20141543 -0.109479085
000260 5e 3b 26 3e 1f ab 91 be a7 0f 82 3e 70 9f 88 be
       0.16233584 -0.28450868 0.25402567 -0.2668414
000270 b7 f5 28 3e 91 22 18 bd b3 f6 6b 3e 81 84 df 3d
       0.16499983 -0.03714234 0.23043327 0.10913945
000280 6d d7 6a 3e 1e 6c 6f 3e 11 bc b0 3e 04 68 85 be
       0.22933741 0.23381087 0.34518483 -0.2605592
000290 c8 e4 b1 3e f4 98 a3 bd 22 8c b8 be 4d ca 62 be
       0.3474486 -0.07988158 -0.36044413 -0.22147484
0002a0 c8 2d 40 3c 05 72 16 be e4 ca 2a 3e 5d d0 4d be
       0.011729665 -0.14691932 0.16678959 -0.20099016
0002b0 5e 5d 7c bd 92 32 56 be 42 85 b6 3e 53 10 b2 3e
       -0.06161248 -0.20917729 0.35648543 0.3477808
0002c0 34 d3 26 3e e1 79 63 3e 98 a4 a8 3e b7 11 31 be
       0.16291505 0.22214462 0.32938075 -0.17291914
0002d0 5f 84 55 3e 04 bd ab 3e ca 3f 80 3e d9 9d ab be
       0.20851277 0.33542645 0.25048667 -0.33518866
0002e0 92 cd bb 3e 11 7c b9 3e a5 36 93 3e 27 2b 45 be
       0.36680275 0.36227468 0.28752628 -0.19254743
0002f0 67 de 6a be b6 92 90 3e cd 34 ab bd cc 27 64 be
       -0.22936402 0.28236932 -0.0835968 -0.22280806
000300 2d 7f 5c be a3 20 87 3e 9c bd 81 be 46 df 92 3e
       -0.21532889 0.26392087 -0.25339973 0.2868597
000310 79 bd 7e 3e e7 98 02 bd 3b 06 fb 3d e5 f9 8f 3e
       0.24876966 -0.0318841 0.12257048 0.28120342
000320 bf 09 f4 bd 81 12 64 be 78 8e a2 3e 29 69 b5 be
       -0.119159214 -0.22272684 0.3174932 -0.35431793
000330 8e 33 82 bd 5b de 73 bd 76 12 8a be 69 f3 8c 3e
       -0.063574895 -0.059538227 -0.2696721 0.27529457
000340 ec 1f 04 3e 38 6d 31 be cf e5 36 bd 7f 87 d9 bd
       0.12902802 -0.1732682 -0.044652756 -0.10621547
000350 8c 0b 8f be 7a 81 07 bd 0a aa a9 3e e5 7c 88 be
       -0.27938497 -0.033082463 0.33137542 -0.26657787
000360 a8 24 c9 3b e7 4f 31 be 9a b1 bb be 79 4c d1 bb
       0.006138403 -0.17315637 -0.36658937 -0.00638729
000370 6a 7a 34 3e d8 dc f2 bd 9b 2b f6 3c d7 80 2d 3e
       0.17624822 -0.11858529 0.03005009 0.1694368
000380 d8 23 90 be 83 26 78 bd d4 ec 3a 3e c9 30 67 3d
       -0.28152347 -0.060583603 0.18254405 0.05644301
000390 08 28 65 3e 19 26 99 be 25 ce 70 be 9a e6 d8 bd
       0.22378552 -0.2991188 -0.23516138 -0.10590859
0003a0 82 9f f9 3d 4f 0d 36 3e 11 10 3f 3e fc a7 90 be
       0.12188627 0.17778514 0.18658473 -0.28253162
0003b0 27 d9 83 3e db 7e 88 3e 30 b6 9e be 97 91 69 3e
       0.25751612 0.26659283 -0.30998373 0.22809444
0003c0 12 35 12 bd be 6a ad be ad 00 18 3d 8b 36 00 3e
       -0.035695143 -0.338705 0.03711002 0.12520806
0003d0 1d 9f 92 be 2d 2d 99 3e 91 65 07 3e cc 0a 14 be
       -0.2863702 0.2991728 0.13222338 -0.14457244
0003e0 c9 0f e9 bd 9b 31 3f 3e c0 87 c9 3d d3 5c 9d be
       -0.11379964 0.18671267 0.098403454 -0.30734882
0003f0 f8 b1 51 be e3 d9 9f be 4d 2d be 3e 83 e5 bf be
       -0.20478046 -0.31220922 0.37143937 -0.3747979

model.1.weight f4 [256]
000000 75 46 eb 3f 7c 90 49 3e dc 8d 2e 3f a8 d3 c0 3f
       1.8380877 0.19684023 0.6818521 1.5064592
000010 18 8d 98 3e fd 7d ed 3f 17 ea cf be d8 dd 4e be
       0.29795146 1.8554074 -0.40608284 -0.20201814
000020 fa 13 97 3f ca 03 ce 3f d5 a7 de 3f b5 f4 ae 3f
       1.1802971 1.6094906 1.7394968 1.3668429
000030 60 91 f0 3f fb 97 d5 3f d8 b9 14 be 38 a5 00 3f
       1.8794365 1.6687006 -0.14524019 0.50252104
000040 79 15 93 3f 48 ef d4 3f ff 45 00 40 15 66 92 3f
       1.1490928 1.6635523 2.0042722 1.1437403
000050 a5 20 e6 3f cf 7a ac 3e f4 e1 cd 3f d7 b1 3e 3f
       1.7978712 0.33687446 1.608458 0.7449011
000060 8f 41 11 40 3c 7c a6 3f df 58 be 3d b9 ff 0b 3d
       2.2696264 1.3006663 0.092942946 0.034179423
000070 4f 7b 7b be f1 29 50 be 44 a8 d5 3c 05 df c4 3f
       -0.24558757 -0.203285 0.026081212 1.538056
000080 a3 56 34 3e b0 02 4e 3f 8d d6 a1 3f 9d 06 c3 3f
       0.17611174 0.8047285 1.2643601 1.5236393
000090 bd 85 a7 3f 1d 21 fb bc 3a bf 0d 40 95 90 12 40
       1.3087689 -0.030655438 2.2147965 2.2900746
0000a0 24 30 a6 3e 4a 76 fa 3f 57 47 97 3f af de a4 3f
       0.32458603 1.9567349 1.1818646 1.2880458
0000b0 9b fa a8 3e 50 a5 3e 3f 1d 4d e6 bd f9 45 bf 3d
       0.33003697 0.74470997 -0.11245177 0.09339518
0000c0 63 dd 01 40 05 16 0b 3f 6d f4 da 3f c3 91 0e 3f
       2.0291374 0.54330474 1.7105843 0.55691165
0000d0 23 63 9a 3f 15 41 b9 3f 77 20 06 bd 5e de 80 3f
       1.2061504 1.4472986 -0.032745805 1.0067861
0000e0 bb ad dd 3f ff dc a5 3d a5 dd ec 3f 69 06 ad 3f
       1.7318643 0.08098792 1.850514 1.3517581
0000f0 70 7a ed 3f 2a ce ae 3f c0 7b a8 3f 75 d9 8a 3f
       1.855299 1.3656666 1.3162766 1.0847613
000100 f2 5d e3 3f 58 b2 b0 3f fe d8 b1 3f 8e fc d2 3f
       1.7763045 1.3804426 1.3894346 1.6483324
000110 a5 ca c3 3f c4 94 e1 be cb 27 8e 3e f4 bc e8 3e
       1.5296217 -0.44058812 0.27764735 0.4545666
000120 64 96 a0 3f 24 57 06 40 0e 32 b0 3f 53 21 84 3e
       1.2545896 2.0990686 1.3765275 0.25806674
000130 25 9a d2 3f 4f 94 62 3f 72 7c ca 3f 99 e8 63 3d
       1.6453291 0.8850755 1.5819228 0.055641744
000140 99 2a 05 40 4b 6d d7 3f fc 09 b8 3f 51 a0 c5 bd
       2.080725 1.6830229 1.4378047 -0.096497186
000150 35 72 df 3e 90 31 ce 3e 23 2c e7 3f ed b7 ae 3f
       0.4364182 0.40272188 1.8060344 1.364988
000160 4c de a3 3e 14 c4 99 3f 98 5f 86 3f f2 b4 10 40
       0.32005537 1.2012963 1.0497923 2.261044
000170 f9 61 ca 3f 33 91 89 3f 8d 46 fb 3f 01 86 9e 3f
       1.5811149 1.0747436 1.9630905 1.2384645
000180 06 6e a9 3f 9d d4 f5 3f 48 47 80 3f 16 73 85 3f
       1.3236701 1.920551 1.0021753 1.0425746
000190 39 32 a3 bf 4f 48 41 3f cf 5a 5c 3f 43 bb d8 3f
       -1.2749702 0.7550096 0.8607606 1.6932148
0001a0 a6 99 58 3f 20 c2 fb 3f f4 51 c9 3f 72 ff d8 3f
       0.8460945 1.9668617 1.5728135 1.6952956
0001b0 22 09 aa 3f 63 bb f6 3f 4f f8 b8 3f cf c9 eb 3f
       1.3284037 1.9275936 1.4450778 1.8420962
0001c0 99 a8 bd 3f 57 d2 87 3e 14 83 a9 3f 74 da 67 3f
       1.4817077 0.26527664 1.3243127 0.9056771
0001d0 82 1d 94 3f 1b 00 d2 3f fd df 0b 40 43 05 f0 3f
       1.1571505 1.6406282 2.1855462 1.8751606
0001e0 3b b2 04 40 48 19 9b 3e 92 00 5a be 1d 51 f1 3d
       2.0733783 0.30292726 -0.2128928 0.11783049
0001f0 a3 00 00 40 6a dc a9 3f 7a dc ed 3f 1c 20 86 3f
       2.0000389 1.327039 1.8582909 1.0478549
000200 10 aa f0 3e f5 4e a2 3f 7b 44 b8 3f ef db 00 3f
       0.47004747 1.2680346 1.4395899 0.5033559
000210 ee 3f c7 3f 4c 82 e5 3d ff 7c b6 bd 38 6f 66 3d
       1.5566385 0.11206493 -0.0891056 0.05625841
000220 71 52 89 3f ca 8d 03 40 60 78 9e 3f 99 99 a6 bc
       1.0728284 2.055529 1.2380486 -0.020336913
000230 91 bc ef 3f cd 02 e4 3f 21 5c 53 3f a6 b5 ee 3f
       1.8729421 1.7813355 0.8256245 1.8649185
000240 44 ea 71 3f cc 0d 35 3f 20 ca e2 3f 11 3a 2a bf
       0.94498086 0.7072418 1.7717934 -0.6649485
000250 dd 2f c8 3d 60 bc ae 3f fb 33 87 3f fb d2 6b 3f
       0.09774754 1.3651237 1.0562738 0.92118806
000260 08 6f 01 40 ae ed 3a 3f 10 af c6 3f f6 b7 01 40
       2.0224018 0.7301892 1.5522175 2.026853
000270 f8 05 cd 3f 16 f4 05 40 44 e2 9e 3f 2f 94 bf 3f
       1.6017447 2.0930228 1.2412801 1.4967097
000280 3f 6a d6 3f 45 54 bf 3e 96 24 0e 40 89 34 ba 3f
       1.6751174 0.3736898 2.220983 1.4547282
000290 bc 7a b8 3f 18 0c fb 3f 86 c9 e5 3f 59 5c 96 3f
       1.4412456 1.9613066 1.7952125 1.1746932
0002a0 b2 18 a0 3f 0b 79 b1 3f 39 e7 3a 3f a5 bb af be
       1.2507536 1.3865064 0.7300907 -0.3432285
0002b0 4d 13 cf 3f fa 76 cd 3c f3 2b b9 3e 4b 5a b0 3f
       1.6177765 0.025081147 0.36166343 1.3777555
0002c0 aa fe d3 3f c3 55 76 3f 25 05 fe 3f 81 38 cf 3f
       1.6562092 0.9622461 1.984532 1.6189119
0002d0 33 d6 d0 3f 9f 94 e7 3f ba 3c 87 3f 70 38 bf bd
       1.6315368 1.809223 1.0565407 -0.093369365
0002e0 3a 99 74 3f d2 f1 94 3f e8 ae a5 3f a9 00 13 3e
       0.95546305 1.1636298 1.2944002 0.1435572
0002f0 86 21 b2 3f 15 26 f3 3f e8 78 f4 3f f0 62 10 3e
       1.391648 1.8995997 1.9099398 0.14100242
000300 47 07 93 3f 53 b4 ea 3f da 70 82 3f 55 80 74 3e
       1.1486596 1.833628 1.019069 0.2387708
000310 3d 39 92 3e 7f 96 b4 3f 52 8b f1 3f 31 4c ca 3e
       0.28559294 1.4108428 1.8870642 0.39511254
000320 ec 4b f4 be 4d db ba be 14 ef b0 be 1f 73 b3 3f
       -0.47714174 -0.36495438 -0.34557402 1.4019507
000330 a4 77 11 40 18 1a 98 be 1f 54 28 3f a8 74 be 3f
       2.2729273 -0.29707408 0.6575336 1.4879351
000340 5b 8c ec 3c d0 b8 3a 3d aa 36 82 3f f7 58 6d 3c
       0.02887552 0.045586407 1.0172932 0.014486543
000350 ae d4 c1 3f 13 e9 34 3f f4 14 db 3d d9 33 46 3f
       1.514303 0.70668143 0.10697356 0.77422863
000360 ed ff e5 3f ff 77 8c 3f 01 a1 83 3e 1e db 1a be
       1.7968727 1.097412 0.25708774 -0.15122649
000370 da 60 b5 3f 08 ef 80 be 7c de 45 3f e0 36 ca 3f
       1.4170182 -0.25182366 0.7729261 1.5797997
000380 b6 53 04 40 ce 0e 7d be 24 4f 52 3e 35 81 1d bd
       2.0676093 -0.24712679 0.20538002 -0.0384533
000390 77 e3 5f 3f aa a6 a2 3f ff d8 94 3e 19 fc c9 3f
       0.8745646 1.2707112 0.29071805 1.5780059
0003a0 41 02 98 3f 8d 08 bb 3f fe 8f fd 3f 8e 6f d7 3e
       1.1875688 1.4611984 1.9809568 0.42077297
0003b0 32 67 cf 3f 24 93 f0 3d 6b ec e6 3f 51 eb f5 3f
       1.6203368 0.11746815 1.8040899 1.9212438
0003c0 ca 86 0e 40 cb 2b 84 3f f4 67 03 40 da 62 4c 3f
       2.2269769 1.0325865 2.0532198 0.79838336
0003d0 66 21 8b 3f b5 76 27 bd ac a0 de 3f 36 f6 6e 3f
       1.0869567 -0.040884692 1.7392783 0.9334444
0003e0 db a1 d8 be 8b 26 e8 bd 81 11 9c 3f 3d cb c5 bb
       -0.42310986 -0.113354765 1.2192842 -0.006036191
0003f0 3d 7f c4 bd 01 a6 91 3f d1 9a d6 3f 0a ea 48 be
       -0.09594581 1.1378785 1.6765996 -0.19620529

model.1.bias f4 [256]
000000 11 dd 47 bf 2b f6 6e bf 93 2d 1b bf e1 a8 ff bf
       -0.78071696 -0.9334437 -0.60616416 -1.9973413
000010 16 34 95 bf 62 a3 07 c0 ce 11 8b bf 70 99 bc bf
       -1.165652 -2.119347 -1.0864809 -1.4734325
000020 f3 9d 8c bf 65 19 c4 bf 3f 44 db be e4 7a b1 bf
       -1.0985702 -1.532025 -0.42825505 -1.3865628
000030 7d 1c 7c bf b0 56 a6 bf d6 28 48 bf 36 63 24 bf
       -0.9848097 -1.2995205 -0.7818731 -0.64213884
000040 be 9f 29 bf b9 72 ce bf 72 46 d7 bf 43 e0 a7 bd
       -0.6625937 -1.612876 -1.6818373 -0.081970714
000050 73 7b 81 bf 24 d5 38 3e cd 7a 05 bf 31 68 9e bf
       -1.0115799 0.18050057 -0.52140504 -1.2375547
000060 9b 64 d0 be 77 e6 a2 bf 87 19 59 bf 67 97 12 bf
       -0.40701756 -1.2726582 -0.84804577 -0.5726227
000070 81 84 05 3b 01 51 88 bf 4c a1 68 be 00 75 cc bf
       0.0020373168 -1.064972 -0.2271778 -1.5973206
000080 e7 24 be bf ee 89 cc bf 26 5b d7 bf e6 af 82 be
       -1.4855012 -1.5979593 -1.6824691 -0.25524825
000090 15 b1 97 bf 3f 7d aa bf c8 d1 1e bf c1 7f 2c bf
       -1.1850916 -1.3319472 -0.6203885 -0.67382437
0000a0 47 cc 0c be 05 d9 bc 3e 5f ef 16 be 7b ca 6f bf
       -0.137498 0.36884323 -0.1473975 -0.93668336
0000b0 d7 3e 9e bf a2 a0 60 bf f9 1a bc be c6 45 3c bf
       -1.2362927 -0.87745106 -0.36739329 -0.73543966
0000c0 15 ca 29 bf 74 b1 3c bf 05 f8 d9 be 50 c3 8c be
       -0.6632398 -0.7370827 -0.42572036 -0.27492762
0000d0 30 c5 82 bf 4d 49 ea 3e 8a fa b8 be a8 b5 43 bf
       -1.0216427 0.4575905 -0.36128646 -0.7644906
0000e0 b5 66 b7 be 10 d5 76 bf a1 24 15 3f d0 ef a7 bf
       -0.35820547 -0.9641886 0.58259016 -1.312006
0000f0 57 31 04 bf 29 fd 9d bf 4e f8 78 be 80 08 ad bf
       -0.51637787 -1.2342883 -0.2431347 -1.3518219
000100 67 b5 15 bf d7 20 e6 be d7 30 97 bf cc 4a 32 3f
       -0.58479923 -0.4494693 -1.181178 0.6964538
000110 02 c0 cb bf 7e 82 94 bf d4 be 8e be 27 8d ca bf
       -1.5917971 -1.1602323 -0.27879965 -1.5824326
000120 19 68 d0 bf 28 b5 64 bf 81 56 e5 be 78 18 4f bf
       -1.6281768 -0.8933892 -0.4479256 -0.8089671
000130 05 44 8a bf 52 0e 33 bf 3e dc 93 bf 2b cf 4e bf
       -1.0802008 -0.69943726 -1.1551588 -0.80784863
000140 f0 d3 28 bf e6 76 a4 bf 1d db ec bf 4a 87 67 bf
       -0.6594839 -1.2848785 -1.8504368 -0.9044081
000150 26 b7 79 bf 40 30 2d bf 3b 1c 65 bf 67 2c a0 bf
       -0.9754509 -0.6765175 -0.894962 -1.251355
000160 58 68 50 bf 9f d7 85 bf 7e 89 64 bf 84 57 91 bf
       -0.81409216 -1.0456427 -0.89272296 -1.1354833
000170 62 d2 12 bf 05 eb a4 bf 08 bf 40 3f 50 4c c9 bf
       -0.5735227 -1.2884222 0.7529149 -1.5726414
000180 0b f3 c3 bf bc 82 9f bf ea 0a 2a be b0 b3 af bf
       -1.5308546 -1.2461772 -0.16605726 -1.3726711
000190 ef bd 55 3c 97 8f c0 bf 8f 1e b5 bf 2b 30 75 bf
       0.013045772 -1.504382 -1.4149951 -0.95776623
0001a0 0b ce d4 bf 95 eb db bf 3f 67 8b bf d5 b5 c5 bf
       -1.6625379 -1.7181269 -1.0890883 -1.5446116
0001b0 e4 80 44 bf a2 c5 d8 bf d1 5a c4 bf e3 6a 16 bf
       -0.7675917 -1.6935313 -1.5340215 -0.58756846
0001c0 11 dc 83 be 0c 11 a7 bf 48 d0 9a bf 5c 7c 9c bf
       -0.25753835 -1.3052077 -1.2094812 -1.2225451
0001d0 f4 f2 ea 3e b4 34 7f bf 70 92 e6 bf a8 43 78 bf
       0.45888484 -0.99689794 -1.8013439 -0.96978235
0001e0 be 54 1b 3f 16 4a 94 bf 81 d7 4f bf 23 83 ea bf
       0.6067618 -1.1585109 -0.8118821 -1.832127
0001f0 83 cb fe bf 21 b1 83 bf ce a7 a1 bf 84 ad 7f bd
       -1.9905857 -1.028843 -1.2629335 -0.062421337
000200 37 a3 93 bf 13 93 e3 be a7 b9 af bf 62 08 89 bc
       -1.1534184 -0.44448146 -1.3728532 -0.01672763
000210 75 c8 8f bf a4 cf 06 bf ba c2 16 bf 05 81 1a bf
       -1.123305 -0.52660584 -0.5889088 -0.6035312
000220 41 23 0d bf e0 b6 f1 3e 19 66 02 bf e4 93 48 bf
       -0.5513192 0.47209835 -0.5093704 -0.78350663
000230 30 b7 2c bf 38 d0 66 bf 4f 18 94 bf 6c 46 34 bf
       -0.6746702 -0.90161467 -1.1569918 -0.70419955
000240 0a 2c 57 be 8a f8 a6 bf 48 ec 15 bf c9 67 a5 3e
       -0.21012893 -1.3044598 -0.5856366 0.32305744
000250 b5 dd 94 be 79 da a6 bf b3 d9 e7 be fb d1 93 bf
       -0.290754 -1.3035423 -0.4528328 -1.1548456
000260 1c c7 d3 bf 69 41 98 bf 66 4f 22 bf 0c 64 16 bf
       -1.6545138 -1.1894962 -0.634024 -0.5874641
000270 ba 66 be be 7d 65 58 bf 2e ec af bf f5 37 05 bf
       -0.3718775 -0.8452986 -1.3743951 -0.5203851
000280 2b b4 bf bf 98 f3 bc bf 76 06 18 bf e8 5c 9a bf
       -1.4976858 -1.4761839 -0.5938486 -1.2059603
000290 6d 10 2d bf b0 9b 40 bf 98 d3 d1 bf 87 1f 84 bf
       -0.6760319 -0.7523756 -1.6392698 -1.0322121
0002a0 5f dc 81 bf fc 34 83 be d5 09 db bf 77 b3 61 bf
       -1.0145377 -0.2562636 -1.7112375 -0.88164467
0002b0 76 2d ea bf 40 1b fe be 26 92 05 bd 99 0a 49 bf
       -1.8295124 -0.49630165 -0.03261008 -0.78531796
0002c0 95 02 f0 3e 77 b6 f1 bf 50 30 a1 bf ae d7 91 bf
       0.4687697 -1.8883809 -1.2592869 -1.1393945
0002d0 6a 82 dc bf 83 bc 7f bf 86 12 cd bf df c1 2c bf
       -1.7227299 -0.9989702 -1.6021278 -0.67483324
0002e0 91 e5 c9 bf 61 7b 72 bf 26 ce 85 bf 6a 95 87 bf
       -1.5773183 -0.9471951 -1.0453537 -1.0592473
0002f0 d7 89 5e be ee cb 49 bf 12 64 b3 bf 34 8a 1e bf
       -0.21732269 -0.78826797 -1.4014914 -0.6192963
000300 6d 8b ba bf 02 9a 98 3d 2e 5e c9 bf 2f 47 77 bf
       -1.4573799 0.0745125 -1.5731866 -0.9659299
000310 61 dc 8e bf c8 c5 8c bd 98 64 dd bf 84 08 a1 bf
       -1.1161004 -0.06873661 -1.7296324 -1.2580724
000320 2d 71 71 bf ae 4f 17 bf 05 9e 55 bf b3 02 5b bf
       -0.9431332 -0.59105957 -0.83444244 -0.85550994
000330 7a c8 80 bf c2 5b 83 bf 70 fd 87 bf 00 17 99 bf
       -1.006118 -1.0262377 -1.0624218 -1.1960144
000340 6f 09 48 be fa 91 7c bf 20 43 a0 bf 24 b3 83 bf
       -0.19534849 -0.9866024 -1.2520485 -1.0289044
000350 c0 d8 b1 bf 6c 66 c2 bf c9 d3 d5 be 17 3a 0a c0
       -1.3894272 -1.5187507 -0.41763142 -2.1597955
000360 be 57 bf be fc c1 03 be 34 88 08 3f 7a 43 40 bf
       -0.3737163 -0.12866968 0.5333283 -0.7510296
000370 58 e3 ec bd 3f 39 21 bf 6d db b9 bf 6c d8 fc bf
       -0.115668 -0.62977976 -1.4520088 -1.9753547
000380 7b 16 de bf b6 dd 53 bf 7a 2d 64 bf f8 8c 1c bf
       -1.735061 -0.8276018 -0.8913189 -0.611526
000390 35 fc 54 bf 40 8c 37 bf 77 8e 90 bf 2f a2 97 bf
       -0.8319734 -0.7169838 -1.1293477 -1.184637
0003a0 dc 60 2c bf 11 73 c8 bf f8 e8 01 bf b1 a8 b0 bf
       -0.67335296 -1.5660115 -0.5074611 -1.380148
0003b0 c8 b3 b8 bf 5e 6f 7b bf 51 7b d1 bf 59 47 55 bf
       -1.4429865 -0.9821681 -1.6365758 -0.8331199
0003c0 be c8 d8 bf ba c7 bd 3e df ff ef bf 60 97 6e bf
       -1.6936262 0.37066442 -1.8749961 -0.9319973
0003d0 21 96 ce bf b9 c9 3f bf fd 53 ce bf 29 36 a4 bf
       -1.6139566 -0.7491718 -1.6119381 -1.2829028
0003e0 ad 8a a0 bf fa fc d1 bf b9 f3 7c bf 33 99 39 be
       -1.254232 -1.6405327 -0.9880939 -0.18124847
0003f0 2b 37 57 bf 7d a9 ae bf 92 f4 5a bf 21 0b 98 3d
       -0.84068555 -1.3645474 -0.85529435 0.07423998

model.1.running_mean f4 [256]
000000 ec c1 a3 be 58 b0 8d be f2 c6 64 bd cd 09 c1 3e
       -0.31983888 -0.27673602 -0.05585379 0.3770279
000010 0e 60 60 3e c1 29 aa 3e 08 af 78 be 64 c9 24 3e
       0.21911642 0.3323498 -0.24285519 0.1609245
000020 b9 f4 b9 3e 24 e5 c7 bd 57 f8 a0 be 70 08 fa 3d
       0.3631952 -0.09760502 -0.31439468 0.122086406
000030 af 7a 40 3e b4 cb a3 be 0b 04 73 be 21 21 07 3d
       0.187968 -0.3199135 -0.23732011 0.03299058
000040 01 de ae bc 72 c4 a9 3e d7 8a 8f 3e b0 b2 73 bc
       -0.021346094 0.33157688 0.28035614 -0.014874145
000050 8a fd f7 3d 49 51 a6 be 06 a6 66 bc fe 55 c5 be
       0.121089056 -0.3248389 -0.014077669 -0.3854217
000060 fd 07 97 3e bc e4 a0 bb 1f 1b ae 3e 62 ad cd bc
       0.29498282 -0.0049100798 0.34005067 -0.02510709
000070 ab a7 b8 3e 15 ef 30 3c e2 ad 67 be fe d9 c7 3e
       0.3606542 0.010799189 -0.22624925 0.39033502
000080 68 41 38 be 38 28 c1 3e 14 20 2c 3e bc 46 15 3e
       -0.179937 0.37725997 0.16809112 0.14577764
000090 63 73 8a 3e 64 a3 a7 3e 9f 91 2c be 11 7f ed 3d
       0.27041158 0.32741845 -0.16852425 0.115965016
0000a0 b3 47 5e be 6f d4 a4 3e 9d ef 9a 3d 6e 39 92 be
       -0.21707039 0.32193324 0.07565234 -0.2855944
0000b0 2a e5 74 be eb 63 7b 3d 78 d7 33 3e 7a e0 81 bd
       -0.23915544 0.061374586 0.17562664 -0.06341644
0000c0 75 27 6f be a8 91 9b be 7c a3 91 3e e9 34 76 be
       -0.23354895 -0.30384564 0.2844504 -0.24043621
0000d0 3e 58 a5 3e 1c 06 ad 3d 97 c6 07 bd 4d f8 94 3e
       0.32293886 0.08448431 -0.033148374 0.29095688
0000e0 8c b4 ff bd fc 77 4e bd 9d 56 e8 3d 8b b6 49 3e
       -0.124856085 -0.050407395 0.11344645 0.19698541
0000f0 73 58 d1 bd d2 46 3f 3e 06 cc cc 3d e6 2e 80 be
       -0.102219485 0.1867936 0.09999852 -0.2503578
000100 15 3e 5a 3e a5 4e 7c 3e 36 13 8d be 7c 5c 6e 3d
       0.21312745 0.24639376 -0.2755372 0.05819367
000110 2b 77 02 3e 8f 78 81 3e ae 53 8f 3e 43 55 cc 3e
       0.12740771 0.2528729 0.2799353 0.399088
000120 d4 78 00 3e f3 45 27 be 99 be b2 3e 42 e7 ea 3d
       0.12546092 -0.16335277 0.3491104 0.1146989
000130 46 d8 af bd 71 91 ae be c2 24 76 3e 48 30 ac 3d
       -0.08586173 -0.34095338 0.2403746 0.084076464
000140 91 c5 60 3e 2a 0f cd be 14 cf e4 3d e9 60 8f be
       0.21950366 -0.40050632 0.111723095 -0.28003624
000150 85 8a 37 bd b8 3b 9e bd 79 d0 7d be 40 a5 ae bd
       -0.044809837 -0.07726234 -0.24786557 -0.08527613
000160 e2 1e b8 3e 3d 60 50 be e8 76 64 be 36 ba ca be
       0.35961062 -0.20349212 -0.22310984 -0.39595193
000170 ce 24 57 3e d6 a7 fd 3b 16 ce ac bd d9 db 4c 3e
       0.21010134 0.007740955 -0.08437745 0.2000574
000180 fe 5a e0 3c a3 45 91 3e 2c 62 73 be 2e 7d 0d bd
       0.027387138 0.2837344 -0.23767918 -0.03454321
000190 5c cc 8c 3e 80 ae aa be 7d 4e 03 3b 78 b1 7e 3e
       0.27499664 -0.33336258 0.0020035796 0.24872386
0001a0 6a 2f 2a be ca d6 db bd 46 9d b7 3d 0e 21 97 bb
       -0.1661965 -0.10734327 0.089655444 -0.0046120947
0001b0 10 82 6b be 55 6f 17 3e 63 11 42 3d c0 20 25 3e
       -0.22998834 0.14788564 0.047379863 0.16125774
0001c0 93 c6 d8 3e f2 14 97 be 8d 1d 2a 3e 88 ae 13 3e
       0.42339 -0.29508168 0.16612835 0.14422047
0001d0 a3 ba 7f 3e 7f f9 be be e5 94 8c 3b 46 f8 c1 3e
       0.2497354 -0.37299725 0.0042902105 0.3788473
0001e0 79 c9 78 be 7b 80 85 bd 50 3f 8e 3c 08 aa 0a 3e
       -0.24295606 -0.06518646 0.017364174 0.13541424
0001f0 ec 61 67 bd f0 35 72 bb e1 2c be 3e 36 7b 8c 3d
       -0.05648987 -0.0036958419 0.37143615 0.06859438
000200 39 d6 8f 3d 50 46 3c 3e 0d 23 5b be 87 b3 a6 be
       0.070232816 0.18386197 -0.2140009 -0.32558843
000210 72 94 b8 bd f9 7b 05 3e ca 89 af be 12 ac cb be
       -0.09012689 0.13035573 -0.34284812 -0.39779717
000220 fc df bf 3e 20 d1 0b bd 99 f7 c0 3e 77 4d 18 be
       0.37475574 -0.034134984 0.37688902 -0.148733
000230 1d ea 43 3e c1 67 4b be 79 8d c9 3e e9 19 a1 3e
       0.19132276 -0.19863798 0.39365748 0.3146508
000240 89 a1 8a 3e d6 55 86 3d c8 d2 06 3e ee 34 b5 3d
       0.27076367 0.06559341 0.13166344 0.08847986
000250 f0 4c 1a be a9 8d b1 be 0e 15 a4 3e c5 f1 fb bd
       -0.15068412 -0.3467839 0.32047313 -0.12301973
000260 e9 34 0f 3e 15 3a 8d be 00 38 86 3e 7c 7c 98 be
       0.13985027 -0.27583376 0.262146 -0.29782474
000270 eb 02 0a 3e c1 b7 a7 bd 69 5a 20 3e b0 05 b8 3d
       0.13477676 -0.08189345 0.15659489 0.0898546
000280 f8 39 57 3e 1f 7b 5e 3e 6e fe ca 3e 3a 82 4e be
       0.21018207 0.21726654 0.3964724 -0.20166865
000290 76 ea bc 3e 2e bd f5 bd 5d 68 9c be ff dd 6e be
       0.3689763 -0.11998974 -0.30548373 -0.23326872
0002a0 10 12 25 3b 65 da b4 bd 79 eb 3a 3e 02 23 56 be
       0.0025187768 -0.08830718 0.18253888 -0.20911792
0002b0 43 26 82 bd da 04 75 be b7 a4 c4 3e 55 b2 9c 3e
       -0.06354954 -0.23927632 0.38406917 0.30604807
0002c0 ec 56 5d 3e d5 28 3d 3e bd ec b6 3e 51 f0 78 bd
       0.2161519 0.18472607 0.35727492 -0.06077606
0002d0 f9 b4 7a 3e 93 71 b9 3e a6 4c 8a 3e 92 2d b7 be
       0.24483098 0.36219463 0.27011603 -0.35776955
0002e0 fa 59 c0 3e bb e7 b6 3e b9 8d 94 3e a8 28 47 be
       0.37568647 0.3572367 0.29014376 -0.19449103
0002f0 02 d4 2d be e1 28 83 3e 01 64 08 be 85 93 3b be
       -0.16975406 0.25617126 -0.13319398 -0.18317993
000300 c8 0c 4a be 41 ab a5 3e b7 50 93 be 89 df 9d 3e
       -0.19731438 0.3235722 -0.28772518 0.30834606
000310 e6 1e 71 3e 94 a4 9d 3c 13 37 e2 3d cb 6d 90 3e
       0.23546943 0.019243516 0.11045661 0.28208765
000320 9c fc 02 be 5d f0 a7 be 23 5a 8a 3e 60 87 b2 be
       -0.12791675 -0.3280057 0.27021894 -0.34868908
000330 36 60 1d bd 1d 30 d4 bd 25 51 8a be c0 ec b4 3e
       -0.038421832 -0.103607394 -0.27015033 0.35336876
000340 e3 c7 d9 3d da 71 2b be 40 07 df bc 16 25 21 be
       0.106338285 -0.1674265 -0.027225137 -0.15736803
000350 f4 ec 8a be 0b 28 6f bd 5c ab bf 3e e8 02 94 be
       -0.27133906 -0.058387797 0.37435424 -0.28908467
000360 97 b6 02 3d 74 5e 1b be 50 17 af be 68 8f cd bc
       0.031912412 -0.1517275 -0.34197474 -0.025092795
000370 95 18 55 3e b1 ab 20 be 00 bc 8c 3a 5c 93 c6 3d
       0.20810159 -0.15690495 0.0010737181 0.09696075
000380 0e 6f 86 be 99 66 da bd 6d 52 3b 3e 85 e3 64 3d
       -0.26256603 -0.106641 0.18293162 0.055881042
000390 1f b1 2e 3e 8c 63 8c be 97 b0 58 be 26 0e b9 bd
       0.17059754 -0.27419698 -0.21161114 -0.09035902
0003a0 2a 36 b7 3d 14 31 36 3e 8b 46 21 3e 51 80 8c be
       0.08945878 0.1779216 0.15749566 -0.27441648
0003b0 c0 2e ab 3e 44 de 79 3e 43 d8 ae be bb d3 86 3e
       0.33434105 0.24401194 -0.3414937 0.26333413
0003c0 7c 4b 99 bb be f9 a2 be a1 2e 68 3d c0 b4 9b 3d
       -0.004678188 -0.31831163 0.056685094 0.07602835
0003d0 5c 06 a6 be 59 b8 b6 3e ac 37 46 3e e2 b4 23 be
       -0.32426727 0.3568752 0.19357175 -0.1598697
0003e0 92 02 f3 bd 16 9d 0a 3e 2c 86 d4 3d cf ca b9 be
       -0.118657246 0.13536486 0.10377154 -0.36287543
0003f0 6a db 5a be 3d 46 ba be 45 54 a8 3e e9 45 a1 be
       -0.21372762 -0.36381713 0.32876793 -0.3149865

model.1.running_var f4 [256]
000000 5a 40 f6 40 c8 8d 72 40 0e 82 8f 41 be 13 12 41
       7.6953554 3.7899036 17.938503 9.12982
000010 af e4 d6 40 d0 4c 0d 41 fa 9a a4 40 18 47 d7 3f
       6.7154155 8.831253 5.143918 1.6818571
000020 82 ba d7 40 92 39 ed 40 a8 2f be 40 54 ae c1 40
       6.741517 7.4132776 5.9433174 6.0525303
000030 53 f4 aa 40 79 6a f5 40 26 98 8e 40 d1 43 0d 41
       5.3423247 7.669247 4.456073 8.829057
000040 cf 8d a9 40 cb 12 95 40 2c 2a 2d 41 89 87 05 41
       5.2985606 4.658544 10.822796 8.34559
000050 c6 db c0 40 7d a4 70 40 50 ad 8c 40 5f bd 10 40
       6.026828 3.7600396 4.3961563 2.2615583
000060 b3 40 1a 41 98 97 8e 40 4b 50 8e 40 e2 b0 e0 3f
       9.640796 4.456005 4.4473014 1.755398
000070 d2 6d 80 40 09 59 16 40 09 1c 85 40 2c 07 63 40
       4.013406 2.3491843 4.1596723 3.5473127
000080 18 ce bc 3f 59 23 9a 40 71 92 8f 40 e7 d9 51 41
       1.4750395 4.816815 4.486626 13.115699
000090 1c c6 6e 40 a9 b0 14 40 1a e3 cf 40 d2 1a f5 40
       3.7308416 2.3232825 6.4964724 7.659524
0000a0 09 2b c1 40 fb 45 66 41 ab 08 45 40 c3 2b fe 40
       6.0365033 14.392085 3.078654 7.942842
0000b0 bb e2 cb 40 2b 5e 13 40 e1 e7 8c 40 f4 1c cd 3f
       6.371427 2.3026226 4.4033055 1.6024461
0000c0 3d 25 d2 40 38 92 96 40 a0 85 1e 40 e3 d6 68 41
       6.5670457 4.705349 2.4769058 14.552463
0000d0 a7 8b 46 41 23 35 28 41 14 c1 7a 40 02 2a aa 41
       12.409095 10.512973 3.9180346 21.270512
0000e0 e5 b1 71 40 12 d2 90 3f 23 d7 53 41 8d 36 99 40
       3.7764828 1.1314108 13.240024 4.787909
0000f0 9b 5e 90 40 12 0b 7e 40 21 c4 ee 40 5d ab fc 40
       4.5115485 3.9694257 7.4614415 7.8959184
000100 52 eb e7 40 88 a0 f3 40 63 46 a0 40 ed bc 13 41
       7.2474756 7.613346 5.008592 9.233624
000110 6b 30 c0 40 94 bb 41 40 4e cf 22 40 6a 1b b1 40
       6.0059104 3.0270739 2.5439029 5.5345964
000120 4c 53 87 40 4b 19 b4 40 3e 2b 1e 41 c0 15 87 40
       4.228918 5.6280875 9.885557 4.221405
000130 b6 f7 a3 40 27 20 a8 40 b8 b5 6b 40 2d 75 0c 40
       5.123988 5.253925 3.6829662 2.1946518
000140 11 d4 52 41 43 2d d5 40 59 b4 82 40 82 ee c2 40
       13.176774 6.661775 4.084515 6.0916147
000150 4b da c4 3f 3e 48 a1 40 40 7d 23 41 e3 55 d2 40
       1.5379118 5.0400686 10.218079 6.572984
000160 a6 47 80 40 da 4a b2 40 0f f9 cd 40 31 28 08 41
       4.008746 5.571637 6.4366527 8.509812
000170 d0 7e 09 41 3b 58 e5 40 2a 0d 51 41 d1 a2 0d 40
       8.59346 7.1670203 13.065714 2.2130625
000180 fd 8e e1 40 87 c4 3d 41 34 e0 10 41 1c 5e 4f 40
       7.0487046 11.86048 9.054737 3.240119
000190 5e 60 c3 40 b2 c4 1c 40 e4 d4 d8 40 68 a5 84 40
       6.1055136 2.4495053 6.7759876 4.145191
0001a0 16 db c1 40 be e7 27 41 e3 d4 e2 40 be 7f 0f 41
       6.057994 10.494078 7.088487 8.968687
0001b0 1b d2 ab 40 b5 2d 17 41 85 99 fd 40 3f 0c 4a 41
       5.3693976 9.448659 7.92499 12.62799
0001c0 68 e8 06 41 c2 7d 95 40 90 ad 73 40 73 7d a7 40
       8.43174 4.6716013 3.8074684 5.2340636
0001d0 a6 1f 87 41 0d 59 00 41 24 77 36 41 17 05 ad 40
       16.890453 8.021741 11.404087 5.4068713
0001e0 ef 18 4d 41 3e fd bd 3f ff be a1 3f 6f e1 44 3f
       12.818587 1.4842908 1.2636412 0.76906484
0001f0 1d a3 2e 41 6b bd 86 40 80 f8 1d 41 bb 05 1e 41
       10.914823 4.2106223 9.873169 9.876399
000200 19 cd c4 3f c3 ba 96 40 ef 23 5a 40 37 c9 e9 3f
       1.5375091 4.710298 3.4084432 1.8264531
000210 27 c9 1b 41 80 b6 f1 3f 62 78 1f 40 8f 23 d5 40
       9.736609 1.888382 2.4917226 6.6605906
000220 e4 db 2b 41 c8 bf e7 3f 0a ac 82 40 eb e3 61 40
       10.741184 1.8105402 4.083501 3.529536
000230 61 f2 09 41 df 50 19 41 77 90 1a 40 c1 2e dd 40
       8.621675 9.582244 2.4150674 6.9119573
000240 69 59 d4 3f 2a 6d 18 40 d8 61 f9 40 4c 3e ce 3f
       1.6589786 2.3816628 7.793194 1.6112761
000250 f6 c0 82 40 8d b6 cb 40 98 c0 9b 40 3a fb 6c 41
       4.086055 6.366034 4.86726 14.811335
000260 c6 16 01 41 01 ea 18 40 84 81 c4 40 28 17 14 41
       8.06806 2.3892825 6.14081 9.255653
000270 fc 53 16 41 e3 33 a3 40 35 de e5 40 41 60 fc 40
       9.395504 5.100084 7.183375 7.8867497
000280 8f 3b 1b 41 ee 72 9e 40 85 1d dc 40 bf e8 77 40
       9.702041 4.9515295 6.8786035 3.8735807
000290 00 ea 1a 41 b8 4c 14 41 9b f6 df 40 73 f1 29 41
       9.682129 9.26873 6.998853 10.621448
0002a0 e6 9f 45 41 0c b7 04 41 63 e0 1c 40 45 9e 93 40
       12.351538 8.294689 2.4511955 4.61307
0002b0 91 23 ce 40 db 57 24 40 ea cc 25 40 82 77 1a 41
       6.4418416 2.5678623 2.590632 9.654177
0002c0 d8 90 6d 41 b0 4b 1e 41 92 83 0c 41 6c 6b c6 40
       14.847862 9.893478 8.782122 6.200613
0002d0 74 19 09 41 4b d4 2a 41 05 9d 81 40 d1 c8 de 40
       8.568714 10.676829 4.0504174 6.9620137
0002e0 74 1e 0a 41 3e bf 3c 41 41 f9 21 40 7c 59 6d 40
       8.632435 11.79669 2.5308383 3.7085867
0002f0 72 13 a9 40 cc 27 bd 40 3d e4 dc 40 5a cd 69 40
       5.2836237 5.911108 6.902861 3.6531587
000300 4e c1 43 40 2d 1e 24 41 65 2d 3c 40 05 f8 4c 40
       3.0586734 10.257367 2.9402707 3.202638
000310 8b b0 67 40 52 d9 10 41 f5 3a d0 40 fd 34 95 40
       3.6201503 9.053057 6.507197 4.6627183
000320 20 2a a0 40 0a f6 ad 40 0e ea 13 40 6b 33 47 41
       5.005142 5.436284 2.3111606 12.450053
000330 48 5c 3a 41 ce 2b 10 40 7e b3 87 40 67 9c e2 40
       11.64753 2.2526736 4.2406607 7.081592
000340 63 30 2a 3f 42 fb 8d 40 e1 9d 33 40 75 f5 eb 3f
       0.6648008 4.436921 2.8065112 1.8434283
000350 3b 83 b6 40 bf b1 86 40 d3 18 cf 3f 30 4f b9 40
       5.7035193 4.2091975 1.6179451 5.7909164
000360 12 5b d6 40 dd ed 48 41 45 f1 b0 40 e2 ed 84 40
       6.698617 12.558072 5.529452 4.1540384
000370 f1 bd f3 40 0c 7a 9f 40 2f c2 ed 40 d1 fc 0b 41
       7.616936 4.9836483 7.429954 8.749223
000380 5d 62 24 41 e8 73 ac 40 0d c3 10 40 62 ed 8b 40
       10.274014 5.3891487 2.261905 4.3727274
000390 b9 7f 8a 40 eb 5a 83 40 58 31 7b 40 78 9d 1b 41
       4.328091 4.1048484 3.9248867 9.7259445
0003a0 69 20 98 40 c5 94 cb 40 30 8a 1c 41 00 e7 8a 40
       4.7539563 6.3619103 9.783737 4.3406982
0003b0 e2 68 f1 40 76 63 53 41 d3 e1 c2 40 14 0b d5 40
       7.544053 13.211782 6.0900664 6.6576023
0003c0 99 19 30 41 f2 86 10 40 df df 41 41 74 08 3f 40
       11.006249 2.2582364 12.117156 2.984891
0003d0 10 22 9f 40 48 63 22 40 7b 26 e9 40 f0 af 35 40
       4.972908 2.5373096 7.2859473 2.8388634
0003e0 89 55 f7 40 93 ba 5e 40 de 12 f5 40 1c 7f d9 3f
       7.7291913 3.4801376 7.658553 1.6991916
0003f0 db 71 f9 40 1c c0 a6 40 fe 57 13 41 4b 62 96 40
       7.7951484 5.210951 9.208982 4.6994987

model.4.weight f4 [64, 256]
000000 20 b2 f8 be 59 fe 16 3f 7c 69 95 3c f7 f8 d8 3f
       -0.485734 0.58981854 0.018238775 1.6950978
000010 31 42 1d bf b2 ac 9a 3f 67 cf 66 bf 1e fd 2e 3e
       -0.61429125 1.2083952 -0.9016022 0.17088744
000020 ba 69 c8 bd 65 68 53 3f 13 f2 35 bd 17 33 d7 3f
       -0.09785791 0.8258117 -0.044420313 1.6812466
000030 9b 09 30 3f f3 14 1e 3e 8c cc 7d 3e e4 57 79 3f
       0.68764657 0.15437679 0.2478506 0.97399735
000040 b1 4c 21 bf 15 8d 3b c0 01 e8 d4 3f 50 96 8c bf
       -0.63007647 -2.930486 1.6633302 -1.0983372
000050 e5 3e 36 3e 72 10 0d bf 78 84 9c 3f b0 24 1b bf
       0.1779743 -0.5510322 1.2227926 -0.60602856
000060 41 5e 9a bf 39 fb 6a 3f 28 87 87 3e 6e 43 11 3e
       -1.2060014 0.91789585 0.26470304 0.14185879
000070 25 ac 19 be cf b8 8b 3d ee 86 d0 be 4f f7 98 3f
       -0.15007074 0.06822359 -0.40727943 1.1950473
000080 b9 d1 de bd 1f 0c c4 bf 1d f2 b0 3f 6d bc 95 bf
       -0.10879845 -1.5316199 1.3823887 -1.1698128
000090 90 e8 4e 3f 9b 81 83 be 3b 9a 02 be 8a 1c 75 3f
       0.8082361 -0.2568482 -0.12754147 0.9574667
0000a0 84 db 43 bf 8b 87 53 bf d9 ba 45 bf c0 73 d6 3e
       -0.7650683 -0.826287 -0.7723823 0.41885185
0000b0 e8 03 16 3f d8 85 9d 3e 4f 7e b6 3e 85 b7 55 bd
       0.5859971 0.30766177 0.3564324 -0.05217697
0000c0 7c 4c 27 3c bd ff de bf f4 a5 86 3f 35 79 94 bc
       0.010211106 -1.7421795 1.0519395 -0.018124202
0000d0 14 87 43 3f 92 b1 c8 bf 73 a6 74 be df 73 dc be
       0.7637799 -1.567919 -0.2389162 -0.43057153
0000e0 43 73 7d bf 24 0c 12 3d 50 5d b5 bf c5 33 59 3f
       -0.99004 0.03565611 -1.4169102 0.8484462
0000f0 18 a8 d5 bf b3 4f 18 bf e8 97 0d c0 54 7d 49 3f
       -1.6691923 -0.5949661 -2.2123966 0.7870686
000100 92 16 9a 3f 47 c7 5e 3e d7 09 fe 3f 6d 5a ff bf
       1.2038138 0.21755706 1.9846753 -1.9949471
000110 b9 f2 36 3f 8e d1 f0 3e ea 77 10 3e b3 63 37 bf
       0.71464115 0.47034878 0.14108244 -0.71636504
000120 aa fb 2f 3f 47 22 e2 3f 96 40 87 bc 26 c1 9a be
       0.68743384 1.7666711 -0.01651029 -0.30225486
000130 1a bd bf 3e b6 2e 7a 3f f5 d6 18 3f 46 aa 66 3e
       0.3744896 0.97727525 0.59703 0.22525892
000140 7e ff b4 3c cd 10 de be 02 d7 82 3e 6c 49 d3 be
       0.022094484 -0.43372193 0.25554663 -0.41266954
000150 94 e0 f8 be ab 73 1a 3d 54 69 92 3e e8 b6 4d 3f
       -0.4860884 0.037707966 0.28595984 0.8035722
000160 b0 a1 82 bf e0 17 89 3f 90 66 87 3f bf f2 44 3f
       -1.0205593 1.0710411 1.0578175 0.769329
000170 30 6c 39 be 3f b8 1e be 0a 28 b7 bf cc 23 42 3f
       -0.18107677 -0.15499972 -1.4309094 0.7583587
000180 cc 01 6a 3f ae 6d 13 3f e5 ab 1a bf 28 19 83 bf
       0.9140899 0.5758923 -0.6041854 -1.0242052
000190 10 3a f1 be b5 2f 73 bf 69 c4 a8 3f a9 66 b2 3f
       -0.4711461 -0.9499467 1.318494 1.3937579
0001a0 4a 8a 2a be 17 69 ec 3e 33 d1 84 3d 50 88 9e 3f
       -0.16654316 0.46173927 0.06485214 1.2385349
0001b0 d3 84 30 be af 9a 9f 3f 6e 36 d9 bf ad a5 f2 3e
       -0.17238168 1.2469081 -1.6969736 0.47392026
0001c0 f7 39 25 c0 07 2d a9 be ca 2d c9 bd 12 86 d9 3e
       -2.581663 -0.33042166 -0.09823187 0.424851
0001d0 28 b7 e4 bf ee c8 69 3f 1c 3b 25 3f f4 b5 73 3f
       -1.7868395 0.9132222 0.6454332 0.95199513
0001e0 cf b0 d5 bf f1 7c 19 be 79 3c f6 bd b8 5d 87 3e
       -1.6694583 -0.14989068 -0.12023253 0.2643869
0001f0 69 14 9a 3f b7 e3 9f 3f 46 b9 9c 3f e9 cd 7c bf
       1.2037479 1.2491368 1.2244041 -0.98751694
000200 89 79 8b bd 12 d8 30 3f ee 30 af be 5a 2f fb be
       -0.0681029 0.690797 -0.34217018 -0.49059564
000210 cb f3 8d 3f 2e 6f 00 3e 59 f4 7e 3d 86 ed a3 bd
       1.1090025 0.12542412 0.062244747 -0.080042884
000220 2b 79 32 3f 07 5b 7b bf 5e 1a 04 3e 5e 83 48 bf
       0.6971614 -0.9818577 0.12900683 -0.7832545
000230 1b 1a e3 3f f0 c5 49 3f 21 3f 91 3d 78 03 aa bf
       1.7742342 0.78817654 0.07092119 -1.3282309
000240 2a 28 b2 be 85 b9 9c bf a5 ac 41 3f 51 90 41 3e
       -0.34796268 -1.2244116 0.7565406 0.18902709
000250 e1 15 69 be 91 73 3d 3e 18 79 ad bc 18 69 8f bd
       -0.22762252 0.18501116 -0.021175906 -0.07002467
000260 b0 c9 50 3e ad b7 53 3e 08 b3 36 bf 37 1d 93 3f
       0.20389438 0.20675536 -0.7136693 1.1493291
000270 f9 80 db be 46 39 25 3f 99 11 82 be 07 98 23 bf
       -0.42871836 0.6454052 -0.2540405 -0.6390385
000280 f0 43 17 3f 64 8a e4 be dc b2 89 3f d8 c7 87 3f
       0.5908804 -0.44636834 1.0757709 1.0607862
000290 0c 21 17 bf c4 2c 04 3f 68 6d 9d 3f cc 8b 3b 3f
       -0.590348 0.51630807 1.2299013 0.7326019
0002a0 ba b4 02 be 07 4d ed bf cd e0 71 bf f8 00 9a bd
       -0.12764254 -1.8539132 -0.94483644 -0.07519716
0002b0 59 46 f7 3f 77 68 52 bd 30 30 f4 be 8b 01 30 bf
       1.9318343 -0.051369157 -0.47693014 -0.68752354
0002c0 ef d0 0f c0 f3 21 3a bd 95 a2 0d 3e 7d 73 5c bf
       -2.2471273 -0.045442533 0.13831551 -0.8611372
0002d0 92 03 97 3f ff a1 da 3c 17 c7 56 3e 69 8e ea 3d
       1.1797965 0.026688574 0.20974384 0.11452944
0002e0 74 c4 48 be d3 b4 8b 3e e2 a2 49 be e0 8c fd be
       -0.19606191 0.27286395 -0.19691041 -0.49521542
0002f0 a9 3c 0c c0 36 62 9c bf e0 81 ad 3e 3f 0a bb be
       -2.1912024 -1.2217472 0.3388815 -0.36531255
000300 6a d9 43 3f 6a 83 47 bf 20 ce b6 bf 1a fa 5f bf
       0.7650362 -0.77934897 -1.4281654 -0.87491
000310 7a db 75 bd c8 64 0a c0 3a bc 98 3e de a4 07 3f
       -0.060023762 -2.1624012 0.29831105 0.5298594
000320 df d2 d7 3e f6 59 57 bd ef b4 2c 3d 78 e3 cf 3e
       0.4215307 -0.052576028 0.04216474 0.40603232
000330 11 26 27 3f c6 db ff bd 39 5a c6 3e b2 77 80 3f
       0.6529246 -0.1249309 0.3874071 1.0036528
000340 21 df c9 be f4 22 36 3d e7 dc ec bf 98 8f e0 3d
       -0.39428046 0.044466928 -1.8504914 0.10964888
000350 48 0b 33 3f c8 cc 7f bf 6a fe b4 3d 58 40 f3 be
       0.6993909 -0.99921846 0.08837588 -0.47510028
000360 35 3f f9 3e 0b 54 63 bf 7a 65 23 be 34 27 bf bc
       0.48681036 -0.88800114 -0.15956679 -0.023334123
000370 ed 7b bc bf 8b 85 e6 3d c3 55 70 be c5 38 86 bf
       -1.4725319 0.1125594 -0.23470215 -1.0486075
000380 19 d6 2d bd d2 73 4e be 81 8f e1 3e ea c8 82 3f
       -0.042440508 -0.2016137 0.44054797 1.0217564
000390 b4 ac a3 be da 4c d5 bf a5 6e ce 3b d1 e8 83 be
       -0.319677 -1.6664078 0.006299811 -0.25763562
0003a0 18 fb 31 3f c4 bd ee 3f a2 dd 0f 3f 6c f0 62 bd
       0.69523764 1.8651662 0.5619756 -0.055405065
0003b0 eb 4f 27 bc 22 b9 57 3f 51 15 6a bf 4a 76 1a bf
       -0.010211925 0.84266865 -0.91438776 -0.60336745
0003c0 5c b7 c1 3f c4 da 66 bf 6a 1a 35 3f f7 3c 29 be
       1.5134082 -0.9017756 0.7074343 -0.16527162
0003d0 4d c9 58 bf d5 9a ba be 43 2e e0 3f da 90 23 bf
       -0.8468216 -0.36446252 1.7514118 -0.638929
0003e0 d4 c5 37 3f c7 a8 25 3f f9 77 33 3f a4 ab bc 3e
       0.71786237 0.6471066 0.7010494 0.368497
0003f0 70 00 07 be ae b2 a1 be 68 1f 52 3f 93 db 8a 3e
       -0.1318376 -0.31581634 0.8207917 0.27120647

model.4.bias f4 [64]
000000 1e cd 2c 3d e5 ec d3 3c c9 88 07 bd 55 de b8 bc
       0.042187802 0.025869796 -0.033089433 -0.022566954
000010 56 34 cb bc 5f bf 44 bd 6a bb ce bc 4d 09 59 bd
       -0.02480523 -0.04803407 -0.02523585 -0.052987386
000020 ce 10 1b bd 21 a1 22 bd a8 a0 dc bc 84 64 96 3c
       -0.037857823 -0.039704446 -0.026932076 0.018358476
000030 e2 af 82 3d 9e a9 46 bd 47 a2 c9 bc db 44 88 39
       0.06381203 -0.048501603 -0.024613513 0.00025991243
000040 9f 69 60 bd dc 14 7f bd af 86 27 bb 42 be 01 3d
       -0.054788228 -0.062275752 -0.0025562455 0.031675585
000050 ec 47 42 bd 31 9f 95 3b 9a ea 08 3c 87 1c 1d bd
       -0.04743187 0.0045660962 0.008356715 -0.038357284
000060 8f 1c 51 bd c0 7e cb bc 24 4e 2f bd 4a 65 23 3d
       -0.051052626 -0.024840713 -0.04279913 0.03989152
000070 1b 74 a7 bc b8 5f 50 3d 0c 3c c4 bc 21 f0 6d bc
       -0.020441106 0.050872535 -0.023954414 -0.014522583
000080 50 05 ac bc d6 cb 28 3c c2 70 1e bd 69 4d df 3c
       -0.020998627 0.0103025045 -0.038681753 0.027258592
000090 b3 ac 89 3c 46 1d 75 bd 07 17 49 3c 7f c1 4a 3c
       0.016805982 -0.05984237 0.012273557 0.012375235
0000a0 84 9d 90 bc 51 5c 1c bd 3b aa 68 3b 0a de 34 bd
       -0.017653234 -0.038173977 0.0035501856 -0.044157065
0000b0 ed ea 04 3d b1 92 71 3d 81 af 9d 3c c7 c2 40 bd
       0.032450605 0.058977786 0.019248726 -0.047060754
0000c0 b9 03 66 bd de 80 23 3d ff 08 a2 3c 58 0b 53 bb
       -0.056155894 0.03991782 0.01977968 -0.0032202806
0000d0 11 8a d9 bc 4f 86 42 bd cf c2 47 bc a9 c3 82 bd
       -0.026555093 -0.047491368 -0.012192442 -0.063849755
0000e0 56 3e dd bc 59 22 1b bd 87 86 08 bd 62 19 2a 3d
       -0.027007263 -0.037874553 -0.03333142 0.041528113
0000f0 8e ff e2 3b 0b 25 8e bc 73 eb a8 3b b5 23 08 3d
       0.006927437 -0.017351648 0.005155021 0.033237178
