saved_models/wad_param_model.pth (torch, 4580 bytes, 7 tensors)

hidden.weight f4 [21, 7]
0	0x3e628f56	0.22124991
1	0xbd4b96a2	-0.0497042
2	0x3d257315	0.040392954
3	0x3e381ecc	0.17980498
4	0x3e70577e	0.23470876
5	0xc02d1103	-2.7041633
6	0xc06be7c1	-3.6860201
7	0x3eb65d90	0.35618258
8	0xbf9f0e8d	-1.2426316
9	0x3d6a9986	0.057275318
10	0xbfc095ff	-1.5045775
11	0xbfe699c8	-1.801568
12	0x3e9fc09c	0.31201637
13	0x3edd3cdf	0.43210503
14	0xbf196774	-0.5992348
15	0xc0026ed1	-2.0380137
16	0xbe901bec	-0.28146303
17	0xbe01f5bf	-0.12691401
18	0xc012ead1	-2.295582
19	0x3cb2dd7c	0.021834128
20	0x3e7e6960	0.24844885
21	0x3e0f864d	0.14016075
22	0xbff08612	-1.8790915
23	0x3f610546	0.8789867
24	0xbf5de104	-0.8667147
25	0xbf84000e	-1.0312517
26	0x3f3cc8ca	0.7374388
27	0x3c96baf2	0.01839969
28	0x3cd090ed	0.025459731
29	0x3e2693ec	0.16267365
30	0xbc75e7ea	-0.015008906
31	0xbde1c5c0	-0.11024046
32	0x3e7a508f	0.24444793
33	0x40b96f00	5.7948
34	0x3f891d74	1.0712113
35	0xbe9b2c88	-0.30307412
36	0xc00839b5	-2.1285222
37	0xbeb9bb3c	-0.3627566
38	0xbf411ad7	-0.7543158
39	0xbfa63d60	-1.298748
40	0x3ed5bd6b	0.41746077
41	0x3e0faadf	0.14030026
42	0xbd570f3c	-0.052504763
43	0xbff9730e	-1.9488237
44	0x3d98f3a8	0.07468349
45	0xbee9c76d	-0.45659962
46	0xbfc5d6b0	-1.5456142
47	0x3e89e3f4	0.26931727
48	0x3f02ceed	0.51096994
49	0xbebe6b05	-0.37191024
50	0xbf33778f	-0.70104307
51	0xbf07129e	-0.5276278
52	0xbfef52c7	-1.8697137
53	0xbff16714	-1.8859582
54	0xbe32053f	-0.17384814
55	0x3df4de32	0.11956443
56	0xbcbe5209	-0.023232477
57	0x3e3d738a	0.18501106
58	0x3e10ea0c	0.14151782
59	0xb843fae0	-4.672527e-05
60	0x3e823eb8	0.25438476
61	0x40a11fc7	5.035129
62	0x3f9bb86b	1.2165655
63	0xc055ac9f	-3.338661
64	0x3f22355a	0.6336266
65	0x3ed1adad	0.40952817
66	0xbe204ba8	-0.1565386
67	0x3eefbc3a	0.46823293
68	0x3d6e117b	0.05812214
69	0x3e06d23b	0.13166134
70	0x3ea87bb1	0.3290687
71	0x3e0300be	0.12793252
72	0xbe8ea566	-0.27860564
73	0xbe96f9f6	-0.2948758
74	0xbf258d31	-0.64668566
75	0xbdbca804	-0.09211734
76	0x3dd5a380	0.10431576
77	0xbf8e7b54	-1.1131387
78	0xbe26171a	-0.1621975
79	0xbe4e7101	-0.20160295
80	0xbf1dd933	-0.61659545
81	0x3e656b70	0.22404265
82	0x3f48bd2c	0.78413653
83	0x40a943ba	5.2895174
84	0xbe940d25	-0.28916278
85	0x3dd754cd	0.10514221
86	0x3cebe82e	0.028797235
87	0xbe5adba8	-0.21372855
88	0x3e5eb148	0.21747315
89	0xc093e83a	-4.622098
90	0xbfcdb430	-1.6070614
91	0x3eac2718	0.33623576
92	0xbf9603a6	-1.1719863
93	0xbed0ee31	-0.40806726
94	0xbfbc7b67	-1.472516
95	0xbfbdad3a	-1.481849
96	0x3dc2b2b4	0.09506741
97	0x3eebafe8	0.46032643
98	0x3d18ae23	0.037275445
99	0x3ebacb85	0.36483398
100	0x3d3965c0	0.045263052
101	0x3d912cde	0.07088636
102	0x3e1896bf	0.14901255
103	0xc0ceec6d	-6.4663606
104	0xbf3a237e	-0.72710407
105	0xc02cc6c4	-2.6996317
106	0x3e60c033	0.21948318
107	0x3e0bb052	0.1364148
108	0x3f75ec92	0.960641
109	0x3f443f2b	0.76658887
110	0xbea0deb5	-0.31419912
111	0xbf9524ff	-1.1651915
112	0xbe529972	-0.20566347
113	0x3e550a2f	0.20804666
114	0x3ca22d6d	0.019797051
115	0xbe245df0	-0.1605146
116	0x3e74535c	0.23859924
117	0xc098ad20	-4.7711334
118	0xbfb9c4dd	-1.4513203
119	0xbd1e6a99	-0.03867588
120	0xc007a744	-2.119584
121	0xbf0f7d85	-0.560509
122	0xbf0e196e	-0.5550755
123	0xbfb80183	-1.4375461
124	0x3efd6de4	0.49497902
125	0x3e87e2f3	0.26540336
126	0x3dfdd9c4	0.12395051
127	0xbf4015de	-0.75033367
128	0xbf046e72	-0.51731026
129	0xbfca8786	-1.5822608
130	0xbfcec2e8	-1.6153231
131	0x3d595b01	0.053065304
132	0x3dc49bd6	0.09600036
133	0xbd7445d8	-0.05963692
134	0xc012875b	-2.2895114
135	0xbef00a7e	-0.46883005
136	0xbee1ffbb	-0.4414042
137	0xbfa2396c	-1.2673774
138	0x3efd9b49	0.49532536
139	0x3edd1806	0.4318239
140	0x3d97653c	0.07392356
141	0x3d90f5b4	0.07078114
142	0x3dd4a583	0.10383131
143	0x3d6c384c	0.057670876
144	0x3eb295fc	0.34880054
145	0x40a99480	5.2993774
146	0x3fc85149	1.5649806

hidden.bias f4 [21]
0	0xbd43f631	-0.04784221
1	0xbcb46229	-0.022019463
2	0x3b97ec9e	0.0046363613
3	0x3bd08ed1	0.0063646813
4	0xbdbc0611	-0.091808446
5	0x3cf7799a	0.030209351
6	0x3ba1c11c	0.0049363505
7	0xba778551	-0.0009442168
8	0x3df92229	0.12164719
9	0x3dbde271	0.09271706
10	0xbc63ffe8	-0.013915993
11	0xbd4d275e	-0.05008637
12	0x3d80f4b5	0.06296674
13	0x3ce3aab3	0.027791357
14	0x3bd84333	0.0065998076
15	0x3da47bd3	0.0803143
16	0xbd850c12	-0.06496443
17	0xbce63588	-0.028101698
18	0xba4e5f12	-0.0007872443
19	0xbd2391f0	-0.0399341
20	0xbd3cfdd2	-0.0461405

batchnorm.weight f4 [21]
0	0x3f819e44	1.0126424
1	0x3e8b3d6c	0.271953
2	0x3f07ba16	0.5301832
3	0x3ecd6f21	0.40123847
4	0x3f8707f5	1.0549303
5	0x3eca9543	0.39567003
6	0x3eb66e70	0.35631132
7	0x3e8df42b	0.27725348
8	0x3f83c380	1.0294037
9	0x3f55f20e	0.8357247
10	0x3d2bdab0	0.041956604
11	0x3f8b94f3	1.0904831
12	0x3f6dec4f	0.92938703
13	0x3e834348	0.2563727
14	0x3f8374c7	1.0270013
15	0x3f449118	0.76783895
16	0x3f57eac0	0.84342575
17	0x3ea0fd63	0.3144332
18	0x3e94b356	0.29043072
19	0x3ebd067b	0.36919007
20	0x3f77db90	0.968194

batchnorm.bias f4 [21]
0	0xbf317436	-0.6931795
1	0x3e9b292c	0.3030485
2	0x3cdbc350	0.02682653
3	0x3e08c715	0.13357194
4	0xbf26d055	-0.6516164
5	0x3e7c4945	0.24637325
6	0x3e8a63f6	0.2702939
7	0x3e9b29cb	0.30305323
8	0xbf091940	-0.53554153
9	0xbf3c893a	-0.7364689
10	0xbec3bac1	-0.3822842
11	0xbf60a352	-0.8774921
12	0xbee23bd4	-0.4418627
13	0x3ea66395	0.3249785
14	0xbf1fe47c	-0.62458014
15	0xbf13d51b	-0.5774705
16	0xbee1e8da	-0.44122964
17	0x3e63e06c	0.22253579
18	0x3ec118d9	0.3771427
19	0x3e5840db	0.2111849
20	0xbf098e09	-0.53732353

batchnorm.running_mean f4 [21]
0	0xbe0ea554	-0.13930255
1	0x3ca5f8c0	0.020260215
2	0xbcd8628a	-0.026414175
3	0x3d334c9c	0.043774232
4	0x3dbae158	0.09125012
5	0x3d13b1e2	0.036058314
6	0x3bf88790	0.0075845197
7	0x3ca18f50	0.019721657
8	0x3e8ee2c0	0.27907372
9	0x3d203cce	0.039120488
10	0xbbb986e4	-0.005661832
11	0xbca11b00	-0.019666195
12	0xbda36056	-0.07977359
13	0x3d7aaf0a	0.061202087
14	0xbe411fb0	-0.18859744
15	0xbbe42940	-0.006962925
16	0xbe5804fa	-0.21095648
17	0xbcaa0fbc	-0.020759456
18	0x3cf8dc28	0.030378416
19	0xbd10b4b5	-0.035328586
20	0x3df6ad32	0.12044753

batchnorm.running_var f4 [21]
0	0x40e130e8	7.03722
1	0x416d4de0	14.831512
2	0x41397679	11.591424
3	0x40f7c79f	7.743118
4	0x413bfc9a	11.74917
5	0x412facc2	10.979677
6	0x411964ab	9.587077
7	0x413bb29c	11.731106
8	0x41139d2e	9.225874
9	0x41753f63	15.327975
10	0x3fa4bc75	1.2870013
11	0x41221908	10.131111
12	0x4103330b	8.199962
13	0x4157597d	13.459348
14	0x4166c118	14.422142
15	0x41964f60	18.788757
16	0x4108cb60	8.549652
17	0x414d4002	12.828127
18	0x413b3a85	11.701787
19	0x4144912a	12.28544
20	0x4125ddb8	10.366631

output.weight f4 [1, 21]
0	0x3ebae330	0.36501455
1	0xbe53fac1	-0.20701124
2	0xbe758710	-0.23977304
3	0xbe4bc0fc	-0.19897836
4	0x3eb8a22a	0.3606122
5	0xbe80c9f0	-0.25154066
6	0xbe692b99	-0.22770537
7	0xbe449a1e	-0.19199416
8	0x3eb52a22	0.35383707
9	0x3eacdd89	0.33762768
10	0xbb71a5a1	-0.0036872404
11	0x3ed122e6	0.40846938
12	0x3ebb3ac8	0.36568284
13	0xbe400194	-0.18750602
14	0x3eab8a8a	0.33504134
15	0x3ea994c8	0.33121324
16	0x3e8f199f	0.27949235
17	0xbe4705d5	-0.19435818
18	0xbe7c1a5c	-0.2461943
19	0xbe5a3f14	-0.21313125
20	0x3eb3d31f	0.3512201
