saved_models/wad_neural_network2.pth (torch, 4312 bytes, 7 tensors)

hidden.weight f4 [15, 5]
000000 f6 e9 f0 bc fb 64 16 bf cd f9 06 bf 46 06 a8 be
       -0.029408436 -0.58747834 -0.52724916 -0.32817286
000010 71 71 b1 3e 4a 0c e0 3d 60 cf 6d 3d d7 e4 10 bf
       0.3465686 0.10939844 0.058059096 -0.5659918
000020 4b 7f 5f be df 19 d5 be 19 d1 d0 3e 07 21 12 bf
       -0.21825902 -0.416213 0.4078453 -0.57081646
000030 b8 3d 02 3d db 63 c6 3e 35 7e b9 be 44 56 3d 3e
       0.03179714 0.3874806 -0.362291 0.18489939
000040 68 74 21 bf 26 03 41 3e 86 6c 03 3e 64 94 ad be
       -0.63068247 0.18848857 0.12834367 -0.33902276
000050 14 4a d8 be 44 1e d8 3b dd 78 98 be 22 fd a0 bc
       -0.42244017 0.006595405 -0.2977971 -0.019651953
000060 b3 48 62 3e f6 8f df bd 68 18 00 3e 15 34 c2 3e
       0.22098045 -0.1091613 0.1250931 0.3793036
000070 51 b8 e4 3e cb 6c 4a 3e 8e a1 1a 3e 38 07 8a 3e
       0.44671872 0.19768064 0.1510069 0.26958632
000080 10 fa 94 3d 31 aa 68 be a1 ca e0 3e ab 12 98 3e
       0.07274258 -0.22721173 0.43904594 0.29701743
000090 9a f5 3b be 3c e7 47 be 3b c3 ac be 9e 54 64 3e
       -0.18355408 -0.19521803 -0.337427 0.22297904
0000a0 c2 7b 94 be c1 12 21 bf b3 11 7a 3e e3 9c 92 3e
       -0.2900067 -0.6291924 0.24420814 0.2863532
0000b0 05 b9 3c bf 01 96 cf be d3 17 88 be 04 89 2a be
       -0.7371982 -0.4054413 -0.26580676 -0.1665383
0000c0 95 f2 09 bd 5b ee b0 be 3a ed 10 3e fc fc 19 3e
       -0.03367861 -0.3455685 0.14152995 0.15037912
0000d0 c7 2b 2a be 69 e9 80 bd fd ba 79 be 52 3d 8e 3c
       -0.16618262 -0.062945195 -0.24387737 0.017363224
0000e0 14 d9 b0 3d 78 1f 5f be 20 7d 63 3e b9 59 26 3f
       0.08635154 -0.21789348 0.222157 0.64980656
0000f0 66 32 af 3c e1 5c cf 3d e3 70 31 3d 67 74 15 be
       0.021386337 0.10125137 0.043320548 -0.14595185
000100 53 29 1f bf 48 cc cf bd db f5 a3 3d ec b4 93 3d
       -0.6217243 -0.101463854 0.080058776 0.072122425
000110 f0 fa f9 3c 6d 9a 9b 3e 78 73 d0 bd 97 96 40 3e
       0.030515164 0.30391255 -0.10178274 0.18807445
000120 d8 e0 29 3e fe 86 0b bf 46 c3 c5 be
       0.16589677 -0.54502857 -0.38625544

hidden.bias f4 [15]
000000 ce be 4c 3a 3e b3 88 3a 2c 4d f9 b9 17 54 2b bb
       0.00078104145 0.0010429395 -0.00047550478 -0.002614265
000010 5f 56 85 bb 5f 44 37 ba 94 30 5a bb c5 05 0f 3c
       -0.004069134 -0.0006991084 -0.0033293115 0.008729403
000020 f9 25 20 bb 1f aa 9c 39 09 5b e1 39 37 24 3c 39
       -0.0024436696 0.0002988139 0.0004298317 0.00017942568
000030 d8 de 88 bb 7e b6 b1 bc 62 0f b8 ba
       -0.0041769557 -0.021693464 -0.001404267

batchnorm.weight f4 [15]
000000 33 8e 61 3f 40 cb 35 3f f2 b1 44 3f 08 c3 51 3f
       0.88107604 0.7101326 0.76834023 0.8193822
000010 e4 bb 5c 3f 85 b5 67 3f 75 d0 75 3f 56 f0 4b 3f
       0.862242 0.9051135 0.96021205 0.796636
000020 5b bb 55 3f d1 e2 5d 3f d2 e3 50 3f 50 69 4f 3f
       0.83489007 0.8667422 0.81597626 0.8102007
000030 a8 43 47 3f 10 b6 4e 3f ca d4 4f 3f
       0.7783761 0.80746555 0.81184065

batchnorm.bias f4 [15]
000000 01 05 c1 bd f1 da bb bd 19 bf 1e 3d f7 6e cc 3d
       -0.094247825 -0.09172619 0.038756464 0.09982102
000010 50 45 d1 bd ed 80 5f be d7 2d d3 bd 5e d6 4f be
       -0.102182984 -0.21826525 -0.10311478 -0.20296618
000020 54 d3 3a 3b 0a b7 b7 3e b4 e2 cf be 32 e3 88 be
       0.002850731 0.35881835 -0.40602648 -0.26735836
000030 a7 61 12 be 18 ca 74 be c3 dc 15 be
       -0.14295064 -0.23905218 -0.14634995

batchnorm.running_mean f4 [15]
000000 02 d5 49 3a 92 a2 8c 3a 44 38 14 ba a3 79 20 bb
       0.0007699282 0.0010729602 -0.0005654136 -0.0024486564
000010 48 58 88 bb 21 e9 2b ba 56 7a 41 bb bd c4 13 3c
       -0.0041609146 -0.0006557871 -0.002952238 0.009019074
000020 d5 f6 1b bb 80 14 21 39 4e c3 e0 39 12 7f 08 3a
       -0.0023798246 0.00015361793 0.00042870123 0.0005206923
000030 a2 2b 91 bb 85 5a ad bc aa 3b a6 ba
       -0.0044302503 -0.021161327 -0.0012682576

batchnorm.running_var f4 [15]
000000 da 99 80 3f 0a 06 64 3f fb f2 2e 3f 7e cc 20 3f
       1.0046952 0.89071715 0.6833951 0.6281203
000010 2a 38 d7 3e 28 c8 58 3f db 58 47 3e 91 c1 ba 3e
       0.42035037 0.84680414 0.1946749 0.36475804
000020 92 b5 08 3f 17 15 86 3e de 54 31 3e dc 2b 30 3f
       0.53402054 0.26187965 0.1731753 0.68816924
000030 d3 89 08 3f 6e 2c 66 3e 15 1c 16 3f
       0.53335303 0.22477886 0.586366

output.weight f4 [1, 15]
000000 d4 d3 25 3c ec 80 05 be aa c2 21 be aa 6f 1a be
       0.010121305 -0.13037461 -0.15796915 -0.15081659
000010 66 f6 b5 3d da fe d4 3d 55 6e 20 3e 84 02 be be
       0.088848874 0.104001716 0.15667088 -0.37111294
000020 a5 9f 87 be 8e dc e6 bd e2 4b bd 3d 71 f8 1d 3e
       -0.26488987 -0.11272536 0.09242989 0.15426804
000030 17 0c 99 be 8d 27 69 3e 5b e2 10 be
       -0.29892036 0.22768994 -0.14148848
