saved_models/wad_neural_network.pth (torch, 4299 bytes, 7 tensors)

hidden.weight f4 [15, 5]
00000000: 9c6e b9be 7985 afbe 7ccd d9be bb8a 893e
00000010: 76d0 3cbe eb41 abbd c436 a43e dd25 25be
00000020: 4cb8 02be cef1 ad3e 0337 63be 64aa e4be
00000030: f010 37bf 8da0 d9bd 0349 803e 7654 f3be
00000040: 2bb8 11bd 5d10 bebe 9f65 fa3e 7077 e23d
00000050: 5125 b63c e272 bf3c 8fd4 f3bd 784c e13e
00000060: 5d65 b33e f8fc 24bf e506 6dbe 6e7c 8cbe
00000070: 94e0 9a3e 63d5 353f 7842 c73d d08c d8be
00000080: 95f1 89bd dc4a 853c 5a9f 80bd 96cd 1b3f
00000090: 5b6c 983c 5935 c6be 4ab2 d53d 8ded ae3d
000000a0: 5309 90be 59a8 d1be d216 063e 29fe fabe
000000b0: 038e 05bf 1ab0 cbbd 3120 10be b408 14bd
000000c0: 37ec 263c e673 bf3e d22f 533e 0b19 d5be
000000d0: 4924 c93c e7d7 bb3e 6558 40bf fb51 b73e
000000e0: ca80 9d3e 4639 6bbd 5871 2dbf a11d 063e
000000f0: 3730 893e 689f c33e 5e99 b43d 6f88 593d
00000100: aa75 2f3f 27c2 b43c 0067 ad3e dd5b 2d3f
00000110: adf0 2a3f 2512 8f3d 470f 9abe 7d97 9bbd
00000120: 7748 453d 3ad3 13bd b90b 03bf
-0.362172 -0.3428152 -0.42539585 0.26863655 -0.18438897 -0.08362182 0.32073033 -0.16127725
-0.12765616 0.33973545 -0.22188954 -0.44661248 -0.7151022 -0.10626326 0.25055704 -0.47525376
-0.035576027 -0.3712186 0.48905656 0.11057937 0.02223459 0.02337021 -0.11905777 0.44003654
0.35038272 -0.644485 -0.23147161 -0.27438682 0.30249465 0.7102873 0.09729475 -0.4229493
-0.06735531 0.016271047 -0.06280394 0.60860574 0.018606355 -0.38712576 0.104343966 0.08541403
-0.28132114 -0.40948752 0.13094643 -0.49022034 -0.5216982 -0.09945698 -0.1407478 -0.036141112
0.010188154 0.3739311 0.20623711 -0.4162067 0.024553435 0.36688158 -0.7513488 0.35804734
0.3076232 -0.057427667 -0.67751074 0.1309724 0.26794598 0.38207555 0.08818315 0.05310863
0.68538916 0.022065235 0.33867645 0.677183 0.6677349 0.06985883 -0.3008978 -0.075972535
0.04816481 -0.036090113 -0.5118976

hidden.bias f4 [15]
00000000: bf07 25bb 4f0f 3dbb c834 3e3b 4dce d4bb
00000010: e1d9 19bb c877 0d3b 6a09 9c3b 8d77 49bc
00000020: de76 063b 9e47 2cbb 79a8 a1bb 8ae7 aab8
00000030: 8b8b 623a 3eee 9fba b6dc 243a
-0.002518162 -0.0028848236 0.002902316 -0.0064943195 -0.0023475813 0.0021586288 0.0047618644 -0.0122965695
0.0020517628 -0.0026287804 -0.0049334136 -8.149359e-05 0.00086420093 -0.0012201739 0.0006288992

batchnorm.weight f4 [15]
00000000: 792f 5c3f ea09 333f b75c 4a3f 11f7 353f
00000010: 6051 763f fa33 753f c78d 5b3f 69c7 4c3f
00000020: 6ece 483f 194a 373f c327 5f3f 084d 5d3f
00000030: f6e9 5d3f 2c34 773f e3e6 5f3f
0.8600994 0.69937 0.7904772 0.7108012 0.9621792 0.95782435 0.8576321 0.79991776
0.78439987 0.7159744 0.87170047 0.86445665 0.8668512 0.9656398 0.8746168

batchnorm.bias f4 [15]
00000000: 8545 15be a539 97be d083 49be fdb9 8ebe
00000010: 6598 05be 8c1d 1cbe 4771 dbbd 6b15 91bc
00000020: efb2 a63e 0710 92be 1beb a33e 6fcb acbd
00000030: 8d03 3ebe 9565 62bd 53cc 643e
-0.14577301 -0.29536167 -0.19679189 -0.27876273 -0.13046415 -0.15245646 -0.10714965 -0.017710408
0.3255839 -0.28527853 0.3201531 -0.084372394 -0.18556042 -0.055272657 0.22343569

batchnorm.running_mean f4 [15]
00000000: 6f2f 25bb 3416 42bb 8bcc 373b e2d5 cfbb
00000010: ffce 31bb 7496 183b 8d01 923b ba19 49bc
00000020: c2ff 193b 7f6d 35bb 9ce5 82bb b112 6db8
00000030: ce61 623a 4aba a8ba 07cc 363a
-0.0025205275 -0.0029615285 0.00280455 -0.0063426355 -0.0027131436 0.0023283036 0.0044557513 -0.0122742
0.002349839 -0.0027683673 -0.0039946567 -5.652261e-05 0.000863579 -0.0012872901 0.00069731515

batchnorm.running_var f4 [15]
00000000: 3768 143f 6378 673e f85f 893f 17dd 923f
00000010: 7e53 063f efd7 1540 142d 8f3e d53a bc3e
00000020: 9bd4 453f 3654 4b3e c3c9 503f 7437 403f
00000030: fc44 193f cb71 c93f e152 fd3d
0.5797152 0.22604518 1.0732412 1.1473721 0.5247115 2.3413045 0.2796408 0.36763635
0.77277535 0.19856343 0.81557864 0.75084615 0.59870887 1.5737852 0.123693235

output.weight f4 [1, 15]
00000000: ae3a 5a3c a3a1 233e 5418 03be 21c8 a2be
00000010: 8156 143e dcf7 723e 857e 16be bc0f 5fbe
00000020: ebee 51be 6203 803e dd32 5ebe 9e54 0fbe
00000030: b019 d03d c42a af3d 8ae6 0ebe
0.013319654 0.15979628 -0.12802249 -0.3179331 0.14486124 0.23727363 -0.14696701 -0.21783346
-0.20501296 0.2500258 -0.2169909 -0.13997123 0.101611495 0.08553079 -0.13955131
