Modularised/neural_network_parameterised_2.pth (torch, 4903 bytes, 7 tensors)

hidden.weight f4 [24, 6]
0	0x3fb218a5	1.3913771
1	0x3dab1474	0.083535105
2	0x40141ad0	2.3141365
3	0x3f88dddf	1.069271
4	0xbf0b120c	-0.5432441
5	0xbec05f60	-0.37572765
6	0xc1c512e9	-24.634233
7	0x3cbe6f09	0.023246305
8	0xbf83e8af	-1.0305384
9	0x40e64b92	7.196725
10	0xbfa241a2	-1.267628
11	0x40816db1	4.04464
12	0x40b65299	5.6975827
13	0xbca8ee6c	-0.0206215
14	0x3f7eeb7f	0.9957809
15	0xc06b3510	-3.6751137
16	0xc05d5b9f	-3.458717
17	0xc106eec7	-8.433295
18	0x40411487	3.016878
19	0x3dee7806	0.116439864
20	0x3f24485b	0.64172906
21	0xc01e6454	-2.4748735
22	0xbf9f5fd4	-1.245112
23	0xc07c90a5	-3.9463284
24	0xbf285d71	-0.6576758
25	0x3e0c191b	0.13681452
26	0x3dcedd0c	0.10100755
27	0x3dd808a3	0.10548522
28	0x3e457b0c	0.1928522
29	0xbd0d2d3f	-0.03446698
30	0x4175422c	15.328655
31	0xbd5ae4d2	-0.053440876
32	0x3f50707c	0.8142164
33	0xc08556ac	-4.16683
34	0xbfc22834	-1.5168519
35	0xc1304bf4	-11.018543
36	0x418a9e6d	17.327356
37	0xbd21002d	-0.03930681
38	0xbe15aa36	-0.14615712
39	0xc0a0b775	-5.0223947
40	0xbe64b596	-0.22334895
41	0xc12add94	-10.679096
42	0x415fc10f	13.984633
43	0xbd950017	-0.07275408
44	0x3eb4f2c2	0.3534146
45	0xc03ac5f3	-2.9183319
46	0xbf7c6c1a	-0.9860245
47	0xc12894b6	-10.536306
48	0xc02b9324	-2.6808558
49	0xbe23cd8b	-0.15996377
50	0xbf8a6d44	-1.0814595
51	0x4000e3f6	2.0139136
52	0xc0ce5111	-6.447396
53	0xc05b7da0	-3.4295425
54	0xbef5ae6f	-0.47984645
55	0xbe0a26d7	-0.13491379
56	0x3f49355d	0.7859705
57	0x3eca43a9	0.39504746
58	0x3f2152a8	0.6301675
59	0x3f41c56c	0.75691867
60	0x4181555d	16.166681
61	0xbd80e5e1	-0.06293846
62	0x3e99d8f2	0.3004833
63	0xc05f6d7b	-3.4910572
64	0xc02fcea8	-2.7469883
65	0xc1376803	-11.4628935
66	0x402452d3	2.5675552
67	0x3e972a49	0.2952445
68	0x3cc9daa7	0.024640394
69	0xbfb8035c	-1.4376025
70	0xc04fd9d5	-3.2476704
71	0xc052499a	-3.2857423
72	0x3fcf2756	1.6183879
73	0x3e5408b6	0.20706448
74	0xbf0977b9	-0.5369831
75	0xbf20b11f	-0.62770265
76	0xbfff2a7c	-1.993484
77	0xbfa3333a	-1.2750008
78	0xc0c40ce0	-6.1265717
79	0xbc0f575d	-0.008748856
80	0x3e9c5f5b	0.305415
81	0xc022fe26	-2.546762
82	0x41ad4c7c	21.662346
83	0x41a85ca5	21.045237
84	0xc02442f2	-2.566586
85	0xbe722cad	-0.23649855
86	0xbe082b2c	-0.13297719
87	0x4014a3c5	2.3224957
88	0x3f551b70	0.8324499
89	0x40448d2b	3.0711162
90	0xc01205ce	-2.2816043
91	0xbe07c84d	-0.13260002
92	0x3d7ba03f	0.06143212
93	0x3f3c2d8c	0.73507
94	0x401be71e	2.4359813
95	0x4029dc00	2.6540527
96	0xc0303c15	-2.753667
97	0xbe3c7840	-0.18405247
98	0x3dae30dd	0.08505414
99	0x3fca8665	1.5822264
100	0x3f29d2c3	0.6633722
101	0x402908be	2.6411586
102	0x41528447	13.157294
103	0xbd7c34a2	-0.061573632
104	0x3ebb78e1	0.3661566
105	0xc08a2dbe	-4.318084
106	0xbfbfbd82	-1.4979708
107	0xc1119bd2	-9.100542
108	0xc01ab836	-2.4174933
109	0xbea12e62	-0.314807
110	0xbe771142	-0.24127677
111	0x3fd8aa93	1.6927055
112	0x3f8eb099	1.1147643
113	0x4010e74d	2.2641175
114	0xc15ffe69	-13.999612
115	0xbb83b040	-0.0040188134
116	0x3f39a1f6	0.7251276
117	0x3f85b565	1.0445982
118	0x414e722d	12.902875
119	0x418e9cb2	17.826511
120	0xc11cd595	-9.802144
121	0x3c369b46	0.0111454185
122	0x3e998341	0.2998295
123	0xc03fe348	-2.9982471
124	0x4190d2df	18.102964
125	0x41c8c153	25.094397
126	0x3f8caa29	1.0989429
127	0x3e438303	0.19092946
128	0x3ea0a2f3	0.3137432
129	0xbe851de9	-0.25999382
130	0xbf5523c4	-0.832577
131	0xc01ed20f	-2.481571
132	0xc0553a22	-3.3316731
133	0xbde6f97f	-0.11278056
134	0x3ec09155	0.3761088
135	0x3fa569fc	1.2922969
136	0x40023883	2.0346992
137	0x408e4370	4.445732
138	0xc00a655f	-2.1624372
139	0xbe8d3a47	-0.27583525
140	0x3e9a1424	0.3009349
141	0x3fe2d223	1.7720379
142	0x3e5dc278	0.21656215
143	0x3ff2f28f	1.8980273

hidden.bias f4 [24]
0	0xb990d0c0	-0.0002762135
1	0x3a9a265e	0.0011760702
2	0xbb311dc3	-0.0027025796
3	0x3a264be2	0.0006343705
4	0x38a3a08c	7.80235e-05
5	0xbbf83dc1	-0.007575721
6	0x3c1bc299	0.009506845
7	0xbc92af9f	-0.017906008
8	0xba1a4c19	-0.0005885973
9	0xb9950b20	-0.00028427783
10	0xbb8051ed	-0.0039160163
11	0xb9a954ba	-0.00032297318
12	0xba1a03af	-0.00058751827
13	0xbc191931	-0.009344385
14	0xbbca13a8	-0.006166894
15	0xbbe983b8	-0.007126298
16	0xb8321220	-4.2455387e-05
17	0xbc25bf12	-0.0101163555
18	0x39aec504	0.00033334654
19	0xbc4ec5d2	-0.012620406
20	0x3b4f0c59	0.0031593053
21	0x3a0d8fc4	0.0005400146
22	0x3a33e97b	0.00068630994
23	0xba918953	-0.0011103548

batchnorm.weight f4 [24]
0	0x3c73466c	0.014848333
1	0x3f6094f3	0.8772728
2	0xbc073500	-0.008252382
3	0x3cc066f5	0.023486594
4	0x3d50d701	0.050986294
5	0x3eab5a3a	0.33467275
6	0x3ec297f2	0.3800655
7	0x3ea582bc	0.32326305
8	0x3dafd057	0.085846595
9	0x3e1d1b16	0.15342364
10	0x3ed976a3	0.42473325
11	0x3d07f533	0.033192825
12	0x3db6ebf1	0.08931721
13	0x3f7b1430	0.9807768
14	0x3e1d5481	0.15364267
15	0x3e79ddd8	0.24401033
16	0x3e86abbe	0.26302904
17	0x3ec6dd8e	0.38840908
18	0x3e1799ed	0.14804812
19	0x3f7473a7	0.9548897
20	0x3f72e9bf	0.9488792
21	0x3d1228a4	0.03568329
22	0x3e92d6a7	0.28679392
23	0x3e04a697	0.12954174

batchnorm.bias f4 [24]
0	0xbdedbbcd	-0.11608086
1	0xbf1da1ab	-0.6157481
2	0xbeb628ce	-0.35578007
3	0xbe8ccb89	-0.27499035
4	0xbf1ee765	-0.6207183
5	0x3ec124b4	0.37723315
6	0x3eb30b47	0.3496954
7	0x3ec42a46	0.38313502
8	0xbe90a4e9	-0.28250816
9	0xbf53e730	-0.8277464
10	0x3eb0810b	0.34473452
11	0xbe6ff48c	-0.23433131
12	0xbf372822	-0.7154561
13	0xbedda8d9	-0.43292883
14	0xbed8a271	-0.42311433
15	0xbf3a3d5c	-0.72749877
16	0xbf5fdc43	-0.8744547
17	0x3eaaff19	0.3339775
18	0xbf4ad092	-0.79224503
19	0xbf2ad671	-0.6673346
20	0xbf01f10a	-0.5075842
21	0xbe8423c8	-0.2580855
22	0xbf55374c	-0.832875
23	0xbf2675ee	-0.65023696

batchnorm.running_mean f4 [24]
0	0x4247a676	49.91256
1	0xc2005150	-32.079407
2	0x3e76d710	0.24105477
3	0x424e41fd	51.56444
4	0x425aff0b	54.749065
5	0x407116d9	3.7670195
6	0x40da13b7	6.8149066
7	0xc0d48aaf	-6.641929
8	0xc292511e	-73.15843
9	0xc24ac56e	-50.692802
10	0x3fa685d0	1.3009586
11	0x42f3377c	121.60837
12	0x42a5cdaf	82.901726
13	0xc1494c34	-12.581104
14	0xc2c22e1b	-97.09005
15	0xc2601562	-56.02088
16	0xc298a466	-76.32109
17	0xc0bae061	-5.83989
18	0xc3022e66	-130.18124
19	0xc19f055b	-19.877615
20	0xc1307073	-11.027453
21	0x429ffe19	79.996284
22	0xc23c7d2c	-47.12224
23	0xc2de2e73	-111.09072

batchnorm.running_var f4 [24]
0	0x43d54824	426.5636
1	0x441706e2	604.10754
2	0x42b4a7a8	90.32745
3	0x44189815	610.3763
4	0x4455e6ef	855.60834
5	0x43ccc2e2	409.52252
6	0x43d867f1	432.81204
7	0x43f0cb16	481.5866
8	0x449560b6	1195.0222
9	0x443d369b	756.8532
10	0x43e8cc17	465.59445
11	0x456f3903	3827.5632
12	0x44e57ebb	1835.9603
13	0x42fe55b9	127.16743
14	0x45188f86	2440.9702
15	0x443d7f27	757.98676
16	0x44b5fd54	1455.9165
17	0x43d1fb0c	419.9613
18	0x458913b7	4386.4644
19	0x433aed1c	186.92621
20	0x4338ff8e	184.99826
21	0x44cd8044	1644.0083
22	0x4402282b	520.6276
23	0x454dace4	3290.8057

output.weight f4 [1, 24]
0	0x3c59cf84	0.0132941045
1	0x3f1eca4d	0.62027436
2	0xbd802019	-0.06256122
3	0x3d064fa8	0.03279081
4	0x3da8d009	0.082428046
5	0xbe6fa397	-0.23402248
6	0xbe644682	-0.22292522
7	0xbe6f4f31	-0.23370053
8	0x3d9887ad	0.07447753
9	0xbd73b77c	-0.059501156
10	0xbe8ad05d	-0.27112094
11	0x3c2acaf8	0.010424368
12	0x3c3d82e0	0.011566848
13	0x3eaf1c08	0.34201074
14	0xbbbd8cf8	-0.005784627
15	0x3ce4faab	0.027951559
16	0x3d3f8fe2	0.046768077
17	0xbe747dea	-0.23876157
18	0x3d079868	0.03310433
19	0x3ecf5eed	0.4050211
20	0x3e990503	0.29886636
21	0x3d001e88	0.031279117
22	0x3e6ab5f6	0.22920975
23	0xbc85678f	-0.016284732
