Modularised/neural_network_parameterised.pth (torch, 4877 bytes, 7 tensors)

hidden.weight f4 [24, 6]
0	0xbfdf3f0e	-1.7441118
1	0xbeef58c0	-0.46747398
2	0xbfb12dde	-1.3842123
3	0x4047b504	3.1204233
4	0xbf81093f	-1.0080947
5	0x3da7d78b	0.081954084
6	0x3f9fd08a	1.2485516
7	0x3e1b827e	0.15186498
8	0x3e029996	0.12753901
9	0xbf295d9d	-0.6615847
10	0xbf0a5b8f	-0.5404596
11	0xbfa077a8	-1.2536516
12	0x3e6cb9af	0.23117708
13	0x3e47c7cc	0.1950981
14	0x3e0a92f9	0.13532628
15	0xbf10ac10	-0.56512547
16	0xbe995339	-0.29946306
17	0xbef4458d	-0.47709313
18	0x3ef75aa0	0.4831133
19	0x3dde2dc8	0.10848576
20	0x3d9cf79b	0.076644145
21	0xbeac5124	-0.33655655
22	0x3ef69c4b	0.48166117
23	0xbd6e1a19	-0.058130357
24	0xc01ccf95	-2.4501698
25	0xbdf9acdb	-0.12191173
26	0xbc2f519f	-0.010700612
27	0x3faa755e	1.3317068
28	0x4000d9b9	2.0132887
29	0x401c8ad5	2.4459736
30	0x41b825d6	23.018475
31	0xbd5ac028	-0.05340591
32	0xc0154f57	-2.3329675
33	0xc0bfc76d	-5.993094
34	0x411fd444	9.989323
35	0xc16fa3ab	-14.977458
36	0x41b63af3	22.778784
37	0xbd430b8a	-0.047618426
38	0xc051707b	-3.2724903
39	0xc0cc04c6	-6.3755827
40	0x411db9b7	9.857841
41	0xc1758363	-15.344577
42	0x3e37a409	0.17933668
43	0x3e03b00f	0.1286013
44	0xbde5b65d	-0.11216424
45	0xbee359b2	-0.4440437
46	0xbee558be	-0.44794267
47	0xbe2411d8	-0.16022432
48	0xbfb3ca9f	-1.404621
49	0xbeb13c63	-0.34616384
50	0xbde0e986	-0.10982041
51	0x3f33e4d7	0.70271057
52	0x3edfeb96	0.43734425
53	0x3f49a7cd	0.7877167
54	0xc1db6ee9	-27.429155
55	0xbb3a8be2	-0.0028464724
56	0x3f08422e	0.5322598
57	0x3fb8e5f5	1.4445177
58	0x4153dbf9	13.241204
59	0x41dae0a8	27.359695
60	0xc04042f6	-3.004087
61	0xbe9320cb	-0.28735957
62	0xbf9a7c79	-1.2069236
63	0x40364e16	2.848516
64	0xbfb84ffa	-1.4399407
65	0xbe097ff0	-0.1342771
66	0x4104cc3a	8.29986
67	0xbc9cc96a	-0.01913901
68	0xbf76336b	-0.9617221
69	0xc03aa65c	-2.9164038
70	0x406f697d	3.7408135
71	0xc0bee402	-5.965333
72	0x3fa7e50e	1.3116777
73	0x3e58d345	0.21174343
74	0xbe806c0c	-0.25082433
75	0xbf8189b3	-1.0120147
76	0xbec2c699	-0.38042143
77	0x3e641883	0.22274975
78	0xc2354a5e	-45.322624
79	0x3c80aad5	0.015706459
80	0x3e9885d2	0.29789597
81	0x40a0ceef	5.0252604
82	0x3fa9446c	1.3224006
83	0x413d6e9c	11.839504
84	0x3fdb1d6c	1.7118354
85	0x3ebe3144	0.37146962
86	0xbdc0bddf	-0.09411215
87	0x3e6cefe4	0.23138386
88	0xbf97f2ad	-1.1870934
89	0xc01f2fca	-2.4872918
90	0xc01c642e	-2.4436145
91	0xbe4ce63b	-0.20009701
92	0xbf05c545	-0.52254134
93	0x3fc0543d	1.5025707
94	0x404aecc1	3.1707003
95	0x408def59	4.4354672
96	0xc0b0f3f1	-5.529778
97	0xbebb9c49	-0.36642674
98	0xbf7aab1f	-0.9791736
99	0x407ca42b	3.94752
100	0x40836107	4.105594
101	0x40f2db19	7.5892453
102	0x4147189f	12.443511
103	0xbc08a703	-0.0083406
104	0xbe6a0bfd	-0.22856136
105	0xbfc4c176	-1.537154
106	0x40ac213d	5.3790574
107	0xbfe16acd	-1.7610718
108	0xbf9d026a	-1.2266362
109	0xbe49d1b3	-0.197089
110	0xbecd419c	-0.40089118
111	0x3f36d413	0.7141735
112	0x3f70e8a7	0.94105
113	0x3f687100	0.90797424
114	0xc02bea35	-2.6861699
115	0xbe9a300b	-0.3011478
116	0x3ede85b7	0.4346139
117	0x401f4112	2.4883466
118	0x4002d434	2.0442019
119	0x403913eb	2.8918407
120	0xc0b02e6f	-5.505668
121	0x3c01ba94	0.007918019
122	0x3d63e2fe	0.0556364
123	0xc05fdfd5	-3.4980366
124	0x42514b23	52.323376
125	0x419fae07	19.959974
126	0x41b518cf	22.637114
127	0xbd11efa7	-0.03562894
128	0xc052cf22	-3.2938924
129	0xc0acb6cf	-5.3973155
130	0x4126e522	10.430941
131	0xc16e82b5	-14.906911
132	0xc0d6381a	-6.6943483
133	0x3bf62d65	0.0075127357
134	0xbed4738e	-0.4149441
135	0xc05abb38	-3.417677
136	0x420ac747	34.694607
137	0x42011019	32.26572
138	0x3fd9b0f9	1.7007133
139	0x3d988c22	0.07448603
140	0xbcf86cc8	-0.030325308
141	0xbf97fb17	-1.1873502
142	0xbfa82a46	-1.3137901
143	0xbfeab320	-1.8335915

hidden.bias f4 [24]
0	0xbaf82e54	-0.0018934705
1	0x39c5ae45	0.0003770461
2	0x3a87a616	0.001034918
3	0x39201548	0.00015266717
4	0xb95d7505	-0.00021119796
5	0xbbee9e1a	-0.007282031
6	0x3a7d0dbd	0.0009653231
7	0x3a7b02f3	0.00095753296
8	0xb9720920	-0.00023082318
9	0x3b2467d3	0.0025086298
10	0x3ad749ed	0.001642523
11	0x3b2cd582	0.0026372378
12	0xb9ccc891	-0.00039059346
13	0xbbb7da36	-0.0056107296
14	0xba1b662d	-0.0005928006
15	0xbb14f7da	-0.002273074
16	0xbb8221bc	-0.0039713066
17	0x3bb6cbaf	0.00557848
18	0x3928ebff	0.00016109644
19	0xbba09d63	-0.0049015745
20	0x3c4425bd	0.011971888
21	0x3b04a055	0.0020237167
22	0xbc1c8d99	-0.009555244
23	0x39b8d400	0.00035253167

batchnorm.weight f4 [24]
0	0x3bcefc62	0.0063167075
1	0x3dae395c	0.08507034
2	0x3c09b1ab	0.008404176
3	0x3d507e44	0.050901666
4	0x3e3c6448	0.1839763
5	0x3ed7a281	0.42116168
6	0x3ecf9df7	0.40550205
7	0x3d3be8be	0.045876257
8	0x3e30fc61	0.17283775
9	0x3f866a99	1.0501281
10	0xbd9f8226	-0.07788496
11	0x3ecba259	0.397723
12	0x3d830946	0.06398253
13	0x3f88e703	1.0695499
14	0x3c51a86a	0.012796501
15	0x3da78031	0.081787474
16	0xbabb5487	-0.0014292159
17	0xbf22f5bb	-0.63656205
18	0x3e674ae9	0.2258717
19	0x3e6e165c	0.23250717
20	0x3f804242	1.002022
21	0x3ed2327a	0.41054136
22	0x3f76490a	0.962052
23	0x3d122a03	0.035684597

batchnorm.bias f4 [24]
0	0xbf18c49b	-0.59674996
1	0xbf18a9be	-0.59634006
2	0xbd80651e	-0.062692866
3	0xbf16d21c	-0.5891435
4	0xbf1164de	-0.56794536
5	0x3ec53736	0.38518685
6	0x3ec3ac1b	0.38217244
7	0xbea3f5ba	-0.32023412
8	0xbf21b120	-0.63160896
9	0xbf9c0948	-1.2190332
10	0xbf1b5b09	-0.60685784
11	0x3eb6032b	0.35549292
12	0xbefd4dfc	-0.4947356
13	0xbf90f19a	-1.1323731
14	0xbf06e6dd	-0.5269602
15	0xbf0d8072	-0.55274117
16	0xbf25c04d	-0.6474655
17	0xbea0d40f	-0.31411788
18	0xbf2e7242	-0.68143094
19	0xbf827f90	-1.0195179
20	0xbf05d3be	-0.5227622
21	0x3ec17ffa	0.3779295
22	0xbecd71f5	-0.40126005
23	0xbebf057a	-0.37308866

batchnorm.running_mean f4 [24]
0	0xc33f323e	-191.19626
1	0x4277d130	61.954285
2	0x429b4372	77.63173
3	0x422f6e5a	43.857765
4	0xc2493fcc	-50.3123
5	0xc06ae3ad	-3.6701462
6	0xc0eb9afc	-7.362669
7	0x42486ee5	50.108295
8	0xc30b69e1	-139.41359
9	0xc22047c1	-40.070072
10	0xc2f3193d	-121.54929
11	0xc04f1251	-3.235493
12	0x42a77b08	83.740295
13	0xc2837580	-65.72949
14	0x43160506	150.01962
15	0xc2a66f4e	-83.21739
16	0xc318ba9e	-152.72897
17	0x417dbf72	15.85924
18	0xc2a298e9	-81.29865
19	0xc2eb7540	-117.729004
20	0xc0dcd3e9	-6.900868
21	0xbfa75ee7	-1.3075837
22	0xc107ced0	-8.487991
23	0x41f1ff74	30.249733

batchnorm.running_var f4 [24]
0	0x461c8ef4	10019.738
1	0x4480a2e7	1029.0907
2	0x44d7337b	1721.6088
3	0x44045302	529.297
4	0x442020b5	640.51105
5	0x445994ee	870.327
6	0x445b98b7	878.38617
7	0x443795c7	734.3403
8	0x45a8193f	5379.156
9	0x441ac4c5	619.0745
10	0x456c2db2	3778.856
11	0x42ffa5f5	127.824135
12	0x44f55904	1962.7817
13	0x44b44943	1442.2894
14	0x45c12576	6180.6826
15	0x44e154cd	1802.65
16	0x45bb54dd	5994.608
17	0x42ec2f0d	118.091896
18	0x44dc8ee5	1764.4655
19	0x4574b569	3915.3381
20	0x439ec8b4	317.568
21	0x4438c7e4	739.1233
22	0x439bf868	311.94067
23	0x436bcff9	235.8124

output.weight f4 [1, 24]
0	0x3d5e476b	0.05426733
1	0xbae4aaeb	-0.0017445957
2	0xb8b3bc9a	-8.570515e-05
3	0xbd0774e7	-0.03307047
4	0x3c767e14	0.015044708
5	0xbe82bac5	-0.2553312
6	0xbe81bffc	-0.25341785
7	0x3b340fb9	0.0027475192
8	0xbbe4dc59	-0.0069842753
9	0x3f0a66c8	0.5406308
10	0x3c362fbf	0.011119782
11	0xbe87b2e6	-0.26503676
12	0x3cca0d2c	0.024664484
13	0x3ef8c78c	0.48589742
14	0xbdbcc298	-0.09216803
15	0xbe080719	-0.13283958
16	0xbd849ae6	-0.06474857
17	0x3ef11494	0.47086012
18	0x3daa6f82	0.0832205
19	0xbc3e7755	-0.011625131
20	0x3ee0def5	0.43920103
21	0xbe838f0a	-0.25695068
22	0x3ec6fcc3	0.38864717
23	0xbce30ec4	-0.027717002
