Modularised/neural_network.pth (torch, 3799 bytes, 7 tensors)

hidden.weight f4 [12, 4]
000000 68 37 fb c1 75 0a ed bc 66 33 35 3e 37 6f 89 3f
       -31.402054 -0.02893565 0.17695388 1.0737065
000010 64 06 eb c1 8c 1d f0 bc e7 cd 17 bf 1c 72 6d 3f
       -29.37812 -0.029310964 -0.5929856 0.9275224
000020 1e 1f a5 41 a5 0c 5b bd 8b f6 eb bf b2 f6 55 c0
       20.640194 -0.053478856 -1.8434614 -3.343182
000030 38 78 31 40 a6 03 74 3e 38 95 98 3e f2 75 00 c0
       2.7729626 0.23829517 0.29801345 -2.0071988
000040 cd 87 b6 c1 66 46 61 3c cd 52 11 3f 67 ef 19 40
       -22.816309 0.013749694 0.5676697 2.405237
000050 d1 d9 95 c0 fa da 50 3d 0b 79 90 3f 71 18 32 40
       -4.682839 0.050990082 1.1286939 2.7827418
000060 33 c7 89 c1 7c 7c 83 3c df a1 89 3e 1f ff f3 3f
       -17.222265 0.01605057 0.2688131 1.9062232
000070 12 fe 01 c2 c9 c1 a1 3b 2d b9 ea 3b df 51 de 3b
       -32.498116 0.004936431 0.007163188 0.006784662
000080 ad f8 9d c0 f2 16 14 bf 6b 5e ed 3e e9 04 73 40
       -4.936606 -0.5784751 0.46361098 3.7971747
000090 11 a6 a3 41 fd 03 dc bc 83 72 d7 bf 01 9a 7e c0
       20.456087 -0.02685737 -1.6831821 -3.9781497
0000a0 40 8d 9c 41 42 53 0d bd 7a ed 75 bf 47 9b 51 c0
       19.56897 -0.03450323 -0.96065485 -3.2751024
0000b0 e1 59 a8 41 00 4c 6a bd 53 6c 51 bf b0 b1 62 c0
       21.043886 -0.057201385 -0.81805915 -3.5420952

hidden.bias f4 [12]
000000 dc 09 f1 3b 10 bf bd 3b c2 28 b6 ba 46 3d 27 bb
       0.0073559117 0.0057905987 -0.0013897645 -0.00255187
000010 5d d7 80 ba 6b d4 e3 3a bb 1c f5 3a 88 43 23 bc
       -0.0009829808 0.0017382031 0.0018700579 -0.009964831
000020 04 97 da 3a 28 17 0c ba 85 03 9b bb fd 69 06 3c
       0.0016677086 -0.0005344027 -0.004730644 0.0082039805

batchnorm.weight f4 [12]
000000 56 56 4f 3f 05 a9 3f 3f c1 fa 03 3f 0a 4a 03 3d
       0.80991113 0.7486728 0.51554495 0.03205303
000010 27 06 33 3f 91 80 cc 3e 76 dd 09 3f 5d 9a 51 3f
       0.6993126 0.39941838 0.5385355 0.81876165
000020 6b 1b 89 3e de 3c db 3e a5 2d df 3e 56 99 08 3f
       0.2677873 0.42819875 0.43589512 0.5335897

batchnorm.bias f4 [12]
000000 1a f5 10 bf c9 6d ce be ef e3 54 3e bd 27 7a be
       -0.56623995 -0.40318134 0.20790075 -0.24429221
000010 fa 1e 88 be 21 e4 b6 bd b6 18 f0 bd 12 98 11 bf
       -0.26586133 -0.08930231 -0.11723463 -0.56872666
000020 6f 03 52 bf 55 11 81 3e 3b cb 91 3e b2 b0 22 3e
       -0.8203649 0.25208536 0.28475365 0.15887716

batchnorm.running_mean f4 [12]
000000 eb 9a 87 c2 69 3f 88 c2 d2 7d 1b 3f 1b 81 c8 42
       -67.802574 -68.12385 0.6073886 100.25216
000010 a6 27 f1 c1 0d 83 b0 41 1c 0f a2 c1 cc 13 6d c2
       -30.14436 22.06399 -20.257378 -59.269333
000020 8d a6 6b c3 b3 2e 45 41 32 3a 37 41 5a a0 90 40
       -235.65059 12.323901 11.451708 4.519574

batchnorm.running_var f4 [12]
000000 e2 4b f6 43 4f c2 d8 43 46 87 31 44 55 18 35 45
       492.59283 433.51804 710.11365 2897.5208
000010 e5 37 c7 43 8d c2 76 43 e3 6e 80 43 db 33 0e 44
       398.43668 246.75996 256.8663 568.81024
000020 90 e6 83 46 18 4b ef 43 8e b5 ec 43 ef 83 35 44
       16883.281 478.58667 473.4184 726.06146

output.weight f4 [1, 12]
000000 39 1b b5 3e b8 ca 8a 3e f4 2b 83 be dd 70 78 3c
       0.35372332 0.27107787 -0.2561947 0.015163627
000010 bb 2a 82 3e a2 cd 77 3e 81 75 93 3e ab 6b a0 3e
       0.25423226 0.24199536 0.28800586 0.31332144
000020 70 06 04 3e bb 3f 67 be 1d e9 7a be 4e 55 7b be
       0.1289308 -0.22582905 -0.24502988 -0.2454426
