Modularised/neural_network.pth (torch, 3799 bytes, 7 tensors)

hidden.weight f4 [12, 4]
20.320713 -0.05391058 -1.0294642 -3.7664773 -1.9954197 -0.18042397 -0.5161303 1.4122328
-28.923742 -0.023059348 0.4920825 1.2687163 -3.4091275 -0.15463579 -0.1589497 2.163029
-34.745125 0.015121264 -0.002028481 0.15898411 -1.8660166 -0.3038771 -0.006670626 1.1037488
-10.978334 0.015845567 0.034213778 2.9840508 -34.8295 -0.009575497 0.15837216 0.57375735
-5.096309 -0.13130258 0.7644905 3.7035031 -2.2653441 -0.28579664 0.3742803 0.9347725
19.281475 -0.043998003 -1.7630633 -4.162455 21.221504 -0.031831164 -1.0956819 -3.5691874
00000000: d290 a241 57d1 5cbd 7cc5 83bf f70d 71c0
00000010: ea69 ffbf 10c1 38be 1e21 04bf 0bc4 b43f
00000020: d363 e7c1 f5e6 bcbc 3df2 fb3e 4c65 a23f
00000030: 252f 5ac0 d858 1ebe b6c3 22be 116f 0a40
00000040: 02fb 0ac2 2ebf 773c 44f0 04bb bbcc 223e
00000050: a2d9 eebf c795 9bbe 4495 dabb a447 8d3f
00000060: 42a7 2fc1 90ce 813c bf23 0c3d b0fa 3e40
00000070: 6851 0bc2 8ce2 1cbc 502c 223e c3e1 123f
00000080: f714 a3c0 2f74 06be a6b5 433f 3206 6d40
00000090: 66fb 10c0 f053 92be aba1 bf3e 404d 6f3f
000000a0: 7640 9a41 4037 34bd 0fac e1bf d532 85c0
000000b0: a4c5 a941 6561 02bd 4e3f 8cbf 916d 64c0

hidden.bias f4 [12]
0.0018736867 -0.00019958691 -0.0057890923 0.00061682565 0.00062968023 -0.0013438112 -0.003701955 -0.005664074
0.00021232979 -4.7519694e-05 -0.0050366754 0.0021999378
00000000: 7e96 f53a 3448 51b9 6db2 bdbb 78b2 213a
00000010: 2011 253a d222 b0ba 809c 72bb b299 b9bb
00000020: d8a4 5e39 e24f 47b8 b20a a5bb d52c 103b

batchnorm.weight f4 [12]
0.5936572 0.27161545 0.74037606 0.14687262 0.99175656 0.090125486 0.5103715 0.8698721
0.090802714 0.09743129 0.5017552 0.50955856
00000000: ebf9 173f 2e11 8b3e 4989 3d3f c765 163e
00000010: c2e3 7d3f b693 b83d b5a7 023f f0af 5e3f
00000020: c6f6 b93d 0e8a c73d 0773 003f 6e72 023f

batchnorm.bias f4 [12]
0.20084476 -0.771277 -0.36677533 -0.97533154 -0.60156614 -0.8170767 -0.058524728 -0.58444893
-0.5281843 -0.46643257 0.32629988 0.27497151
00000000: 40aa 4d3e 6972 45bf fac9 bbbe 54af 79bf
00000010: 3d00 1abf f02b 51bf a0b7 6fbd 729e 15bf
00000020: 1637 07bf 40d0 eebe c710 a73e 11c9 8c3e

batchnorm.running_mean f4 [12]
4.882668 -77.35552 -57.0319 -66.56255 -57.467587 -125.08876 -7.710172 -69.13749
-53.16898 -116.833176 1.3884447 13.446983
00000000: d13e 9c40 07b6 9ac2 aa20 64c2 0720 85c2
00000010: cfde 65c2 722d fac2 bbb9 f6c0 6546 8ac2
00000020: 09ad 54c2 96aa e9c2 8eb8 b13f d826 5741

batchnorm.running_var f4 [12]
650.2751 1691.2777 435.77557 1186.938 725.4539 4744.288 157.05803 614.2188
772.13965 4130.8555 598.8418 534.25073
00000000: 9b91 2244 e368 d344 46e3 d943 045e 9444
00000010: 0d5d 3544 4e42 9445 db0e 1d43 018e 1944
00000020: f008 4144 d816 8145 e0b5 1544 0c90 0544

output.weight f4 [1, 12]
-0.29692963 -0.007463516 0.29959524 -0.10528109 0.33697298 0.12612309 0.32360566 0.3777717
0.1546885 0.0879507 -0.28014272 -0.27158633
00000000: 2907 98be 8390 f4bb 8c64 993e 9d9d d7bd
00000010: b987 ac3e 6926 013e a4af a53e 4b6b c13e
00000020: aa66 1e3e 7f1f b43d de6e 8fbe 5d0d 8bbe
