Modularised/data/neural_network_parameterised.pth (torch, 4877 bytes, 7 tensors)

hidden.weight f4 [24, 6]
000000 18 ef 7e c1 6b 3e 62 3c db 3d a1 bf d7 4c df 40
       -15.9333725 0.013808827 -1.2597002 6.97813
000010 47 92 9a c1 59 7b 93 c0 5c b2 23 c2 26 9c 63 3c
       -19.321424 -4.608807 -40.92418 0.013892209
000020 e5 c1 66 3f 33 43 a1 40 08 63 e5 3f b6 ce 7e 41
       0.9013961 5.039453 1.7920847 15.925467
000030 58 21 56 41 b7 11 4b bd 96 c3 6e bf 5a d5 cc bc
       13.383141 -0.04957744 -0.9326719 -0.025004078
000040 7b 96 32 c0 11 24 be c1 27 4f 80 41 45 cf 9d bd
       -2.7904346 -23.76761 16.038649 -0.07705549
000050 52 e4 5c bf 82 80 52 c0 c9 41 5a bf a8 82 ba c1
       -0.8628589 -3.2890935 -0.8525663 -23.313797
000060 0a a9 a1 3f 94 f7 9a 3e 92 bb 04 3c cd 4e d1 be
       1.2629712 0.30267012 0.008101361 -0.40880433
000070 92 39 22 bf ac 80 a0 bf f6 ca 62 c0 7d fa 00 bb
       -0.63369095 -1.2539268 -3.5436378 -0.0019680553
000080 47 4f 89 bd 51 25 ac bf f8 05 0a c2 26 65 90 c1
       -0.06704574 -1.3448888 -34.50583 -18.049389
000090 a4 7f 67 41 62 83 5e bd 22 aa 9b bf 1d e9 ab bf
       14.468662 -0.054324515 -1.2161295 -1.3430516
0000a0 32 89 29 c0 8c 82 bc c1 51 8c 9b bf 3a d8 64 3e
       -2.6489987 -23.563744 -1.2152196 0.22348109
0000b0 aa 8c ad be f8 6b 20 3f af 3c 8e 3e 24 90 e2 3e
       -0.3389638 0.6266475 0.27780673 0.44250596
0000c0 7c c4 e2 bf 5e 11 a3 be ac 75 5e 3e b7 70 a7 3f
       -1.7716212 -0.31849188 0.21724576 1.3081273
0000d0 98 4e e6 3e 68 75 3f 3f f0 39 d4 c0 bb 5f cb 3b
       0.44981837 0.7478852 -6.6320724 0.0062064803
0000e0 d8 6c 53 3f b0 a6 eb bf 9c 47 1f 42 c3 6c ce 41
       0.8258796 -1.8410244 39.81993 25.803106
0000f0 66 a2 9c 3f bd f1 0d 3e 57 3f e6 3e 5d 1c fd be
       1.223706 0.13861747 0.449702 -0.49435702
000100 a6 d1 4f bf e9 4c 5f bf 8b c4 e4 c0 0c 77 37 3b
       -0.81179273 -0.8722673 -7.148992 0.0027994541
000110 3d 4d 01 3f 62 d4 32 c0 ef 93 2a 42 4f 16 b2 41
       0.5050848 -2.7942128 42.644466 22.260893
000120 92 df 86 c1 72 4f 5d 3d 4d 81 c3 3e a2 be 49 40
       -16.859165 0.054030843 0.38184586 3.1522603
000130 3f 87 f8 41 49 76 e2 41 79 20 f1 bd 01 39 67 be
       31.066038 28.307756 -0.11773772 -0.22580339
000140 5e 41 b2 3d 10 f9 6f be 15 71 bc 3d ed 40 92 be
       0.08703874 -0.23434854 0.09201256 -0.2856516
000150 b8 9e 45 bf da 27 07 3e a4 c2 27 3e 99 e4 ad 3e
       -0.7719531 0.13198796 0.16382843 0.3396347
000160 c7 c6 95 3e f3 fa 14 be 0e 4b 7c 41 da ae 0d bd
       0.29253218 -0.14548855 15.768324 -0.03459058
000170 ab 9e 91 bd dd 29 31 c0 3e 4a 5a bf f8 c5 b5 c1
       -0.07110342 -2.7681801 -0.85269535 -22.721664
000180 9d 33 ee 3f bc 1c 0d 3e 64 6a 36 3d 53 42 d6 bf
       1.8609501 0.13780493 0.044535056 -1.673899
000190 cf c2 0a c0 66 b7 77 c0 bd 34 81 c0 fb cc b4 be
       -2.1681402 -3.8705688 -4.037688 -0.35312638
0001a0 7a a5 89 3f 75 fc 75 40 33 9c 2d 40 6c 3d 88 40
       1.0753624 3.8435338 2.7126586 4.257498
0001b0 56 2c db bf 08 93 a0 be 9c 71 21 bf 3d 6e f6 3f
       -1.7122905 -0.31362176 -0.6306398 1.9252392
0001c0 17 0c b9 3e 2f b7 d6 3f 8a 96 52 3f 9b bf 94 3e
       0.36142036 1.6774653 0.82260954 0.29052433
0001d0 72 b1 b9 3e 3b 5c 8b 3e ec 12 34 bf 1c 6d d6 be
       0.36268193 0.27218804 -0.7034137 -0.4188012
0001e0 6c 91 c9 3f cc 71 bb 3d b4 58 5e 3e 60 e3 ef be
       1.5747504 0.091525644 0.21713525 -0.4685316
0001f0 fa ae 34 c0 39 ec 72 c0 f5 b7 b1 c0 6d 08 c3 be
       -2.8231797 -3.795668 -5.5537057 -0.38092366
000200 16 53 6d 3f 8f 98 75 40 71 2a ac 40 c4 1c cb 40
       0.92704904 3.8374364 5.380181 6.3472614
000210 51 14 e0 bf 24 c4 81 3e a5 88 93 3f 9b 90 dc 3f
       -1.75062 0.25344956 1.1526076 1.723163
000220 06 11 21 40 2d db 3d 40 50 c8 6d c0 37 40 65 be
       2.516664 2.9665024 -3.715351 -0.22387777
000230 ca 0f d6 bd b8 6a 5a 40 ce cf 0b 40 03 6e 63 40
       -0.1045223 3.4127636 2.1845584 3.5535896

hidden.bias f4 [24]
000000 d0 06 1d 3c 54 63 cb 3b 35 e7 fb 39 f8 5f d8 3b
       0.009584144 0.006206909 0.00048046713 0.0066032372
000010 d4 4e 11 ba bc 04 57 bc 0a ec 24 3b 3f 46 ec 39
       -0.00055430573 -0.013123687 0.0025165104 0.00045065765
000020 16 72 2b 37 10 b3 4a 3c 62 0d 90 39 21 4a 8d bb
       1.0218957e-05 0.012371793 0.0002747579 -0.0043118154
000030 57 60 cb ba f0 b2 17 3a 0e 88 9c b9 4e f9 96 3b
       -0.0015516382 0.00057868566 -0.00029856007 0.004607356
000040 e6 32 69 bb 73 75 5b 3a e6 e3 fb b9 d3 9d 42 ba
       -0.0035583316 0.00083716883 -0.00048044248 -0.00074240303
000050 32 c3 3e 3b 97 ce cb 3a 3e b3 83 b9 f6 5b aa 39
       0.0029108045 0.001554924 -0.00025119813 0.00032493443

batchnorm.weight f4 [24]
000000 b7 0f 2e 3f 82 ea 8d 3f 71 9e 31 3f b8 49 08 3f
       0.6799273 1.1087191 0.6938239 0.53237486
000010 ae 13 94 3d 7d c8 7f 3f d5 3e f9 3e e1 62 31 3d
       0.07230316 0.99915296 0.4868075 0.04330719
000020 3e bd 85 3d 9e e6 5b 3f a0 82 0b bd 65 af 61 3f
       0.06530236 0.8589877 -0.03406012 0.88158256
000030 12 9d 86 3f c1 77 44 3e 61 bb 6f 3d e9 2c c4 3e
       1.0516684 0.19186307 0.058528308 0.38315514
000040 bc cb ef bd bc 7f a1 3e cb 63 a2 3d 68 a5 d4 3d
       -0.11708781 0.31542766 0.0792919 0.10383111
000050 48 dc 0a 3b 5f 2c ff 3d b7 2e 98 3d 25 f5 03 bd
       0.0021188427 0.12459635 0.07430785 -0.03221621

batchnorm.bias f4 [24]
000000 c2 11 e5 be 05 68 71 bf 27 cd 02 3e 2d f1 95 3e
       -0.4474011 -0.94299346 0.12773572 0.29285565
000010 44 91 01 bf bc e5 84 bf 22 eb d0 3e 7f 93 04 bf
       -0.5061228 -1.0382609 0.40804392 -0.5178756
000020 ce 1f 1a bf d1 99 8d be 45 d2 1e bf f3 20 88 be
       -0.6020478 -0.27656415 -0.62039596 -0.26587638
000030 c8 51 3d bf ff 6a 63 bf 9c 55 48 bf 63 f5 e5 3e
       -0.73952913 -0.8883514 -0.7825563 0.44913778
000040 c5 87 b1 be 48 ee 63 bf b0 a3 22 bf 37 bc 3b bf
       -0.34673896 -0.89035463 -0.6353102 -0.7333407
000050 bd 97 5c bd 59 bd 7e bf 4f 75 2f bf 35 bb 42 bf
       -0.053855646 -0.9950767 -0.68538374 -0.76066905

batchnorm.running_mean f4 [24]
000000 c4 d5 a6 c1 2e e2 57 c2 e5 66 c3 c0 5d 28 84 c1
       -20.854378 -53.97088 -6.1063104 -16.519709
000010 19 ed f2 42 4e c0 47 c1 fd d7 23 c1 48 56 ab 42
       121.46308 -12.484449 -10.2402315 85.66852
000020 9c 8f fc c2 36 5a b0 bf 14 37 6a 42 ea fe 0f c1
       -126.28049 -1.377753 58.553787 -8.999735
000030 d6 3d f4 3f 5d 75 b3 c2 b6 b9 50 42 57 ac 8d 40
       1.9081371 -89.729225 52.18136 4.4272876
000040 85 48 5b 42 46 29 07 c3 b9 a8 fe c2 88 c1 ed 42
       54.82082 -135.16122 -127.32954 118.87799
000050 ad de 1a 42 ae 50 15 c3 a4 bf d4 42 fb 3b b4 c2
       38.717457 -149.31516 106.3743 -90.11715

batchnorm.running_var f4 [24]
000000 fb 70 b3 43 5e 42 a2 44 8f 20 d4 43 78 37 44 44
       358.88266 1298.074 424.25436 784.8667
000010 1a cb 79 45 ae 56 1e 43 5b ee 05 44 34 5d 0a 45
       3996.6938 158.3386 535.7243 2213.8252
000020 08 e2 87 45 25 4e 8a 43 e6 35 56 44 62 6a 7a 43
       4348.254 276.6105 856.84216 250.41556
000030 d5 ed 27 44 8a 52 0c 45 1c 1c 47 44 a4 26 d2 43
       671.7161 2245.1587 796.4392 420.30188
000040 22 6b 48 44 61 99 9e 45 98 4e 87 45 b9 4a 6b 45
       801.67395 5075.1724 4329.824 3764.6702
000050 8e 4f b7 43 07 41 b9 45 35 08 41 45 aa 99 02 45
       366.62152 5928.1284 3088.513 2089.604

output.weight f4 [1, 24]
000000 7b 83 c7 3e c7 43 ef 3e 60 ce 9a be f7 28 7f be
       0.389675 0.46731398 -0.30235577 -0.2491797
000010 89 32 ec 3c 38 9f 73 3f a0 10 a9 be e2 0c 8e 3d
       0.02883269 0.95164824 -0.33020496 0.06936051
000020 35 1f e6 bc 15 ec bf 3e a7 30 cc bd 5a 04 bb 3e
       -0.028091053 0.37484804 -0.09970217 0.36526757
000030 9d ac bc 3e bb 05 b9 bd 0e 09 06 3c ab fa 8b be
       0.36850443 -0.09034296 0.00818087 -0.27339682
000040 6c 78 45 3d 4e a4 1f 3e a7 48 a7 bd 10 6f 37 bc
       0.048210546 0.15590021 -0.08168154 -0.011195913
000050 d5 f0 84 3b 3f 0c a6 bc bc 35 9d bb 12 e0 32 3c
       0.0040570297 -0.020269511 -0.0047976654 0.01091768
