Modularised/data/neural_network_yielded.pth (torch, 4031 bytes, 7 tensors)

hidden.weight f4 [12, 4]
000000 92 07 9e c1 77 38 26 bd ce ef 75 3f 4e 00 19 40
       -19.753696 -0.040581193 0.9606904 2.3906436
000010 06 de 0a c2 16 f0 19 bc 36 d1 1e bf 64 cf a9 3e
       -34.71682 -0.00939562 -0.6203798 0.3316604
000020 9e 02 da c1 78 92 a9 3c b7 5d 2a 3f 53 7a 85 3f
       -27.251278 0.020699725 0.6654925 1.0427955
000030 df 0b a8 41 69 2f 32 bc f9 70 28 c0 83 a8 7a c0
       21.005796 -0.010875561 -2.6318953 -3.9165351
000040 d4 aa 98 41 ee 2b 38 bd 28 0f 9f bf 48 fc 87 c0
       19.083412 -0.04496377 -1.24265 -4.249546
000050 6c 7d 6d c0 c0 f1 13 be 7c 15 aa 3e a0 ab e9 3f
       -3.7107801 -0.14447689 0.33219516 1.8255501
000060 cb 59 8c 41 6d 72 68 bd 87 70 8d bf ad f0 a1 c0
       17.543844 -0.05674975 -1.1049966 -5.0606294
000070 2d 0e 2c 3f e0 bb 7b 3e de 2c 58 bd 28 1c a5 bf
       0.6720913 0.24583387 -0.052777164 -1.2899218
000080 9b 37 f6 c1 99 58 19 3d fa 5d dc 3d 74 70 59 3f
       -30.777151 0.03743801 0.10760112 0.84937215
000090 43 05 10 3e f1 f1 6f 3e 3b 63 e5 3e 0d 0b e3 be
       0.14064507 0.23432137 0.4480227 -0.4434437
0000a0 2e cd a6 40 1c e2 41 bd ad 6a 3d 3f ae d0 0d c0
       5.2125463 -0.047334775 0.739909 -2.2158618
0000b0 f5 dd f9 c1 6b 45 59 3c 83 fd 39 bd 4d 77 6c bc
       -31.233377 0.013261179 -0.045407783 -0.01443274

hidden.bias f4 [12]
000000 1b f5 53 3b 10 8c e7 3b fb b3 c7 bb df 6d 4c bb
       0.003234214 0.0070662573 -0.0060944534 -0.0031193418
000010 db 5b 81 bb 3e b6 81 3b d1 9d 4b 3b 63 8f 2c b9
       -0.0039477176 0.0039584925 0.0031069408 -0.00016456614
000020 09 3f 41 3b 48 45 09 3b 0d 52 8e 3a 47 c9 99 ba
       0.0029487035 0.0020945836 0.0010858193 -0.0011732959

batchnorm.weight f4 [12]
000000 5c 11 25 3f 52 37 5b 3f ce 64 23 3f 2b 41 e5 3e
       0.64479613 0.8563129 0.6382569 0.44776282
000010 43 45 f9 3e ba 8f c0 3d 61 b2 0d 3f 6e af 81 3d
       0.48685655 0.09402414 0.5535031 0.06332289
000020 46 af 33 3f 80 30 d8 3a 13 06 aa 3e a9 8c 46 3f
       0.7018932 0.0016493946 0.3320776 0.7755838

batchnorm.bias f4 [12]
000000 bd ff 5d be 18 ce 1f bf 09 89 59 be c1 e8 7f 3e
       -0.21679588 -0.6242385 -0.21243681 0.24991132
000010 40 29 82 3e 3d 13 9a be 45 d8 5f 3e 80 14 48 bf
       0.25422096 -0.30092803 0.21859844 -0.7815628
000020 d7 59 d6 be 68 34 e0 be b8 55 9e 3e b2 7c a0 be
       -0.41865417 -0.43789983 0.30924773 -0.31345135

batchnorm.running_mean f4 [12]
000000 b9 26 2f c2 ec 61 8f c2 54 95 19 c2 5f 7e 6e 41
       -43.787815 -71.69125 -38.39583 14.905852
000010 31 1c 60 40 a3 27 74 c2 c1 b1 a1 c0 e6 67 c5 42
       3.5017207 -61.038708 -5.0529485 98.70293
000020 c7 5a 29 c2 da ce c1 42 5f cb 2b c1 2a 4d 4f c2
       -42.33865 96.90401 -10.737151 -51.825356

batchnorm.running_var f4 [12]
000000 88 07 69 43 4e 59 18 44 05 62 00 44 b9 b1 d6 43
       233.02942 609.3954 513.53156 429.38846
000010 d3 fe 0f 44 fe a1 79 44 4d 11 25 44 80 4f 42 45
       575.9816 998.5311 660.2703 3108.9688
000020 aa c5 30 44 0b 38 36 45 16 3b 3e 43 76 fc 11 44
       707.0885 2915.5027 190.2308 583.9447

output.weight f4 [1, 12]
000000 fe 69 9e 3e 61 14 9b 3e 44 fa 68 3e 12 bc 75 be
       0.3094024 0.30288985 0.22751719 -0.23997524
000010 fb 16 88 be c9 80 88 3d d8 60 94 be fb ea eb 3c
       -0.26580033 0.06665189 -0.28980136 0.02879857
000020 df af a4 3e 21 95 9e bd 3e a5 86 be cc 52 a5 3e
       0.3216543 -0.07743288 -0.26297945 0.32289732
