Modularised/data/neural_network.pth (torch, 3799 bytes, 7 tensors)

hidden.weight f4 [12, 4]
19.344254 -0.039539527 -1.9519496 -4.645983 12.3359785 -0.057441622 0.05938627 -3.7897983
-24.222628 0.018495135 0.8754604 1.7403892 4.3371596 0.20113286 0.009323186 -4.167743
2.46951 0.50359404 1.4341195 -1.2704096 -30.681568 0.015452478 0.44656816 -0.19177693
-3.5571976 -0.22894962 0.032641716 2.079474 17.358063 -0.031591758 -1.7639341 -4.9972157
-31.0156 0.00017732289 0.015190747 1.5105449 -4.26164 -0.17938924 0.5955621 1.2942337
-3.1163936 -0.21234342 -0.15240684 2.468225 -32.165375 -0.012610753 -0.45163792 0.21659984
00000000: 08c1 9a41 33f4 21bd 7cd9 f9bf e5ab 94c0
00000010: 2b60 4541 e847 6bbd 043f 733d 0e8c 72c0
00000020: f1c7 c1c1 1c83 973c 2c1e 603f 13c5 de3f
00000030: 03ca 8a40 c6f5 4d3e 47c0 183c 275e 85c0
00000040: 740c 1e40 8aeb 003f 3a91 b73f c89c a2bf
00000050: da73 f5c1 642c 7d3c 95a4 e43e 2c61 44be
00000060: 20a9 63c0 c571 6abe 52b3 053d 1a16 0540
00000070: 50dd 8a41 5c66 01bd 98c8 e1bf 31e9 9fc0
00000080: f31f f8c1 c0ef 3939 9ce2 783c 8959 c13f
00000090: 5b5f 88c0 d0b1 37be c276 183f 73a9 a53f
000000a0: fe72 47c0 8e70 59be 8a10 1cbe 66f7 1d40
000000b0: 58a9 00c2 559d 4ebc 163d e7be 59cc 5d3e

hidden.bias f4 [12]
0.007957618 -0.00036000053 0.002241029 -0.005821154 0.0015223678 -0.00849995 -0.00072868384 0.0027848496
-0.0021818453 -0.00079570303 -0.00014945166 -0.0027094877
00000000: ab60 023c 74be bcb9 3ade 123b 61bf bebb
00000010: 308a c73a 6043 0bbc 2505 3fba 0682 363b
00000020: 4afd 0ebb ba96 50ba 20b6 1cb9 a991 31bb

batchnorm.weight f4 [12]
0.5502366 0.593633 0.60208607 0.044638734 0.023190646 0.82376343 0.09303803 0.45515874
0.7792109 0.0829205 0.13489394 0.85793436
00000000: 4edc 0c3f 55f8 173f 5022 1a3f 1bd7 363d
00000010: 4ffa bd3c 29e2 523f b98a be3d 910a e93e
00000020: 5e7a 473f 39d2 a93d a321 0a3e 96a1 5b3f

batchnorm.bias f4 [12]
0.24133793 0.19844596 -0.2345991 -0.31713682 -0.16519658 -0.2940466 -0.7665319 0.34587228
-0.5137059 -0.33386785 -1.0280946 -0.49971613
00000000: 4a21 773e 6b35 4b3e bf3a 70be c25f a2be
00000010: 4b29 29be 478d 96be 6f3b 44bf 2c16 b13e
00000020: 3b82 03bf baf0 aabe 9b98 83bf cbda ffbe

batchnorm.running_mean f4 [12]
2.79101 -6.894816 -31.237808 83.26756 214.23141 -48.840515 -96.14634 2.365619
-57.146267 -75.73562 -88.91197 -65.32409
00000000: e89f 3240 55a2 dcc0 08e7 f9c1 fe88 a642
00000010: 3e3b 5643 b05c 43c2 ed4a c0c2 4d66 1740
00000020: c795 64c2 a378 97c2 eed2 b1c2 efa5 82c2

batchnorm.running_var f4 [12]
566.0858 435.9528 438.1092 1972.6191 13456.146 565.16046 2617.3237 459.26566
546.22656 1540.4008 2264.8572 523.62213
00000000: 7e85 0d44 f5f9 d943 fa0d db43 d093 f644
00000010: 9640 5246 454a 0d44 2e95 2345 01a2 e543
00000020: 808e 0844 d38c c044 b78d 0d45 d1e7 0244

output.weight f4 [1, 12]
-0.2922 -0.29972482 0.29317597 0.010377984 0.044257347 0.29275465 -0.036801502 -0.27612028
0.37254712 0.09651694 0.06831582 0.38494867
00000000: 3d9b 95be 8875 99be 291b 963e 6b08 2a3c
00000010: 3147 353d f0e3 953e 2cbd 16bd a35f 8dbe
00000020: 7fbe be3e acaa c53d 2ae9 8b3d fe17 c53e
