Modularised/data/neural_network_parameterised_yielded.pth (torch, 4981 bytes, 7 tensors)

hidden.weight f4 [24, 6]
000000 4d ec 8e c1 aa a3 15 3c 57 02 3b bf c1 0c 87 40
       -17.865381 0.009133259 -0.73050445 4.220307
000010 4b 3a a9 c1 0a e5 f0 bf e1 2a 20 c2 d1 8a c0 3b
       -21.153463 -1.8819897 -40.041874 0.005875923
000020 22 06 52 3f 61 33 04 40 35 b6 5a 40 98 2e 94 41
       0.8204061 2.065636 3.417371 18.52275
000030 56 a7 5d 41 07 24 81 bd 9e 9b 66 bf 3e 2c 13 be
       13.8533535 -0.063057 -0.90081203 -0.14372346
000040 f1 a6 84 c0 d9 5e bd c1 f2 d9 76 41 13 e3 df bc
       -4.1453786 -23.671312 15.428209 -0.027329957
000050 93 25 5a bf 7d ce 3a c0 47 a7 fb bf 34 20 c4 c1
       -0.85213584 -2.918853 -1.9660424 -24.515724
000060 01 a9 a1 3f 35 f8 9a 3e 29 cb 04 3c 9e 4e d1 be
       1.2629701 0.30267492 0.008105078 -0.40880293
000070 8e 39 22 bf ac 80 a0 bf 93 b6 4b c0 69 c2 78 3b
       -0.6336907 -1.2539268 -3.1830184 0.0037957674
000080 56 e8 f6 bd b6 55 be bf 23 f0 10 c2 2c a1 98 c1
       -0.12056033 -1.4869907 -36.23451 -19.078697
000090 90 c5 6a 41 20 36 4c bd cd 9e 94 bf a8 84 c0 bf
       14.673233 -0.049856305 -1.1610962 -1.5040483
0000a0 d7 ca 58 c0 34 07 bf c1 51 8c 9b bf 3a d8 64 3e
       -3.3873804 -23.878517 -1.2152196 0.22348109
0000b0 aa 8c ad be f8 6b 20 3f af 3c 8e 3e 24 90 e2 3e
       -0.3389638 0.6266475 0.27780673 0.44250596
0000c0 7c c4 e2 bf 5e 11 a3 be ac 75 5e 3e b7 70 a7 3f
       -1.7716212 -0.31849188 0.21724576 1.3081273
0000d0 98 4e e6 3e 68 75 3f 3f af 2a c7 c0 5f 36 ba 3b
       0.44981837 0.7478852 -6.2239604 0.005682751
0000e0 2c 6e 38 3f a0 95 f6 bf d3 37 29 42 b6 c1 c6 41
       0.7204311 -1.9264412 42.304516 24.844585
0000f0 66 a2 9c 3f bd f1 0d 3e 57 3f e6 3e 5d 1c fd be
       1.223706 0.13861747 0.449702 -0.49435702
000100 a6 d1 4f bf e9 4c 5f bf a0 ea d7 c0 f7 2a 7a 3b
       -0.81179273 -0.8722673 -6.7473907 0.0038172582
000110 ca 3d de 3e 4c 98 1e c0 15 27 3d 42 99 f4 99 41
       0.43406516 -2.4780455 47.288166 19.244432
000120 46 f6 83 c1 92 f8 a3 3b 49 87 c6 3e 5e 3c 55 40
       -16.49525 0.005003997 0.3877509 3.3318095
000130 3e a8 f9 41 95 58 ed 41 79 20 f1 bd 01 39 67 be
       31.20715 29.668253 -0.11773772 -0.22580339
000140 5e 41 b2 3d 10 f9 6f be 15 71 bc 3d ed 40 92 be
       0.08703874 -0.23434854 0.09201256 -0.2856516
000150 b8 9e 45 bf da 27 07 3e a4 c2 27 3e 99 e4 ad 3e
       -0.7719531 0.13198796 0.16382843 0.3396347
000160 c7 c6 95 3e f3 fa 14 be 9c 25 74 41 e3 d4 ee bc
       0.29253218 -0.14548855 15.259182 -0.029154247
000170 5d 6b 9c be 25 ae 2c c0 6b c2 cd bf 44 d3 bd c1
       -0.30550662 -2.698129 -1.6074957 -23.728157
000180 9d 33 ee 3f 0d 1c 0d 3e 1f 6b 36 3d 53 42 d6 bf
       1.8609501 0.13780232 0.044535752 -1.673899
000190 cf c2 0a c0 66 b7 77 c0 5b 49 81 c0 11 a1 b0 be
       -2.1681402 -3.8705688 -4.0402045 -0.34497884
0001a0 38 f0 88 3f fc 4e 76 40 1f d1 2d 40 c2 52 88 40
       1.0698309 3.8485708 2.7158887 4.2601023
0001b0 56 2c db bf 08 93 a0 be 9c 71 21 bf 3d 6e f6 3f
       -1.7122905 -0.31362176 -0.6306398 1.9252392
0001c0 17 0c b9 3e 2f b7 d6 3f 8a 96 52 3f 9b bf 94 3e
       0.36142036 1.6774653 0.82260954 0.29052433
0001d0 72 b1 b9 3e 3b 5c 8b 3e ec 12 34 bf 1c 6d d6 be
       0.36268193 0.27218804 -0.7034137 -0.4188012
0001e0 6c 91 c9 3f cc 71 bb 3d b4 58 5e 3e 60 e3 ef be
       1.5747504 0.091525644 0.21713525 -0.4685316
0001f0 fa ae 34 c0 39 ec 72 c0 f5 b7 b1 c0 6d 08 c3 be
       -2.8231797 -3.795668 -5.5537057 -0.38092366
000200 16 53 6d 3f 8f 98 75 40 71 2a ac 40 c4 1c cb 40
       0.92704904 3.8374364 5.380181 6.3472614
000210 51 14 e0 bf 24 c4 81 3e a5 88 93 3f 9b 90 dc 3f
       -1.75062 0.25344956 1.1526076 1.723163
000220 06 11 21 40 2d db 3d 40 50 c8 6d c0 37 40 65 be
       2.516664 2.9665024 -3.715351 -0.22387777
000230 ca 0f d6 bd b8 6a 5a 40 ce cf 0b 40 03 6e 63 40
       -0.1045223 3.4127636 2.1845584 3.5535896

hidden.bias f4 [24]
000000 45 1d 21 3c 62 43 c8 3b 6f 7b 13 3a 49 0f d4 3b
       0.009833639 0.0061115483 0.0005625998 0.0064715487
000010 d4 4e 11 ba 04 c4 24 bc 39 d7 22 3b 3f 46 ec 39
       -0.00055430573 -0.010056499 0.002484752 0.00045065765
000020 16 72 2b 37 73 c6 62 3c 62 0d 90 39 13 18 9d bb
       1.0218957e-05 0.013841259 0.0002747579 -0.0047941296
000030 25 c8 ab ba f0 b2 17 3a 0e 88 9c b9 29 2c 90 3b
       -0.0013105912 0.00057868566 -0.00029856007 0.0043997956
000040 e6 32 69 bb 63 75 5b 3a e6 e3 fb b9 d3 9d 42 ba
       -0.0035583316 0.0008371679 -0.00048044248 -0.00074240303
000050 32 c3 3e 3b 97 ce cb 3a 3e b3 83 b9 f6 5b aa 39
       0.0029108045 0.001554924 -0.00025119813 0.00032493443

batchnorm.weight f4 [24]
000000 fb 7d 3c 3f ae 21 8c 3f 89 dc 27 3f a5 a9 c4 3e
       0.7362973 1.0947778 0.65570885 0.38410679
000010 52 0e 94 3d a7 e6 81 3f ee 0b 0b 3f e1 62 31 3d
       0.07229294 1.0148515 0.5431508 0.04330719
000020 3e bd 85 3d 45 ab 5b 3f a0 82 0b bd 08 2b 63 3f
       0.06530236 0.8580821 -0.03406012 0.88737535
000030 a7 e3 87 3f c1 77 44 3e 61 bb 6f 3d f0 4e c6 3e
       1.0616349 0.19186307 0.058528308 0.387321
000040 58 cd ef bd bf 29 a6 3e cb 63 a2 3d 68 a5 d4 3d
       -0.11709088 0.32453725 0.0792919 0.10383111
000050 48 dc 0a 3b 5f 2c ff 3d b7 2e 98 3d 25 f5 03 bd
       0.0021188427 0.12459635 0.07430785 -0.03221621

batchnorm.bias f4 [24]
000000 9f 2b 13 bf f9 9e 7b bf 1a 24 5f 3e 57 ef e3 3e
       -0.57488436 -0.9828945 0.21791115 0.4451854
000010 eb 91 01 bf ec ab 8a bf ff 7e a1 3e 7f 93 04 bf
       -0.5061328 -1.0833716 0.31542203 -0.5178756
000020 ce 1f 1a bf 03 b6 67 be 45 d2 1e bf 4f 01 a8 be
       -0.6020478 -0.22628026 -0.62039596 -0.32813498
000030 49 19 45 bf ff 6a 63 bf 9c 55 48 bf b6 42 e2 3e
       -0.7699171 -0.8883514 -0.7825563 0.4419152
000040 62 87 b1 be 4f 9e 61 bf b0 a3 22 bf 37 bc 3b bf
       -0.346736 -0.88132185 -0.6353102 -0.7333407
000050 bd 97 5c bd 59 bd 7e bf 4f 75 2f bf 35 bb 42 bf
       -0.053855646 -0.9950767 -0.68538374 -0.76066905

batchnorm.running_mean f4 [24]
000000 d2 a4 df c1 c0 0e 77 c2 d1 bc 17 c1 6c 0d 6b 40
       -27.955479 -61.764404 -9.483598 3.6726942
000010 4a 9e f6 42 67 7b 40 c1 ac 0d c3 c0 6a e9 ad 42
       123.30916 -12.030128 -6.095419 86.95589
000020 05 36 00 c3 8e bb 31 c0 96 c6 6d 42 61 08 02 c1
       -128.21101 -2.7770724 59.44393 -8.127046
000030 97 2b 71 c1 30 22 b6 c2 7b f0 53 42 a4 75 be 40
       -15.073142 -91.06677 52.984844 5.9518604
000040 78 de 5e 42 a7 0a 06 c3 be 55 01 c3 55 4d f1 42
       55.717255 -134.04161 -129.33493 120.65104
000050 04 46 1d 42 5f a0 17 c3 2a ea d7 42 00 25 b7 c2
       39.318375 -151.62645 107.95735 -91.572266

batchnorm.running_var f4 [24]
000000 05 63 a1 43 73 3c 84 44 36 94 fc 43 5c 90 ca 43
       322.7736 1057.889 505.1579 405.1278
000010 f1 5d 6b 45 d2 d4 38 43 be d9 ee 43 59 51 02 45
       3765.8713 184.83133 477.7011 2085.0842
000020 be 0b 80 45 61 02 92 43 f8 0e 4a 44 75 6f 89 43
       4097.468 292.0186 808.2339 274.87076
000030 53 e8 f4 43 33 34 04 45 92 9d 3b 44 88 8a c0 43
       489.81503 2115.2625 750.46204 385.08228
000040 b6 f3 3c 44 f5 50 8e 45 7b 39 7f 45 18 be 5d 45
       755.808 4554.1196 4083.5925 3547.8809
000050 98 dc ac 43 c8 7a ae 45 48 19 36 45 61 79 f6 44
       345.7234 5583.3477 2913.58 1971.7931

output.weight f4 [1, 24]
000000 21 e3 06 3f 5d 78 e3 3e cf 5e 97 be c9 be 8f be
       0.5269032 0.44427767 -0.2956452 -0.28075245
000010 f6 1e ec 3c d3 52 77 3f 71 04 95 be e2 0c 8e 3d
       0.028823357 0.96610755 -0.2910495 0.06936051
000020 35 1f e6 bc bf 6e b8 3e a7 30 cc bd 2e 74 c6 3e
       -0.028091053 0.36021993 -0.09970217 0.38760513
000030 db 9d c8 3e bb 05 b9 bd 0e 09 06 3c 74 0c 8f be
       0.39182934 -0.09034296 0.00818087 -0.27939188
000040 f6 7a 45 3d 8b f1 26 3e a7 48 a7 bd 10 6f 37 bc
       0.048212968 0.16303079 -0.08168154 -0.011195913
000050 d5 f0 84 3b 3f 0c a6 bc bc 35 9d bb 12 e0 32 3c
       0.0040570297 -0.020269511 -0.0047976654 0.01091768
